TFLiteWrapper2.7.0/data/conv2d_define_input_shape.tflite (tflite, 4584 bytes, 8 tensors)

dense_7/bias f4 [8]
00000000: 0000 0000 0000 0000 0000 0000 0000 0000
00000010: 0000 0000 0000 0000 0000 0000 0000 0000
0.0 0.0 0.0 0.0 0.0 0.0 0.0 0.0

batch_normalization_7/beta f4 [10]
00000000: 0000 0000 0000 0000 0000 0000 0000 0000
00000010: 0000 0000 0000 0000 0000 0000 0000 0000
00000020: 0000 0000 0000 0000
0.0 0.0 0.0 0.0 0.0 0.0 0.0 0.0
0.0 0.0

std.constant1 f4 [10]
00000000: 41df 7f3f 41df 7f3f 41df 7f3f 41df 7f3f
00000010: 41df 7f3f 41df 7f3f 41df 7f3f 41df 7f3f
00000020: 42df 7f3f 42df 7f3f
0.99950033 0.99950033 0.99950033 0.99950033 0.99950033 0.99950033 0.99950033 0.99950033
0.9995004 0.9995004

std.constant2 f4 [2]
00000000: 42df 7f3f 42df 7f3f
0.9995004 0.9995004

std.constant3 f4 [10, 32]
00000000: df37 5cbe de2f c3be 68f5 f8bd 532c d83e
00000010: f40e a1be 84df 96be 97c0 49be 7041 82bc
00000020: ee11 5cbe c47c bc3d 4b1a ca3e f787 a83e
00000030: 6002 7ebd 7bd5 cb3e f064 5e3d f118 d33e
00000040: f075 b1bc fd4b 8b3e c471 9ebd 3859 503d
00000050: d199 803e b63b 15be c099 1e3d c0e2 dabe
00000060: f01c 81bc cd2b a63e 93c1 d23e 19e2 833e
00000070: 34c6 d2bd 89a3 b1be 0520 b93e e279 b3be
00000080: 1ce2 fa3d ec79 b13d 9963 833e b8e3 25be
00000090: c67d 423e cd34 a83e 3edf 163e 1295 703e
000000a0: 93aa 44be c6b8 45be 1436 c53d 5813 94bd
000000b0: 89d7 a13e f8cb c1be bc42 cdbd b557 db3e
000000c0: f674 0dbe 9e3d 3a3e 2ed3 8fbe 2c35 d43d
000000d0: 1fff 893e 002f 9eba 0486 e7bd 5157 d43e
000000e0: c04e 5ebd 745f cebd f07e f0bd a419 b83d
000000f0: b232 743e 38fd 5fbe aa6e 1fbe 469f 9fbe
00000100: 881c 9fbe b014 d63c 086e d3be 7c4d 30be
00000110: fa28 43be f9f5 aabe 92f3 033e e068 31bd
00000120: 3444 a83d ba5d cebe 73eb bdbe d8b4 7b3d
00000130: 9dd6 8f3e e06b 37bc 2c20 24be f23f 2a3e
00000140: 899a a23e 962e 693e 4fe2 46be 3a0c b7be
00000150: 6335 d23e 640b d93d 354e 8e3e 34c1 adbe
00000160: c6af 3d3e 7455 e13d 188a b6be 09e7 8d3e
00000170: ef3e a53e d28a 0d3e 4b43 b03e 8033 bdbd
00000180: 515e 853e a56c a63e 68bb 7abd fa03 3d3e
00000190: 1dfd ac3e d2ff 6fbe c955 c63e de3d 3abe
000001a0: a694 31be 931f a63e b4b5 ed3d 979b cdbe
000001b0: 962f cebe 637e 9ebe 3341 b93e f8ab 76bd
000001c0: dc89 86be f3ac cb3e c617 a8be d082 c8be
000001d0: a5e5 45be b49f 82be 2ce6 d1bd ee1f 3b3e
000001e0: d4fd c0be 4a6e 97be f438 d63d f6d6 773e
000001f0: 9f5b dc3e 104c 35be d822 21be 70fe 133d
00000200: dcca 27be fa01 91be b475 f23d 1ba0 843e
00000210: 1138 da3e d893 0fbd 6d8b a33e af4c a03e
00000220: 90d1 433d aa42 39be 62a1 bbbe 179b c03e
00000230: fe00 203e 8eac 7bbe b012 dabe 7b6d d6be
00000240: 404b bfbd 8a93 b6be 22a2 5d3e cc9d c8bd
00000250: 9107 cb3e 1eca aabe 45b0 cb3e 0863 65bd
00000260: c087 eabb fd98 bf3e fb17 9f3e 6bc1 913e
00000270: a202 2cbe 4a9f 303e 56f8 39be cb38 87be
00000280: 7c6a fcbd d411 f13d 4812 82be 54d2 9f3d
00000290: 5818 76be 98b7 21bd 2a5f 363e 92fe 733e
000002a0: 3380 963e 4d2a ca3e 7b95 d1be 94e2 b63d
000002b0: bc9b f0bd 763a 703e b6a0 90be dddf bfbe
000002c0: 8ec5 0abe c93e a03e 3787 3cbe 36d5 383e
000002d0: fbdf 903e 38f0 d3be ebe5 b3be 5ed8 2abe
000002e0: 548f 40be ca92 cfbe 8b51 a63e 0012 41ba
000002f0: dc1f bdbd e77c af3e ed74 cabe ea33 05be
00000300: 44d9 cdbe 0416 d53d a646 603e c161 cabe
00000310: 69cc 40be f797 853e 48b9 d8be e423 913d
00000320: 36c0 7a3e 3a68 d8be e384 b4be 4619 613e
00000330: 74d2 63be 264e 62be 06df 583e 7e4c 153e
00000340: 4ee8 2b3e 0086 943b f095 c1be d963 c23e
00000350: b0b2 bbbe ae1d 92be 1bf9 bbbe 3c3f 8fbe
00000360: b71b cdbe ac68 f5bd e3f9 a8be 9e93 0d3e
00000370: 20ac 85bd 3f1f c8be 16c9 3d3e 5138 993e
00000380: ec66 b5be b84c ebbd f9ec d03e baa6 183e
00000390: 5660 a4be 48bf 98be 72cd 49be 0f8f a63e
000003a0: 7c7b 9d3d 12e4 08be 206a c4be 0e99 2c3e
000003b0: f165 44be ec5e 84bd 091a cd3e 3862 18be
000003c0: 6096 97bc bb8c d23e 0e6c 21be 4490 2ebe
000003d0: 690b b33e f06c 3abd 4275 75be 09de aa3e
000003e0: 7ce5 9ebe 00c8 e43c c0b6 acbe edc5 dcbe
000003f0: 20b8 e2bc 7eb9 0c3e 00b8 e7b9 bad6 15be
-0.21505688 -0.38122457 -0.121561825 0.42221317 -0.3145672 -0.29467404 -0.19702373 -0.015900344
-0.21491215 0.09203485 0.39473185 0.32916233 -0.062013984 0.3981131 0.05429548 0.41229966
-0.021662682 0.27206412 -0.07736543 0.050866336 0.25117353 -0.14573559 0.038720846 -0.42751122
-0.015760869 0.32455292 0.4116331 0.25758436 -0.102917105 -0.3469508 0.3615724 -0.35053927
0.12250158 0.08665833 0.25661924 -0.16200149 0.18993291 0.32852784 0.14733598 0.23494366
-0.19205694 -0.19308767 0.09629455 -0.07230252 0.31609753 -0.37850928 -0.10022494 0.42840353
-0.13814148 0.18187568 -0.28090805 0.10361704 0.26952454 -0.001206845 -0.11304858 0.41472867
-0.05427432 -0.100768 -0.117429614 0.089892656 0.23847464 -0.21873939 -0.15569559 -0.31176203
-0.31076455 0.026132911 -0.41294885 -0.17217058 -0.190586 -0.33390787 0.12885883 -0.043312907
0.08216134 -0.40305883 -0.37093696 0.061451763 0.28093424 -0.011195153 -0.16027898 0.16625956
0.31758526 0.22771677 -0.19422267 -0.35751516 0.41056356 0.10597876 0.27794042 -0.33936465
0.18524083 0.11002627 -0.35652232 0.27715328 0.32274577 0.13822487 0.3442634 -0.092383385
0.2604852 0.32504764 -0.06121388 0.18458548 0.3378686 -0.23437431 0.38737324 -0.18187663
-0.17341861 0.32445964 0.11606923 -0.40157768 -0.4027068 -0.309558 0.36182556 -0.060222596
-0.26277053 0.39780387 -0.32830638 -0.39162302 -0.19325884 -0.2551247 -0.1024898 0.18273899
-0.37693655 -0.2957633 0.10460082 0.24203095 0.4303865 -0.17704797 -0.15735948 0.036131322
-0.16385978 -0.2832182 0.11838856 0.259034 0.426209 -0.035053104 0.3194231 0.31308505
0.047807276 -0.18091837 -0.36646563 0.37618324 0.15625378 -0.24577543 -0.42592382 -0.41880402
-0.09340525 -0.35659438 0.2164388 -0.09795722 0.3965421 -0.33357328 0.3978292 -0.056002647
-0.007157296 0.37421408 0.31072983 0.2846788 -0.1679788 0.17248264 -0.18161139 -0.26410517
-0.12324998 0.117709786 -0.25404572 0.07803789 -0.24032724 -0.03948173 0.1780974 0.2382758
0.29394683 0.39485398 -0.40934357 0.08929935 -0.11748454 0.23459801 -0.28247613 -0.37475482
-0.13551924 0.312979 -0.18410955 0.18050084 0.28295884 -0.4139421 -0.3513635 -0.166841
-0.18804675 -0.4054168 0.32484087 -0.0007365048 -0.09234592 0.3427498 -0.39542332 -0.13008085
-0.40204823 0.1040459 0.2190195 -0.39527705 -0.18827976 0.26092502 -0.42328858 0.07086924
0.24487385 -0.4226702 -0.35257635 0.21982297 -0.2224825 -0.22100124 0.21178827 0.1457996
0.16787836 0.0045325756 -0.37809706 0.37966803 -0.36659765 -0.2853827 -0.3671349 -0.27977931
-0.40060207 -0.11982855 -0.33003148 0.13825843 -0.06526971 -0.3908634 0.1853374 0.29925779
-0.35430086 -0.11489242 0.40805796 0.14907351 -0.32104748 -0.29833436 -0.19707277 0.3253102
0.076895684 -0.13368252 -0.38362217 0.1685526 -0.19179513 -0.064634174 0.40058926 -0.14881217
-0.018504322 0.41122994 -0.15763876 -0.1704722 0.34969643 -0.045514047 -0.23970512 0.33372524
-0.31034458 0.027927399 -0.33733177 -0.43119755 -0.027675688 0.13742635 -0.00044196844 -0.14632693

std.constant4 f4 [8, 10]
00000000: 004b f53d 4e54 913e e099 41be 484e 94be
00000010: 60d5 603e ff4b 9abe 2ed7 05be 6097 db3d
00000020: 227a 3abe d456 f13e b4a3 1f3e 38d3 4b3e
00000030: 00f1 903e a8e7 c33e cc44 9e3e 2dda 0cbf
00000040: 1736 08bf c871 2a3e 4c14 f9be 967f 0c3f
00000050: c4ef a1bd a45a 2fbe 7872 693e e89b f9bd
00000060: cc1e 083f 40b3 b9bc 809c de3d 001e c03e
00000070: 4088 2b3e daa4 c63e 5099 0a3e 34a1 e1be
00000080: 4099 00bf e679 06bf a0f7 12bd 31e9 06bf
00000090: 125e 94be c4c0 ca3e 74e7 aabd 69bd b6be
000000a0: 24fb 7c3e 40ef e53d 2a16 a63e 3267 92be
000000b0: d0b7 073f de77 90be da66 093f 5280 cdbe
000000c0: c07f 163d d8c2 9a3d 2a8e d9be a026 343d
000000d0: 0074 75ba 408c c23c 4e05 78be e0cb 003d
000000e0: 1c47 0abe 8079 463e e036 b43c 9092 763d
000000f0: 80fc afbe ac27 c23e b407 b13e aacf 97be
00000100: 7cf6 253e 4222 06bf 1312 f8be 800f edbb
00000110: 8a15 b13e c02e e23c 06ea 45be defd c7be
00000120: 60fc 63be 3048 e03e 0a7d 9c3e 48ae 76be
00000130: 6498 653e a8f3 003e 82e9 edbe 261a 12bf
0.11977196 0.28384632 -0.18906355 -0.28965974 0.21956396 -0.30136105 -0.13070366 0.10722232
-0.18210652 0.47136557 0.15589792 0.19904792 0.28308868 0.38262677 0.30911863 -0.5502041
-0.53207535 0.16644967 -0.48648298 0.5488218 -0.0790706 -0.1712442 0.22797573 -0.1218794
0.5317199 -0.02266848 0.10869694 0.37522888 0.16751194 0.38797647 0.13535047 -0.440683
-0.5023384 -0.5252975 -0.035880685 -0.5269957 -0.2897802 0.39600194 -0.083449274 -0.35691383
0.24705178 0.11227274 0.32438785 -0.28594357 0.5301485 -0.2821645 0.53672564 -0.40136963
0.036742926 0.07556695 -0.42491275 0.04398215 -0.00093632936 0.023748517 -0.24220774 0.03144443
-0.13503689 0.19382286 0.021998823 0.060198367 -0.3437233 0.37920892 0.3457619 -0.29650623
0.16207308 -0.52396023 -0.4845129 -0.0072345138 0.34586746 0.027610183 -0.19327554 -0.39060873
-0.22264242 0.43805075 0.30564147 -0.2408992 0.22421414 0.12592947 -0.46467215 -0.5707115

std.constant5 f4 [2]
00000000: 0000 0000 0000 0000
0.0 0.0

std.constant6 f4 [2, 3, 3, 1]
00000000: 3d2e 883e 1f98 8f3e 2070 95bd c2e3 0d3e
00000010: 11be a13e 1a10 743e e1b6 c63e 6e63 333e
00000020: 3405 89bd ec72 cabe 6c12 d6bd ec87 f03d
00000030: a65d a6be 88a7 edbd b79a e93e d666 03be
00000040: 6af9 473e ea6a 163e
0.26597777 0.28045747 -0.07296777 0.13856414 0.31590322 0.23834267 0.388114 0.17518398
-0.066904455 -0.39540803 -0.104527324 0.11744675 -0.32493323 -0.1160422 0.4562585 -0.12832198
0.19528738 0.14689222
