TFLiteWrapper2.7.0/data/dense_1.tflite (tflite, 10556 bytes, 10 tensors)

dense_29/bias f4 [8]
00000000: 61aa 1b3c 5787 0fbc a15f 223c b316 1fbc
00000010: 8390 1dbc c23d 13bc f2de ce3b faf9 20bc
0.009501071 -0.008760295 0.009910495 -0.009710002 -0.009616974 -0.008986892 0.0063131982 -0.009825224

dense_28/bias f4 [10]
00000000: 1b23 a63b 8ea9 c339 d77c 92bb a003 f535
00000010: b858 9a3b 7dda 9fbb 344b cc3b 3413 a63b
00000020: 89a5 0bbb 7a18 8a3b
0.005070103 0.00037319626 -0.0044704485 1.8254977e-06 0.004710283 -0.0048783408 0.006234551 0.005068207
-0.0021308383 0.0042143436

dense_27/bias f4 [10]
00000000: bb98 9dba 0000 0000 9438 89bb 8338 89bb
00000010: 0c8c bd3b 0000 0000 0000 0000 0000 0000
00000020: e9f1 67ba 1170 10ba
-0.0012023667 0.0 -0.004187653 -0.004187645 0.005784517 0.0 0.0 0.0
-0.0008847998 -0.0005509863

std.constant f4 [10]
00000000: 4680 863f b085 863f 79f5 853f 8df5 853f
00000010: d058 853f b085 863f b085 863f b085 863f
00000020: 5a71 863f 397e 853f
1.0507896 1.0509548 1.0465537 1.0465561 1.0417728 1.0509548 1.0509548 1.0509548
1.0503342 1.0429145

std.constant1 f4 [10]
00000000: 80f1 d639 6b39 ecbb 92ea 90bb 348e 313b
00000010: fd19 5dbd 6287 803a 8cbc 84bb f86f 11bb
00000020: 23e3 f3bd 47bd bdbd
0.00040997192 -0.007208993 -0.004422494 0.0027092816 -0.053979862 0.0009805972 -0.004050797 -0.0022191983
-0.11908557 -0.092646174

std.constant2 f4 [10]
00000000: 00e5 823f 37af 843f 8047 843f 87ce 823f
00000010: ad9d 843f bec4 833f 1a0a 813f 982b 813f
00000020: 3f62 843f 6dd8 833f
1.0226135 1.0365971 1.033432 1.0219277 1.0360619 1.0294416 1.0081208 1.0091429
1.0342482 1.0300423

std.constant3 f4 [10]
00000000: 843f 58bd 0b59 f5bc bd88 0bbd 487f 47bd
00000010: 367c ecbc fe68 4fbd d6c7 77bd 13c9 6abd
00000020: d672 aabc 1d75 63bd
-0.05279495 -0.029949686 -0.03406595 -0.04870537 -0.028867822 -0.050637238 -0.060493313 -0.057320666
-0.020806711 -0.05553161

std.constant4 f4 [10, 180]
00000000: cac3 053d 9cbc 5c3d 5207 733c dd95 2f3e
00000010: 2e18 a9bc 401e 323d 5a06 a6bd 0877 20be
00000020: 0c8e 003e 180f 2fbe eb63 c03d d6e0 233e
00000030: 3371 7a3c 7779 3ebd 5c68 3cbd 5bde 20bd
00000040: 8118 b43c ca63 23be f564 1ebd 8c0b 173e
00000050: ddce 25bc b729 13be 1626 0bbe 4fbe c9bc
00000060: 786b 483d d5ea 3e3d 0344 2e3e 8479 d93d
00000070: f8b4 343e 642d b7bd 62ea 303e f718 36be
00000080: dc36 c0bd d904 afbd 591c 1bbe e05c 4f3d
00000090: 39cf c5bc 4006 d53d 9b05 de3d b06c 1dbe
000000a0: 4149 d33c 3293 1a3e 7043 eabd 44c9 a3bd
000000b0: b004 f6bd eb83 fa3d 63c5 533d 15c3 55bd
000000c0: 2316 1c3e 9816 333d 8cf7 543d 06f4 cabd
000000d0: 3e36 1b3e fb87 5c3d 1235 38bd c0f9 753d
000000e0: a460 2e3e 9ad7 95bc 20a3 47bd 9002 993b
000000f0: 97a9 5cbd 1b79 f13d d7c4 3dbd 3dc8 6fbc
00000100: 45b8 933d 5b1c 8dbd 6a1e c93c 25f8 7f3c
00000110: aad2 ee3d 5b27 f3bd d60f 893d 7460 ddbd
00000120: a5fd 163e c654 0b3d 6ebe 083d 2611 dbbc
00000130: 62c9 2ebe d081 31bd e568 25be ba09 3f3d
00000140: cca0 fabd b193 20be 6ae0 3e3e 800d 17bd
00000150: 02dd 01bd 4713 a93d a553 23be 4342 6c3c
00000160: a11e 163e c5c3 17bd 7a32 02be 2247 e63d
00000170: e001 cbbd cf31 e53d 72f1 1cbd 1f93 22be
00000180: cce6 8ebd 6ff0 b43d 87d6 09be 0fa4 e8bd
00000190: e154 10be 1bb9 bebd 75cb 2cbe 3bea 2e3e
000001a0: 47e8 19be 0770 5dbc 807e 87bd d9ee 06be
000001b0: 2719 db3c b257 94bd 79b4 5fbd 8fc6 35be
000001c0: db4c 20be 2d6a 1abd 9142 ee3d f414 85bd
000001d0: 78c2 0b3e c775 b2bd ae4b 213c ca8e 9d3d
000001e0: 0d51 22bd 551d 033e 9158 abbd 02ad 263e
000001f0: 0abd 633d 2058 a83d c47c dbbd 0a57 3e3d
00000200: 9fa9 023c c95a 11bd b8d6 dc3d ce36 21bd
00000210: 052c 663d b231 e33d 0dd8 b8bd 79fe b4bc
00000220: b939 13bd 98ec 1ebe 2a7e 64bd 5308 033d
00000230: a7da 723d c646 b53d 48e9 403c 6de7 32be
00000240: 37f5 c43c 0310 1b39 2533 37be 3b51 473d
00000250: a3e0 303e 5520 d1bd ab34 90bc c970 243e
00000260: 9abc d23c e986 20be a2ec cdbd 4c16 303e
00000270: d996 99bd d27d afbc 938f 223e ae70 d63d
00000280: 0006 bdbc 0a0e 1e3e 4e2c 5a3c 555d f8bd
00000290: f743 e0bd 6933 debd dcc8 b13d 655f 0cbe
000002a0: cf44 0a3e f253 6ebd 59b1 19be 7f1d e53d
000002b0: 4372 d93d 4911 043e 122d 77bd 076c 9fbd
000002c0: 5a0b 383e d328 9dbd a8fa c2bc c510 d3bd
000002d0: c0a2 1dbe d8fd efbc 78fd d2bc a00a 123e
000002e0: 39c4 86bd ce5c fdbd 141e 9c3d dc04 493d
000002f0: f424 5f3d 3b74 25be 28cf 53bd 800a f23d
00000300: 7c80 35bd 1e75 a5bd f6b7 1e3e 0048 5139
00000310: ca50 1e3e 7829 993d 3948 2ebe c8b9 813c
00000320: 40c1 603d e4a8 083e 1e66 29be 000a b73b
00000330: 922d 843d b002 68bc 30a3 8dbd 2c29 133d
00000340: fbe5 cebd b440 033e e89b 373e 37e8 a7bd
00000350: 8e13 e8bd 1a19 1b3e 788a cfbc d2ef 323e
00000360: 1866 d6bc 0074 26bd e0ee f6bd c0e3 42bb
00000370: 50b0 153d f510 b8bd 6a49 28be 824b 113e
00000380: ba86 6cbd c274 f8bd a846 ab3d b86d 95bd
00000390: c086 1c3b c48c b8bd fc7d c63d d238 033e
000003a0: 7c28 3ebd ba8b 11be e8b2 27be 10c5 e03d
000003b0: 1a32 05be 6c68 5c3d e33f a1bd 0b0a dfbd
000003c0: 566e 15be 382a 98bc d025 043d 5c33 48bd
000003d0: 6072 c73b 78b1 233d 005e 5a3b 0530 d4bd
000003e0: 2667 24be c4b0 1bbd 0c1f 5ebd f24e dcbd
000003f0: a073 f73d 00d1 1eba 7a32 233e c4c8 ad3d
0.032657422 0.05389081 0.014833288 0.17147012 -0.020641413 0.04348588 -0.0810668 -0.15670407
0.12554187 -0.17095602 0.09394058 0.16003737 0.015285778 -0.046502557 -0.045997962 -0.039274555
0.02198434 -0.15956035 -0.0386705 0.14750499 -0.010120121 -0.14371382 -0.13588747 -0.024626879
0.048930615 0.046610672 0.17018132 0.106188804 0.17647159 -0.089442044 0.1727691 -0.17782961
-0.093854636 -0.085458465 -0.15147533 0.050625682 -0.024146663 0.10401583 0.10840913 -0.15373492
0.025791766 0.15095213 -0.11438644 -0.07997373 -0.12012613 0.122321926 0.051701915 -0.052187998
0.1524282 0.04372272 0.05199389 -0.09909825 0.1515741 0.05384062 -0.044972487 0.060052633
0.17029053 -0.018291283 -0.048739552 0.004669495 -0.05387267 0.11790677 -0.0463303 -0.014635143
0.07212881 -0.06890174 0.024550635 0.015623127 0.11661275 -0.11872741 0.066924736 -0.108094126
0.14745195 0.034016393 0.033384733 -0.026741575 -0.17069009 -0.04333669 -0.16153295 0.046640135
-0.12237701 -0.1568134 0.18640295 -0.03687811 -0.03170491 0.0825563 -0.15949877 0.014420095
0.14660122 -0.037051935 -0.12714568 0.11244036 -0.09912467 0.11191141 -0.038316198 -0.15876435
-0.06977615 0.088349216 -0.13460742 -0.11359417 -0.14094879 -0.0931265 -0.16874488 0.1708154
-0.15030013 -0.013515479 -0.06615925 -0.1317705 0.026745392 -0.07243289 -0.05461547 -0.17751525
-0.15654318 -0.037698913 0.1163379 -0.06498137 0.13648403 -0.087138705 0.009844704 0.076932505
-0.039628077 0.12804158 -0.08366502 0.16276935 0.055600204 0.082199335 -0.107171565 0.046469726
0.007975011 -0.03548697 0.10783142 -0.039358906 0.056194324 0.11093463 -0.090255834 -0.022093998
-0.03594372 -0.15519941 -0.055784382 0.03199036 0.059290554 0.088513896 0.011774369 -0.17471094
0.024042709 0.00014787917 -0.17890604 0.04866145 0.17273192 -0.10211245 -0.017603239 0.16058649
0.025724698 -0.15676464 -0.100549 0.17196006 -0.07499475 -0.0214223 0.15875082 0.10470711
-0.02307415 0.15435043 0.013316227 -0.12127177 -0.10950463 -0.108496495 0.08680889 -0.13708265
0.13502811 -0.058185525 -0.15009059 0.111872666 0.10617497 0.12897219 -0.060345717 -0.077842765
0.1797308 -0.07673802 -0.023801163 -0.10305933 -0.15394115 -0.029295847 -0.025755629 0.14261866
-0.06580395 -0.12371217 0.076229244 0.0490769 0.0544786 -0.1615762 -0.05171123 0.11818409
-0.044311985 -0.08078979 0.15499863 0.00019958615 0.15460506 0.07478613 -0.17019738 0.015835658
0.054871798 0.13345677 -0.16542861 0.005585909 0.06454004 -0.014160797 -0.06915891 0.035927936
-0.10102459 0.12817651 0.17930567 -0.08198588 -0.11331855 0.15146294 -0.025334582 0.17474297
-0.026171729 -0.04063797 -0.120572805 -0.00297378 0.036545098 -0.08987609 -0.16434255 0.1418896
-0.057745673 -0.12131645 0.08363086 -0.07296318 0.0023884028 -0.09011224 0.09691998 0.12814644
-0.046425328 -0.14213458 -0.16376841 0.10975087 -0.13007393 0.053810522 -0.078735135 -0.108905874
-0.14592871 -0.018574819 0.032262623 -0.048877105 0.0060866326 0.03996417 0.0033320189 -0.103607215
-0.16054973 -0.038010374 -0.054228827 -0.10757245 0.120826006 -0.0006058365 0.15937224 0.08485559

std.constant5 f4 [10, 10]
00000000: 43be debe 82af fcbe cf6a 3abf 102a 003f
00000010: efe2 03bd fc80 103e b633 b9be 4397 cdbe
00000020: 0bc2 f43e a525 033f f15d a73e c63e fabe
00000030: 54fc 883d 3406 f4bc 1c93 d3bc d3e5 043f
00000040: d698 f43d 2c70 b0be e1e6 f7be 2afe af3e
00000050: 7834 aa3e 59f4 db3e 6d99 723e 1824 843e
00000060: e68e 29be 12c5 95be 03cd 33bd 78ad 32bf
00000070: 7946 90bc 6ca4 08bf 2178 3e3f bd13 9c3c
00000080: c121 383f 5501 96bd 1005 b53e f823 253e
00000090: 67ac 63bd 767e 29bf e946 e5be 1e45 05bf
000000a0: 1077 39bf 3182 b0be 6fb4 4ebe ae64 063e
000000b0: def8 943e 753e 96bd 79a1 02bf 9b12 323f
000000c0: db58 2f3e a886 883c 5f5e 54be 1cfd 0ebf
000000d0: bb03 503e b8c5 d33d c997 21bf 3036 163d
000000e0: fe4b f53e e490 04bf 0369 e93e a6f2 523e
000000f0: 3cf1 263f 5694 02bf a94d f73e 9036 173c
00000100: a59a bf3e e209 e4bd 29bf 8fbe e589 3c3f
00000110: 4492 c93e 9f89 cfbe 746e aa3e cdeb f5be
00000120: 2892 e23c fa56 35bf c871 aebe c09e 20bd
00000130: 5d57 abbe 8ec1 0ebf 4e28 063f 6dba 143f
00000140: c508 c93e f278 90be 21d9 2ebf e014 313e
00000150: ab74 aebe 38b7 2c3f 9bc9 d23d 7db7 413e
00000160: a0cb de3c 83f1 303e c219 3ebe 02b7 063e
00000170: ce0f 11bf 0a4a 343e 132d 2abf 4bd6 923e
00000180: 2b47 3abf 2e3f 0bbf b504 053f 2be6 923e
-0.43504533 -0.49352652 -0.72819227 0.5006418 -0.032198843 0.14111704 -0.36172265 -0.40154466
0.47804293 0.51229316 0.3268886 -0.48876017 0.06688753 -0.029788114 -0.025826983 0.51913184
0.11943214 -0.3446058 -0.48418334 0.343736 0.33243155 0.4295986 0.2369134 0.25808787
-0.16558418 -0.29251915 -0.043896686 -0.6979594 -0.017611729 -0.5337589 0.7440205 0.01905238
0.71926504 -0.07324473 0.35355425 0.16127002 -0.055584338 -0.6620859 -0.44780663 -0.5205859
-0.724473 -0.34474328 -0.20186017 0.13124344 0.2909612 -0.073361315 -0.5102764 0.6955964
0.1712374 0.016665772 -0.20739125 -0.55854964 0.20313923 0.10340446 -0.6312223 0.03667277
0.4790954 -0.51783586 0.4558793 0.20600376 0.65211844 -0.5100759 0.48301437 0.009229317
0.37422672 -0.111346975 -0.2807553 0.7364791 0.39369404 -0.40534684 0.33287394 -0.48031464
0.027657583 -0.7083584 -0.34071183 -0.039213896 -0.3346509 -0.5576409 0.5240525 0.58096963
0.39264503 -0.28217274 -0.6830006 0.1729312 -0.34073386 0.6746707 0.102923594 0.18917651
0.027196705 0.1727963 -0.18564513 0.1315575 -0.5666474 0.17606369 -0.6647503 0.28679118
-0.72764844 -0.5439328 0.5196031 0.2869123

std.constant6 f4 [8, 10]
00000000: 4dbc 19be 1bb9 c33e bd2d 0a3f 2a32 08bf
00000010: a079 01bf c8d3 55be baa6 80be 03ce 80be
00000020: 4544 ac3d 7dbc cebe dacd e23e 9510 36be
00000030: 6a27 363e 85ad 02be a72e d53d aca0 d63e
00000040: 6369 8fbe eb72 29be f496 4cbe 1e7c 513e
00000050: 5f46 06bf 3b31 58be 42a1 01bf fefc 83be
00000060: 1ab9 ee3e 5ea0 68bd a28e 95be 836d ebbd
00000070: 92a9 643d 4e9f a5be 1128 32be cb9f e6be
00000080: e1a0 99be 1212 af3c 640b f1be 2e64 8fbd
00000090: 7051 6f3e cb7f 8dbe 3dc8 d1be 67d7 123f
000000a0: 1cd2 2abe 4795 063f 9958 89bd 48de 82be
000000b0: f9ab 5d3e d0cd 4abd 4462 c43e f544 6dbd
000000c0: a35e 733e b72a d33e 5967 e93e 8b77 733e
000000d0: 49cc f7be 0325 e43e c846 dbbc e05a e7be
000000e0: 19f4 0b3f 5a6e b6bd 2a36 c23e 5e90 d83e
000000f0: a3d4 f0bc abfc c1be 9c99 e2be ab26 d1be
00000100: 4c20 a8be 5264 26be 5dc5 6dbd 8de1 9a3e
00000110: 6193 fe3e 50ef dd3e 0bb4 f53e b906 833d
00000120: d61a 7cbc 9673 d9be f3f9 adbe 8a7a 8fbd
00000130: e225 0abe 6d1c aa3e 5798 88bd 3648 d5be
-0.15013237 0.38227162 0.5397604 -0.53201544 -0.5057621 -0.2088157 -0.25127202 -0.25157174
0.08411459 -0.4037818 0.44297677 -0.17779763 0.17788473 -0.12761505 0.10409289 0.41919458
-0.2801009 -0.16547744 -0.19979459 0.20457503 -0.5245113 -0.2111253 -0.50636685 -0.25778955
0.46625596 -0.056793563 -0.29210383 -0.11495497 0.055825777 -0.32348102 -0.17398097 -0.45043787
-0.30005553 0.021370921 -0.47079003 -0.0700153 0.2337091 -0.2763656 -0.40973082 0.5735993
-0.16681713 0.5257153 -0.06706352 -0.25560212 0.21647634 -0.049512684 0.3835622 -0.05792709
0.2376657 0.41243526 0.4558666 0.23776071 -0.48398045 0.44559488 -0.02676715 -0.4518652
0.5466934 -0.08907767 0.3793195 0.42297643 -0.029398268 -0.37888083 -0.4425782 -0.40849814
-0.3283714 -0.16249207 -0.05804955 0.30250207 0.49721816 0.43346643 0.47988924 0.063977666
-0.015387258 -0.42470998 -0.3397976 -0.07005794 -0.13491014 0.33224812 -0.066696815 -0.41656655
