TFLiteWrapper2.7.0/data/dense1d_define_input_shape.tflite (tflite, 5040 bytes, 5 tensors)

dense_59/bias f4 [8]
000000 00 00 00 00 00 00 00 00 00 00 00 00 00 00 00 00
       0.0 0.0 0.0 0.0
000010 00 00 00 00 00 00 00 00 00 00 00 00 00 00 00 00
       0.0 0.0 0.0 0.0

batch_normalization_31/beta f4 [10]
000000 00 00 00 00 00 00 00 00 00 00 00 00 00 00 00 00
       0.0 0.0 0.0 0.0
000010 00 00 00 00 00 00 00 00 00 00 00 00 00 00 00 00
       0.0 0.0 0.0 0.0
000020 00 00 00 00 00 00 00 00
       0.0 0.0

std.constant5 f4 [10]
000000 41 df 7f 3f 41 df 7f 3f 41 df 7f 3f 41 df 7f 3f
       0.99950033 0.99950033 0.99950033 0.99950033
000010 41 df 7f 3f 41 df 7f 3f 41 df 7f 3f 41 df 7f 3f
       0.99950033 0.99950033 0.99950033 0.99950033
000020 42 df 7f 3f 42 df 7f 3f
       0.9995004 0.9995004

std.constant6 f4 [10, 1]
000000 46 7f bc bf 10 ec a0 3e 5e a1 0d c0 ba 75 ec bf
       -1.4726341 0.314301 -2.212974 -1.8473427
000010 00 93 2e 3d 0b 8d a6 bf df fc 14 c0 56 ba 98 bf
       0.04262066 -1.3011793 -2.327934 -1.1931865
000020 35 6d 07 c0 5e c7 d3 3f
       -2.1160405 1.6545217

std.constant7 f4 [8, 10]
000000 89 2f c3 be 34 18 f3 be 80 45 b9 3b 1c 80 f7 3e
       -0.38122204 -0.47479403 0.005654037 0.48339927
000010 49 2d 99 be 40 bf 48 3e d0 72 8d 3e ec 69 0d be
       -0.29917362 0.19604206 0.27626657 -0.13809937
000020 c0 1f 10 3f c3 66 02 bf 94 75 af 3e 88 d5 03 3f
       0.56298447 -0.5093805 0.34269392 0.514977
000030 d2 e5 b1 3e ec 9c 38 3e 88 f0 e1 bd 60 a9 c0 3e
       0.3474565 0.18028611 -0.11032206 0.37629223
000040 b0 27 50 3d 80 02 b6 3b c0 1e c8 bd 96 82 94 3e
       0.0508191 0.0055544972 -0.0977149 0.2900588
000050 be 96 cd 3e a0 39 39 bd a6 90 b7 3e 9c 29 b3 be
       0.4015407 -0.04522097 0.35852545 -0.34992683
000060 78 dd ae 3e 88 3d b9 bd dc dc 7f 3e c7 ce 05 bf
       0.34153342 -0.09044939 0.24986595 -0.5226864
000070 fc c2 c5 bd 08 7a 10 bf c8 94 ec 3e 58 6b 10 bf
       -0.09656331 -0.56436205 0.4620726 -0.56413794
000080 d2 4f 9b 3e 40 3a 5a 3c 77 d9 b4 be 26 db be be
       0.30334336 0.013319552 -0.35322163 -0.37276572
000090 bb 4d 07 bf 23 f9 0c bf 18 7f 06 3f 20 4e 3c 3d
       -0.5285298 -0.5506765 0.5253768 0.045972943
0000a0 c4 1b 2e be 22 b6 49 be 00 b4 6f 3e 4a e6 c5 be
       -0.17002779 -0.19698384 0.23408508 -0.3865226
0000b0 06 a0 d6 3e b8 28 f9 be 20 a5 ce bc 3c 7f e2 be
       0.41918963 -0.48663878 -0.025225222 -0.44237697
0000c0 16 ee af be e8 c2 02 3e 4a 74 d5 3e f4 4e c6 3e
       -0.34361333 0.12769663 0.41690284 0.3873211
0000d0 4c ca 3d 3e 3f f0 10 bf a8 ea e7 3d e6 3c cf be
       0.18534201 -0.56616586 0.11324054 -0.4047615
0000e0 d4 3e ef 3e cc e0 4d 3e c0 4b 4a 3d 6c 20 dc bd
       0.46727622 0.20105284 0.049388647 -0.107483715
0000f0 00 61 7a 3e 00 f7 d3 3e 97 5c c7 be 73 75 f4 be
       0.24451065 0.41399384 -0.38937828 -0.47745857
000100 92 ec 61 be a0 d5 98 3c 04 15 5e 3e a2 1c 62 be
       -0.220629 0.018656552 0.21687704 -0.22081235
000110 7c c8 d9 bd 04 9c 0f 3f 22 cf 0f be da 56 06 3f
       -0.106339425 0.56097436 -0.14043859 0.52476275
000120 f6 d0 dc be 28 a7 13 3e 7a ac 01 3f c0 88 ad bc
       -0.43128175 0.14419234 0.50653803 -0.021183372
000130 b5 45 01 bf d0 1f 71 3d 80 15 fb 3d 5e 0c 8b be
       -0.5049699 0.05886823 0.1225996 -0.27157873
