TFLiteWrapper2.7.0/data/dense1d_train.tflite (tflite, 2540 bytes, 6 tensors)

dense_57/bias f4 [8]
00000000: fbe8 203c 634e f73b 3e32 1ebc 444a 1d3c
00000010: a967 b43b 9857 1abc ddf9 19bc 1d90 17bc
0.009821172 0.007547186 -0.009655533 0.009600226 0.0055055213 -0.009420298 -0.009397951 -0.009250668

dense_56/bias f4 [10]
00000000: 0000 0000 5e1b 08bc a50b a33b a82b 5bba
00000010: 63c0 aa39 e436 4a39 0000 0000 bbe5 f43b
00000020: 0000 0000 e6f2 f03b
0.0 -0.008307306 0.0049757534 -0.00083606923 0.00032568266 0.0001928467 0.0 0.007473675
0.0 0.0073531745

std.constant f4 [10]
00000000: b085 863f df2f 853f eacb 853f 181a 853f
00000010: afdc 833f 64eb 843f b085 863f b21c 843f
00000020: b085 863f bcec 843f
1.0509548 1.0405234 1.0452855 1.0398588 1.0301722 1.0384336 1.0509548 1.0321257
1.0509548 1.0384746

std.constant1 f4 [10]
00000000: c4f6 0abc 5df1 47bd ca7c a0bc 0eed 00bd
00000010: 782e 09be 2fff bcbd c466 75bb ace6 d8bc
00000020: 940d 87bb e075 87bc
-0.008481685 -0.048814166 -0.019590754 -0.031476073 -0.13396633 -0.0922836 -0.0037445286 -0.02647718
-0.0041214917 -0.0165357

std.constant2 f4 [10, 10]
00000000: cd9e 12bf a010 a03e 0028 233e c03e a13d
00000010: 38a2 133e c30d e9be 484a 253f 1a71 21bf
00000020: f61b cabe 8a59 30bf d475 273f 1c2d e23d
00000030: fe10 003f aca9 7dbe 902b 1bbf 5463 29bf
00000040: d47d 913e b323 f2bd 26cd c93e 95c5 333f
00000050: ec6d f83e 6411 f0be 89d2 813e 9df0 80be
00000060: e9cb c4be 4f8d 97bd 87e4 3bbd 23b8 0b3f
00000070: 438e af3e 3847 21bf d55a ff3e d9d0 03bd
00000080: c34c 223e 4801 fcbd c29d 09bf 7c71 cebd
00000090: 7801 033f 2683 073f 7b31 37bf 1237 523e
000000a0: b3f1 2f3f 72fe 213f b9f2 443f 7d29 cf3d
000000b0: 7146 0e3f eec8 82be f93b b73e 2f51 a5be
000000c0: c858 573e bd8c 2e3e 79ca 423f 51a6 d5bd
000000d0: 10d8 0cbf 871a 003f 8a99 403f 84ab b93e
000000e0: 441a 03bf b0be e93e 2012 cd3e 922e 9ebe
000000f0: 5005 73bd 4acc e9be 7056 43bf 30bf b4be
00000100: d2fc 81be 187e 1c3e 8473 1fbf a268 2abf
00000110: 68bc b8bd d0fb ca3d 78a1 213f c2b7 7c3e
00000120: 5fe1 113f 6594 22bf eeee 1ebf 5cf9 183f
00000130: 1453 de3e 410d 31bf a0df 873e 05da 01bf
00000140: 7c92 38bf e4af 393e 1e7a e0be 8aa1 21bf
00000150: 0073 bbbc 40c0 da3e d626 383f bc0f 7fbe
00000160: ace9 4b3e 8c58 f2be 1a1d 3f3f 17f9 61bd
00000170: a5b7 9e3c 6e2d 27be 960e c3be 5557 b33d
00000180: 58f1 23bf e6d4 2ebf f167 163f 7f4a ce3e
-0.5727356 0.31262684 0.15933228 0.07873297 0.1441735 -0.45518312 0.6456647 -0.63063204
-0.39474458 -0.68886626 0.65414166 0.1104376 0.5002593 -0.24771756 -0.60613346 -0.6616719
0.28416312 -0.11823215 0.39414328 0.7022336 0.48521364 -0.46888268 0.25355938 -0.25183573
-0.3843682 -0.07399999 -0.045872238 0.54577845 0.34288225 -0.62999296 0.49873987 -0.032181595
0.15849595 -0.12304932 -0.53756344 -0.10080239 0.51174116 0.5293449 -0.71559876 0.2052882
0.6872818 0.6327888 0.76932865 0.10115335 0.55576235 -0.25543922 0.35787943 -0.322885
0.21029961 0.17045875 0.760902 -0.10432113 -0.55017185 0.5004048 0.7523428 0.3626367
-0.51211953 0.45653296 0.4005289 -0.30894905 -0.05933124 -0.45663673 -0.7630377 -0.35302114
-0.253882 0.15282476 -0.6228564 -0.66565907 -0.09020311 0.09911311 0.63137007 0.24679473
0.56984514 -0.6350768 -0.6208333 0.5975549 0.4342276 -0.6916085 0.265378 -0.50723296
-0.7209852 0.18133503 -0.43843168 -0.63137114 -0.022881985 0.427248 0.7193426 -0.24908346
0.19913357 -0.4733318 0.7465378 -0.05516919 0.019374678 -0.16325924 -0.38097066 0.08756892
-0.64040136 -0.6829361 0.5875235 0.4029121

std.constant3 f4 [8, 10]
00000000: cc7e 53be 25be 943d 9725 0dbf 7ae9 05bf
00000010: 9bf9 b7be 4d2d ffbe 7e8f a3be e4d3 063f
00000020: 9977 a73d 9a53 f93e 0fb7 6cbd d6cb ddbd
00000030: 6196 133e 3223 7e3e 7e2f eabd b31f 003f
00000040: 3ef7 07be 4911 cbbe aa25 8fbb c8cb d33d
00000050: 26ea 9f3d 2e55 0abf d443 823e b00d d43e
00000060: 26c1 c73e 6765 f0bd 42c9 81bd add1 1ebe
00000070: 0772 5c3d d844 77bd dc03 bebe c9cd 8c3e
00000080: 7400 36be 91ca 32be c1b6 11bf 41c3 f8be
00000090: 0bcb be3d d273 b3bd 0c35 a6bd 8b5e 8c3e
000000a0: e337 e83d 2b2b 113e 6121 f9be 09d2 d03c
000000b0: 815f b5be f801 cabe 1082 a3be f4aa a4be
000000c0: fc95 8cbe d586 febe a826 7e3e b98c 04be
000000d0: f022 943d d522 9a3e 0a38 a23e 7760 bebe
000000e0: 4ff9 0f3f d8f4 d33e 5487 6cbd a758 0fbf
000000f0: 07b6 aa3e 18c3 0cbf ab60 7c3e 2271 8c3d
00000100: 3f0b b3be cf1a a1be 05e7 e53e 7798 84be
00000110: d3e1 8a3e 01a7 dfbd 4d0c 023f 2a8c 053f
00000120: 3250 073f 9773 ebbe 495c 9c3e 3954 e0be
00000130: 3759 f6be 5b22 113f 306c 9cbd 1386 cc3e
-0.20653838 0.0726283 -0.5513548 -0.5230938 -0.3593262 -0.4983925 -0.31945413 0.5266707
0.08177108 0.48696595 -0.057791766 -0.10829894 0.14412834 0.24818113 -0.1143484 0.5004837
-0.13277909 -0.39661625 -0.0043685036 0.103416026 0.07808332 -0.54036224 0.25442374 0.41416693
0.39014548 -0.11738091 -0.06337215 -0.15509672 0.053819682 -0.06036839 -0.3711232 0.27500752
-0.1777361 -0.17460085 -0.56919485 -0.48586467 0.09316071 -0.08762325 -0.08115587 0.2741588
0.113387845 0.14176624 -0.4865828 0.025490778 -0.35424426 -0.39454627 -0.31935167 -0.32161677
-0.2745818 -0.49712244 0.24819434 -0.12944306 0.07233226 0.301047 0.3168338 -0.37182972
0.5623979 0.41397738 -0.057746246 -0.5599465 0.33342 -0.5498519 0.24646251 0.06857516
-0.34969518 -0.31465766 0.44902816 -0.2589757 0.27125415 -0.10920525 0.5080002 0.52167
0.52856743 -0.45986626 0.30539158 -0.43814257 -0.4811494 0.5669305 -0.07637823 0.3994604
