TFLiteWrapper2.7.0/data/reshaped_2d_definedinsize.tflite (tflite, 5476 bytes, 8 tensors)

dense_11/bias f4 [8]
00000000: 0000 0000 0000 0000 0000 0000 0000 0000
00000010: 0000 0000 0000 0000 0000 0000 0000 0000
0.0 0.0 0.0 0.0 0.0 0.0 0.0 0.0

batch_normalization_11/beta f4 [10]
00000000: 0000 0000 0000 0000 0000 0000 0000 0000
00000010: 0000 0000 0000 0000 0000 0000 0000 0000
00000020: 0000 0000 0000 0000
0.0 0.0 0.0 0.0 0.0 0.0 0.0 0.0
0.0 0.0

std.constant3 f4 [10]
00000000: 41df 7f3f 41df 7f3f 41df 7f3f 41df 7f3f
00000010: 41df 7f3f 41df 7f3f 41df 7f3f 41df 7f3f
00000020: 42df 7f3f 42df 7f3f
0.99950033 0.99950033 0.99950033 0.99950033 0.99950033 0.99950033 0.99950033 0.99950033
0.9995004 0.9995004

std.constant4 f4 [2]
00000000: 42df 7f3f 42df 7f3f
0.9995004 0.9995004

std.constant5 f4 [10, 32]
00000000: ff11 ab3e dad1 d0be 5f5a 933e 655b 4dbe
00000010: 7053 0fbd a6d5 11be 02c0 333e 2c9d b8be
00000020: 2296 adbe b492 f6bd b9d6 7ebe 8faf 983e
00000030: c0e0 233d 2e0c 753e f235 113e dee7 4b3e
00000040: f8d1 e5bd 1209 563e 38c0 373d f72b c83e
00000050: 6ecf 103e bbfa 9e3e 650b cdbe baec d5be
00000060: 0ac1 333e 6de1 8d3e 6060 00bd 5691 ddbe
00000070: a508 cfbe 2793 aa3e 9f91 983e 5a80 003e
00000080: 689a 1d3d 404c 633d e408 833d c464 98be
00000090: 254e b0be c62d 9dbe b835 63bd 322c 463e
000000a0: 2d05 c93e 18a3 adbe 102a 8bbd b403 803d
000000b0: 4063 543c e530 a9be faee 6d3e 0003 93be
000000c0: 6612 0dbe 3fe2 54be e0db 733c 4e5c 5b3e
000000d0: 9606 773e eaab 7e3e 647e 9abe b008 8fbd
000000e0: 498e 963e a05e 2c3c a690 a2be f5d6 d93e
000000f0: 80e3 f63b 88ce a0be 0c89 a7bd 26e3 4a3e
00000100: b6a8 403e 5a5b 14be ba30 143e d25e 7f3e
00000110: 7894 133d da87 13be b058 a1be 70f8 e7bc
00000120: 8c06 fb3d d720 a3be ce41 11be 326a b3be
00000130: f431 9abe 2a58 063e dc03 8ebd d38e d93e
00000140: a65f 573e 66bc d9be aa86 783e 349c 41be
00000150: 75c6 4dbe c8da d7be a58c cc3e 984a a2bd
00000160: 80eb b6bc 8179 6fbe 632a 903e f8c4 8abe
00000170: 8f79 b43e 598f 9f3e 1cd4 d53d d940 be3e
00000180: befb 683e 6390 8f3e f859 b6bd c24d c1be
00000190: ee48 9abe e03a 21be ae5e 1a3e c4c5 dabe
000001a0: cbc1 bb3e 6af7 9ebe fe0c 39be 3ef6 95be
000001b0: eae8 2b3e e50a a13e 8b43 72be 6f33 76be
000001c0: ba26 1d3e 0099 64bb d282 23be ea80 18be
000001d0: 3914 b43e 6eaf 293e b7bc b13e b274 2c3e
000001e0: c61e 8fbe d2cd 193e 4b10 bb3e fe7c 2b3e
000001f0: 5212 203e d0b6 d9bc f8ab b7be 3904 8cbe
00000200: c42c ab3d 3c1f 9fbe 96ee 20be 4403 fcbd
00000210: a770 cabe cf6a c83e 1ef7 193e 1ea9 a3be
00000220: f762 6bbe f63d 25be 02b1 483e 33e7 89be
00000230: 26a9 2c3e 74ed bc3d b0bd 113d a0c9 b0bc
00000240: bc34 a83d 00aa 8e3c 7b2c cb3e 17ab ba3e
00000250: 77f9 d33e fb7e ca3e 1e33 513e 4823 4bbe
00000260: bc5d 953d 9b83 5ebe e424 b1be c430 7bbe
00000270: 318d 7ebe 8102 dcbe b057 5b3d 7375 4ebe
00000280: 185a 7bbe 401b cfbe af4f 8e3e 280b f3bd
00000290: 8208 243e 8a37 ddbe 1877 cdbe 0ea5 553e
000002a0: c010 133c 19c9 9cbe a967 56be e0ef 78bd
000002b0: 1578 aebe a0c6 74bc aa99 a3be 5ccc f43d
000002c0: ca4c 4f3e d94d b8be ec95 b83d 082d 2dbd
000002d0: f888 aebe ef3b 8fbe df28 a13e ab5c 67be
000002e0: 8472 f13d b2c1 613e 439d a8be bcf5 99be
000002f0: cdae 71be 595d ce3e 3238 693e ff0c 9abe
00000300: 83d7 95be c47b b4be 386b 3cbd 3c17 a63d
00000310: e3ff d33e e0ea d83c fc78 4cbe c0b2 113d
00000320: 54cb d73d b3e3 d83e 6646 3cbe 4c61 ddbe
00000330: 3d79 b53e a248 613e 5045 67be 1ea4 0f3e
00000340: 584b 1cbd 00d7 ccbe 6405 9b3d 044f dd3d
00000350: 84fc 8cbe 25ae a23e 94af b23d 2fe6 ce3e
00000360: 7eb4 673e c6fe 54be 66dd 72be 30e6 02bd
00000370: 20b1 d4bd 9fae ba3e c30a d53e 3028 b7bd
00000380: 22f7 5b3e 0dc0 4cbe 60aa 2cbd 5b1c 75be
00000390: 80b7 2bbb 9d39 8e3e 93b3 d63e 9395 a0be
000003a0: 4863 d4be 1ee7 4a3e d4a2 8b3d 4816 93be
000003b0: 6054 5abc cd96 c53e 18e5 683d c065 dfbb
000003c0: f660 2d3e 18dd b0be eecc d6be bcb8 4abe
000003d0: a4bd f23d f934 86be 5af5 5e3e e636 3f3e
000003e0: 3d4a b43e a8bb d3bd 00f7 5bbe 4f25 c5be
000003f0: c0d6 bbbe 8cfb e03d 4088 4dbc c41f 8dbe
0.33412167 -0.40785104 0.28779885 -0.20054395 -0.03499168 -0.14241657 0.17553714 -0.36057413
-0.33903605 -0.120397 -0.24886598 0.2982144 0.04000926 0.23930427 0.14180735 0.19912669
-0.11221689 0.20901898 0.04486105 0.39096043 0.14141628 0.31050667 -0.40047756 -0.4178217
0.17554107 0.2771105 -0.03134191 -0.43274945 -0.40436283 0.33315393 0.297986 0.12548962
0.03847733 0.05549264 0.0639818 -0.29764378 -0.3443462 -0.30698985 -0.055471152 0.19352797
0.3926176 -0.33913493 -0.06795132 0.06250706 0.012963116 -0.33045116 0.23235694 -0.28713226
-0.1377655 -0.20789431 0.014883965 0.2142193 0.24123606 0.24870268 -0.30174553 -0.06984079
0.2940543 0.010520607 -0.31750983 0.42546812 0.0075344443 -0.3140757 -0.081804365 0.19813213
0.18814358 -0.14487973 0.14471713 0.24938515 0.036030263 -0.14407292 -0.31512976 -0.028316706
0.12257108 -0.31860992 -0.14185259 -0.35041958 -0.30116236 0.1311957 -0.0693433 0.4249178
0.2103258 -0.4252655 0.2427012 -0.18907243 -0.20095237 -0.42159104 0.39951053 -0.07924384
-0.022329092 -0.23386194 0.28157339 -0.271034 0.35248992 0.31164053 0.10440847 0.3715885
0.22752282 0.28039846 -0.08903879 -0.37754637 -0.30133766 -0.15745115 0.1507518 -0.42729008
0.3667129 -0.31048137 -0.18071362 -0.2928943 0.16788068 0.31453624 -0.23658578 -0.24043058
0.15346804 -0.0034881234 -0.15967873 -0.14892927 0.3517168 0.16570827 0.3471429 0.1684139
-0.27953166 0.1501992 0.36535868 0.167469 0.15631989 -0.02657643 -0.3587339 -0.27346972
0.08358148 -0.31078517 -0.15716013 -0.1230531 -0.39539072 0.39143988 0.15035674 -0.31964964
-0.22986971 -0.16136917 0.19598773 -0.26934204 0.168614 0.09224978 0.03558129 -0.021580517
0.08213183 0.017415047 0.39682373 0.36458656 0.41401264 0.39550003 0.20429656 -0.19837677
0.07293269 -0.21729891 -0.34598458 -0.24530321 -0.24858548 -0.4297066 0.053550422 -0.20161991
-0.24546087 -0.40450478 0.2779517 -0.11867362 0.1601887 -0.43206435 -0.40129924 0.20863745
0.0089761615 -0.30622175 -0.2093798 -0.060775638 -0.3407599 -0.014939934 -0.31953174 0.11953041
0.20244136 -0.35996893 0.0901297 -0.042279273 -0.34088874 -0.27975413 0.31476495 -0.22593944
0.1178942 0.22046545 -0.3293248 -0.30070293 -0.23601837 0.40305594 0.22775343 -0.3008804
-0.29265985 -0.35250676 -0.04600069 0.081099 0.41406164 0.026479185 -0.19968027 0.03557086
0.10536829 0.4236122 -0.1838623 -0.43238294 0.3544406 0.22000363 -0.22585034 0.1402745
-0.03815779 -0.40007782 0.075693876 0.10806087 -0.27536404 0.31773487 0.08724895 0.4040999
0.22627446 -0.20800313 -0.2371727 -0.031957805 -0.103853464 0.3646135 0.41609773 -0.08943212
0.21480992 -0.19995137 -0.04215467 -0.23936598 -0.0026201904 0.2777833 0.4193388 -0.31364116
-0.41481996 0.19814727 0.068181664 -0.28727937 -0.013325781 0.38591614 0.056859106 -0.0068175495
0.16931519 -0.3454368 -0.41953224 -0.19797033 0.11852577 -0.2621229 0.21773282 0.18673286
0.3521289 -0.10338527 -0.21480942 -0.38505027 -0.3668728 0.10985479 -0.012544692 -0.27563298

std.constant6 f4 [8, 10]
00000000: 4897 06bf e8fb ebbd f261 adbe 7882 043f
00000010: 3cda 92be 3cee 0a3f d201 ae3e 0087 c6bb
00000020: ec32 dabd eaba ca3e 94be 513e 1c82 21be
00000030: 44c3 fa3e ae73 f4be 1a87 cebe 2e3b 69be
00000040: c408 fa3e 254e 0fbf 4045 683c e819 61be
00000050: 2010 c3bc f2b2 6dbe e059 f8bd c0c4 dd3e
00000060: 76f2 d73e 34d6 d53e 9096 99bd e3d8 83be
00000070: da05 86be 86b1 a13e 004a 793b f0ab f33d
00000080: bcf7 2a3e 8f34 cdbe 688c 243e 94f3 a53e
00000090: 8082 41bc c482 bcbd 29c0 dabe a0c0 ed3d
000000a0: 286f b03e 903b 90bd 40f5 95bd 7510 0dbf
000000b0: 501e 7f3d 40ef 65bc f2cc b6be 203a cfbc
000000c0: fcd7 34be fc27 e1bd fcd7 113f f638 62be
000000d0: 5859 f2bd ecff f83e d2bb 9cbe f874 e53e
000000e0: de70 913e 797e 12bf 4478 e43e c8b0 ba3e
000000f0: 2ec5 ca3e 7e91 0b3f 8650 cdbe 2ce9 613e
00000100: 4470 5a3e 08ed 033f d650 9d3e c477 ffbe
00000110: 2086 fb3e 62d6 873e 48c5 503e b660 123f
00000120: b8f1 423e 0c77 cfbe 62a9 073f ae33 8a3e
00000130: a86d 703e 5e42 a83e c815 933d a056 563d
-0.52574587 -0.11522657 -0.3386379 0.5176158 -0.28682125 0.54269767 0.33985764 -0.0060585737
-0.10654244 0.3959573 0.20482856 -0.15772289 0.489771 -0.47744507 -0.4033745 -0.22776482
0.48834813 -0.55978614 0.014176667 -0.21982539 -0.0238114 -0.23212793 -0.12126517 0.4331417
0.4217717 0.41764987 -0.07499421 -0.2575141 -0.2617634 0.31580752 0.0038038492 0.11898029
0.16696066 -0.40079162 0.16069186 0.32412398 -0.011810899 -0.09204629 -0.42724732 0.11609006
0.34459805 -0.07042611 -0.07322168 -0.55103236 0.062284768 -0.014034092 -0.35703236 -0.02529627
-0.17660517 -0.109939545 0.5697019 -0.22092041 -0.11833447 0.48632753 -0.30612046 0.44815803
0.28406423 -0.5722423 0.44623005 0.36462998 0.3960356 0.5451888 -0.40100497 0.22061604
0.21331888 0.51533556 0.30725735 -0.4989606 0.49125767 0.2653075 0.20387757 0.5717882
0.19037521 -0.40520513 0.5299283 0.26992553 0.2347933 0.32863134 0.07181889 0.052328706

std.constant7 f4 [2]
00000000: 0000 0000 0000 0000
0.0 0.0

std.constant8 f4 [2, 3, 3, 1]
00000000: acd5 e2be e409 c0bd 2d70 eb3e 0fc5 bb3e
00000010: 9679 7a3e 0a4f 59be 7f2f 843e 48e9 62bd
00000020: 7411 c83d a497 c33d 429d 7e3e 74ac f63d
00000030: 909a 3cbd e391 e63e 7ada 55be 0e8d cabe
00000040: cae2 143e 3af8 b7be
-0.44303644 -0.093768865 0.4598402 0.3667378 0.24460444 -0.21221557 0.25817487 -0.055398256
0.09768954 0.095504075 0.24864677 0.120446116 -0.04604584 0.45033178 -0.20884123 -0.3956074
0.14539638 -0.3593157
