TFLiteWrapper/2.7.0/data/conv1d_define_input_shape.tflite (tflite, 4248 bytes, 8 tensors)

dense_1/bias f4 [8]
0.0 0.0 0.0 0.0 0.0 0.0 0.0 0.0
00000000: 0000 0000 0000 0000 0000 0000 0000 0000
00000010: 0000 0000 0000 0000 0000 0000 0000 0000

batch_normalization_1/beta f4 [10]
0.0 0.0 0.0 0.0 0.0 0.0 0.0 0.0
0.0 0.0
00000000: 0000 0000 0000 0000 0000 0000 0000 0000
00000010: 0000 0000 0000 0000 0000 0000 0000 0000
00000020: 0000 0000 0000 0000

std.constant3 f4 [10]
0.99950033 0.99950033 0.99950033 0.99950033 0.99950033 0.99950033 0.99950033 0.99950033
0.9995004 0.9995004
00000000: 41df 7f3f 41df 7f3f 41df 7f3f 41df 7f3f
00000010: 41df 7f3f 41df 7f3f 41df 7f3f 41df 7f3f
00000020: 42df 7f3f 42df 7f3f

std.constant4 f4 [2]
0.9995004 0.9995004
00000000: 42df 7f3f 42df 7f3f

std.constant5 f4 [10, 8]
0.67311436 -0.058490872 0.15843505 0.08917248 0.034496665 -0.42249435 0.6493555 0.6792986
-0.17117482 -0.67345524 0.46076828 0.36369973 -0.21924692 0.41097254 0.12135804 0.25500208
-0.48892674 0.79872185 0.31807524 -0.3338096 0.4285043 0.732261 -0.65812045 0.79064137
0.6345348 -0.81178874 -0.05944234 0.60371405 -0.23749036 0.05283779 0.66040903 0.5810519
0.7542946 0.76026875 0.74806684 0.3645168 -0.10923809 -0.57064974 -0.15841419 0.0693782
-0.3854054 -0.57156324 0.08356953 -0.11611992 -0.4085731 -0.8467229 0.83690745 0.40073627
-0.15910733 -0.8318595 -0.52156985 -0.53808403 -0.259789 -0.412408 0.50951725 -0.60335684
0.46013302 -0.7669296 -0.09087366 0.71612793 0.81884736 -0.46609995 0.7896256 -0.84739333
-0.1781624 0.18032748 -0.7295537 -0.30219537 -0.5222114 -0.20405829 0.36480027 0.750369
0.03706211 0.5549299 0.02786237 -0.10793728 0.5205086 0.075374484 0.020619392 0.5687204
00000000: 3951 2c3f 2094 6fbd cc3c 223e 10a0 b63d
00000010: 604c 0d3d 2e51 d8be 293c 263f 83e6 2d3f
00000020: 7448 2fbe 9067 2cbf d2e9 eb3e da36 ba3e
00000030: 4482 60be fe6a d23e 908a f83d a28f 823e
00000040: 9b54 fabe 0979 4c3f c2da a23e 18e9 aabe
00000050: ea64 db3e 7575 3b3f 957a 28bf 7967 4a3f
00000060: df70 223f 63d1 4fbf d079 73bd 018d 1a3f
00000070: ac30 73be 706c 583d 9110 293f d1bf 143f
00000080: 7319 413f f9a0 423f 4f81 3f3f f2a1 ba3e
00000090: 38b8 dfbd 1a16 12bf 5437 22be 2816 8e3d
000000a0: db53 c5be f851 12bf 8026 ab3d 48d0 edbd
000000b0: 7e30 d1be d5c2 58bf 913f 563f 4e2d cd3e
000000c0: 08ed 22be bff4 54bf 9a85 05bf e0bf 09bf
000000d0: 1003 85be 2427 d3be b96f 023f 9875 1abf
000000e0: 8e96 eb3e 8055 44bf f81b babd 2954 373f
000000f0: fb9f 513f a7a4 eebe e724 4a3f c5ee 58bf
00000100: 3470 36be c4a7 383e 08c4 3abf 5ab9 9abe
00000110: a5af 05bf a8f4 50be 1ac7 ba3e 2f18 403f
00000120: 70ce 173d e30f 0e3f a03f e43c 380e ddbd
00000130: 0d40 053f f05d 9a3d 00ea a83c a997 113f

std.constant6 f4 [8, 10]
-0.15912336 0.31811577 -0.058588386 0.55475116 -0.5557051 -0.23417524 -0.17226902 0.16687983
0.04013461 -0.17096078 -0.143136 0.3462832 0.30189937 -0.33280975 0.5388551 0.16460836
0.49257052 -0.5252478 0.37212622 0.20224738 0.10213858 -0.30956876 -0.52211833 0.5507376
-0.37546837 0.14080322 0.5125841 -0.10122195 -0.24938968 0.42927563 0.36326104 -0.54387504
0.08565998 0.56644225 0.3118053 -0.13366356 -0.5194452 -0.19922191 -0.23680463 -0.45866412
-0.2910178 -0.37782633 -0.31406996 0.18301225 -0.29532892 -0.33586216 0.33330905 0.12033808
-0.21750858 0.101882815 -0.570324 -0.16345191 0.19856173 0.5559424 -0.26307094 0.57483494
0.020412564 0.15805298 -0.3936605 -0.0018522143 0.036972225 0.29301828 0.37224007 -0.1228421
-0.5635305 0.46381712 0.08384335 0.40282333 0.11718851 0.47934377 0.30969512 -0.12572935
0.3160944 -0.08081877 -0.4451677 0.21111238 -0.5104592 -0.54596764 0.458223 0.0005379319
00000000: 3cf1 22be 12e0 a23e 60fa 6fbd 2c04 0e3f
00000010: b042 0ebf a2cb 6fbe 4a67 30be 8ce2 2a3e
00000020: 3064 243d 5810 2fbe 3e92 12be 084c b13e
00000030: 8e92 9a3e 0a66 aabe 68f2 093f 188f 283e
00000040: 3432 fc3e a476 06bf 5487 be3e f019 4f3e
00000050: 082e d13d cc7f 9ebe 8ca9 05bf 24fd 0c3f
00000060: 643d c0be b82e 103e b638 033f 744d cfbd
00000070: 0260 7fbe 04ca db3e 5afd b93e 653b 0bbf
00000080: 806e af3d 5c02 113f f2a4 9f3e 1adf 08be
00000090: 5cfa 04bf d400 4cbe ea7c 72be 06d6 eabe
000000a0: 4900 95be 7472 c1be c7cd a0be 9067 3b3e
000000b0: 5a35 97be 20f6 abbe 7ca7 aa3e d073 f63d
000000c0: 92ba 5ebe f0a7 d03d c100 12bf f05f 27be
000000d0: c453 4b3e 3e52 0e3f 3cb1 86be 6228 133f
000000e0: 4038 a73c a4d8 213e de8d c9be 00c6 f2ba
000000f0: 3070 173d 7e06 963e 4096 be3e a494 fbbd
00000100: 8943 10bf 7079 ed3e 10b6 ab3d dc3e ce3e
00000110: 8800 f03d 8c6c f53e 5c90 9e3e 32bf 00be
00000120: 20d7 a13e 5084 a5bd 05ed e3be d82d 583e
00000130: 74ad 02bf 89c4 0bbf 349c ea3e 0004 0d3a

std.constant7 f4 [2]
0.0 0.0
00000000: 0000 0000 0000 0000

std.constant8 f4 [2, 1, 3, 1]
-0.7169061 0.010100365 0.46312535 0.28564894 -0.6795226 -0.2545128
00000000: 2887 37bf 007c 253c c41e ed3e 9440 923e
00000010: 31f5 2dbf 804f 82be
