TFLiteWrapper/2.7.0/data/conv1d_train.tflite (tflite, 4468 bytes, 10 tensors)

dense_3/bias f4 [8]
0.009437521 0.009761787 -0.009655934 -0.00935536 -0.009693238 0.01002139 -0.009033004 -0.009852707
00000000: d59f 1a3c e7ef 1f3c ec33 1ebc 3947 19bc
00000010: 63d0 1ebc c230 243c 2aff 13bc 406d 21bc

dense_2/bias f4 [10]
0.0047396426 -0.0041634208 -0.0068954034 0.004256255 0.0038643286 -0.006066556 0.0020789676 0.0074246516
0.005287641 -0.0065112067
00000000: 014f 9b3b 4e6d 88bb d6f2 e1bb 0e78 8b3b
00000010: ad40 7d3b f6c9 c6bb 4a3f 083b 7e4a f33b
00000020: f343 ad3b f65b d5bb

conv1d_1/bias f4 [2]
-0.0016013067 -0.0003695682
00000000: f0e2 d1ba 9bc2 c1b9

std.constant3 f4 [2]
1.0566968 1.0441436
00000000: d741 873f 7fa6 853f

std.constant4 f4 [2]
-0.011763634 -0.016159028
00000000: 42bc 40bc f05f 84bc

std.constant5 f4 [10]
1.0186417 1.0320786 0.97757876 0.9482158 1.0538183 1.0012692 1.0209274 0.97809
1.0080872 0.9853436
00000000: da62 823f 271b 843f 9a42 7a3f 45be 723f
00000010: 85e3 863f 9729 803f c0ad 823f 1b64 7a3f
00000020: 0009 813f 7a3f 7c3f

std.constant6 f4 [10]
-0.04623891 -0.033802763 -0.08821938 -0.1516155 -0.0065791025 -0.066969216 -0.054072913 -0.06339225
-0.07482273 -0.074502
00000000: 0365 3dbd c474 0abd 5dac b4bd 1841 1bbe
00000010: 8395 d7bb 2827 89bd 8f7b 5dbd ccd3 81bd
00000020: a93c 99bd 8194 98bd

std.constant7 f4 [10, 8]
-0.20302482 0.38571626 -0.842865 -0.37833244 -0.30824178 0.034811877 0.054915976 0.7599247
0.10486824 -0.5313087 -0.79817533 -0.6911384 0.31142756 0.3958642 -0.20341437 0.18348056
0.019059977 0.41932282 0.17696588 -0.7538477 0.4918474 0.48328814 -0.0103831915 0.71704364
0.6586532 0.31065458 0.7035759 0.24154252 0.30894864 -0.07195371 -0.06799578 0.23514241
-0.7577291 -0.68641883 -0.7550744 -0.74610084 0.01391775 0.20653106 -0.23107144 -0.052978966
-0.3164522 0.0086755445 0.22939378 -0.6005594 0.8251647 -0.62325287 0.019973068 0.42798528
-0.28336734 -0.7982191 -0.30341718 0.24887463 0.66660786 -0.6207953 0.32482293 -0.0020450694
-0.7097197 -0.7193971 0.85617626 -0.02530912 -0.77447224 0.4634335 -0.39101106 -0.22693394
-0.43585318 -0.6166267 0.49607503 -0.8381497 0.62951857 0.23309945 -0.07187705 0.6328116
-0.4834342 -0.7075472 0.7218591 0.25070292 0.4764882 -0.45887166 0.34221128 -0.8470741
00000000: bde5 4fbe 9a7c c53e 00c6 57bf cab4 c1be
00000010: ded1 9dbe e696 0e3d 93ef 603d 6d8a 423f
00000020: 29c5 d63d d903 08bf 3855 4cbf 72ee 30bf
00000030: 6f73 9f3e b6ae ca3e db4b 50be 54e2 3b3e
00000040: ab23 9c3c 7bb1 d63e 8b36 353e 2afc 40bf
00000050: 6cd3 fb3e 8b71 f73e 431e 2abc 2c90 373f
00000060: 7f9d 283f 1e0e 9f3e 8d1d 343f ec56 773e
00000070: 842e 9e3e 775c 93bd 5f41 8bbd 2cc9 703e
00000080: 89fa 41bf 25b9 2fbf 8e4c 41bf 7700 3fbf
00000090: 4607 643c e17c 533e fe9d 6cbe 7900 59bd
000000a0: 0606 a2be df23 0e3c 34e6 6a3e 43be 19bf
000000b0: fe3d 533f 808d 1fbf 8f9e a33c e320 db3e
000000c0: 8615 91be 1658 4cbf 7f59 9bbe fed8 7e3e
000000d0: d0a6 2a3f 71ec 1ebf 314f a63e 9206 06bb
000000e0: 31b0 35bf 692a 38bf 5e2e 5b3f 1255 cfbc
000000f0: d043 46bf 2847 ed3e 9a32 c8be 5f61 68be
00000100: 2628 dfbe 3fdb 1dbf 8cfd fd3e fb90 56bf
00000110: 2128 213f 9fb1 6e3e 4634 93bd f1ff 213f
00000120: b084 f7be d021 35bf c2cb 383f 225c 803e
00000130: 43f6 f33e 3af1 eabe 5136 af3e d9d9 58bf

std.constant8 f4 [8, 10]
0.40305808 -0.32740137 -0.32557613 -0.011357348 0.37033132 -0.32800052 -0.08475632 -0.31066284
-0.5155006 0.107880786 0.03810677 -0.48283166 0.30575234 0.21912017 -0.46912977 -0.39639726
-0.25778928 -0.3656777 -0.4781932 0.2539453 -0.40441877 0.2173697 -0.1120551 -0.4720469
0.0334509 0.104023024 -0.14356332 -0.105821356 -0.099405654 -0.0012868025 -0.40730718 0.21661538
0.11667834 0.42952606 -0.54487747 0.12964578 -0.3849913 -0.17020546 -0.48197427 -0.40998113
-0.4213897 -0.4283595 -0.48753422 0.1238392 -0.48777792 0.12295487 -0.19543938 0.3228051
0.14231257 -0.08497414 -0.39132953 -0.45847023 -0.3153259 0.17846993 -0.18479948 0.35691005
-0.39908612 -0.35847053 -0.4587214 0.3027529 -0.16289449 0.17317055 -0.25805464 -0.5136203
-0.44013813 -0.37948772 -0.05419892 -0.33269554 0.10234715 -0.5379653 0.53790486 -0.27956697
-0.5416085 0.2590277 0.31114563 -0.28998882 0.09002266 0.05843267 -0.035585225 -0.34386602
00000000: a15d ce3e 27a1 a7be eab1 a6be 2c14 3abc
00000010: 119c bd3e afef a7be b994 adbd 330f 9fbe
00000020: d9f7 03bf 9af0 dc3d d815 1c3d b635 f7be
00000030: 928b 9c3e 0a61 603e c731 f0be 95f4 cabe
00000040: f5fc 83be 1c3a bbbe bdd5 f4be 1e05 823e
00000050: fa0f cfbe 2a96 5e3e 257d e5bd 22b0 f1be
00000060: d003 093d 060a d53d 4302 13be deb8 d8bd
00000070: 3195 cbbd eda9 a8ba 918a d0be 6cd0 5d3e
00000080: 0ef5 ee3d d7ea db3e 177d 0bbf ddc1 043e
00000090: 941d c5be 574a 2ebe 55c5 f6be 0ce9 d1be
000000a0: 64c0 d7be f051 dbbe 169e f9be 689f fd3d
000000b0: 07be f9be c3cf fb3d 4321 48be b646 a53e
000000c0: 63ba 113e ec06 aebd 585c c8be 9cbc eabe
000000d0: 6572 a1be d2c0 363e 133c 3dbe eabc b63e
000000e0: 0455 ccbe 7389 b7be 88dd eabe 6e02 9b3e
000000f0: d0cd 26be 9f53 313e bd1f 84be 9f7c 03bf
00000100: c959 e1be 374c c2be b0ff 5dbd 1257 aabe
00000110: 629b d13d 18b8 09bf 22b4 093f 6723 8fbe
00000120: dba6 0abf 479f 843e 7b4e 9f3e 6a79 94be
00000130: cd5d b83d 1857 6f3d d0c1 11bd 350f b0be

std.constant9 f4 [2, 1, 3, 1]
-0.41368696 0.5179595 -0.071124256 0.1568537 0.111505836 0.17078047
00000000: c7ce d3be fe98 043f 98a9 91bd 429e 203e
00000010: 2c5d e43d 13e1 2e3e
