TFLiteWrapper/2.7.0/data/conv2d_1.tflite (tflite, 4776 bytes, 10 tensors)

dense_54/bias f4 [8]
00000000: f500 213c 78a3 0c3c 90a6 1ebc 4b76 19bc
00000010: c912 1e3c 4aa9 213c 22f8 fd3b f2f3 20bc
0.009826888 0.008583896 -0.009683266 -0.009366582 0.009648033 0.009867022 0.007750527 -0.009823786

dense_53/bias f4 [10]
00000000: 1412 97bb dfc2 0bba f848 0dbb 3192 763b
00000010: 0917 a0bb 973f bbba a71b 8cbb bc3a 3abb
00000020: 4f9a 8abb 2906 863a
-0.0046103094 -0.0005331467 -0.0021558385 0.0037623758 -0.0048855585 -0.0014285919 -0.0042757574 -0.0028416356
-0.004229821 0.0010225225

conv2d_7/bias f4 [2]
00000000: aeb6 a13b 401f fe3a
0.004935107 0.0019387975

std.constant1 f4 [10]
00000000: 32a2 833f b6bd 813f 53a2 803f ce0b 823f
00000010: ad88 833f f16f 7c3f 146e 853f 09b3 833f
00000020: fc9a 773f 31a8 803f
1.0283873 1.013602 1.0049537 1.0159853 1.0276085 0.9860831 1.0424218 1.0289012
0.9672086 1.0051328

std.constant2 f4 [10]
00000000: 3909 e1bc 18b8 2fbd f557 97bd 54c6 49bd
00000010: 6a98 85bc 665d a6bd 9578 0bbc 32d2 d9bc
00000020: c442 afbd 9a55 7ebd
-0.027470218 -0.042900175 -0.07389823 -0.049261406 -0.016308028 -0.08123283 -0.008512636 -0.026589487
-0.085576564 -0.062093355

std.constant3 f4 [2]
00000000: 8fa2 853f 82d8 863f
1.0440234 1.0534823

std.constant4 f4 [2]
00000000: 05e6 1bbd 822e 363b
-0.03806116 0.0027798717

std.constant5 f4 [10, 32]
00000000: df61 b9be 8642 9d3e 2269 abbe 6658 49be
00000010: ac4e 123e f4ad cabe 3993 933e ad7c aa3d
00000020: 3872 973e 38eb bbbe b8ff cc3e 39cb 35bd
00000030: 8b13 b7bd 971e 8e3d 65eb c43d 7938 9ebe
00000040: f7f8 31bc 291f 8abe 4f4f a53e 0b73 86bd
00000050: f8d4 aabe ca4f e8bd ed96 32be d4b2 51be
00000060: bf28 c1be 76f4 babe fcd4 543e 8045 533e
00000070: fbbc 003e cac7 2a3e 363b 38be 2181 39bd
00000080: bbc4 2bbd 45da bfbd 0da8 9bbe 999b 853e
00000090: 2d34 ef3d 208a 923e b045 d4bd 30d9 ab3e
000000a0: c88f 98be 0e39 0d3e 6213 cd3e 6666 babe
000000b0: a2f1 7ebe 95b7 90be 7bfd a1be 4067 273e
000000c0: 2af4 78be c79b 223e 014a c2bc cd36 733e
000000d0: deb5 c83e aecd a63e 4961 50be d983 503d
000000e0: 2033 653e f43f cfbe 5133 cf3e 6b79 89be
000000f0: 6692 8cbe d9c8 9e3e 3f31 4d3e eb8a 723d
00000100: 1f87 71be 7450 b3be d8a5 433d cfc6 38be
00000110: a151 8abe 600e 173e b09b fcbd 1e42 893e
00000120: b55a 8d3e 751e 3abe 5721 c53e 4e7f 8e3e
00000130: 1271 293e f34b dd3e 2f19 0f3e a93f 613e
00000140: 1f10 dfbd a245 d4bc 7323 713d cf8e a33e
00000150: 2f98 69be ecce adbd 4d9c d9bd 311d 2cbe
00000160: bea0 48be 010e b33e 0663 3d3e 3084 593e
00000170: 1f7a 83be 8e5e 95be c9d3 9b3e 5761 65be
00000180: 0ddf adbb 1598 ddbe f766 cabe d604 2abd
00000190: 0354 cc3e 1c52 d83e 7efa 253d 1b4c 85be
000001a0: 21cc 98be 91ff af3e abe7 0c3c 707c a9be
000001b0: e28a 7cbe cb2d 463e ca74 a2bd 5d5e a7be
000001c0: 73e5 9cbe 05ff a4be 0b28 05bd a8fd c5be
000001d0: ff69 143e 0858 3b3e c7ee 9dbe 8df3 b53e
000001e0: 3295 5c3e 67f7 b4be 43d2 ad3e 1abd c93e
000001f0: ed0e 1d3e 47de 903e 8d6e b63e dab2 b9bd
00000200: abff 923c 30ca 5a3e b6eb b93e 7465 033e
00000210: 9b73 bc3e adc0 473e 878e d2be 7ba2 b13e
00000220: 8066 75be 1a6c e83d 9c86 68be a048 163e
00000230: 44f8 9cbe 53da abbe 680b 313e 7433 a1bc
00000240: 35a0 e9bd 934b 95be 510b d8bd ba00 9a3e
00000250: e954 4abe 747a 85bb a027 b33e d646 97be
00000260: 9192 a5be ff0e d43e 2c87 acbd 458b c9be
00000270: edfa dcbe 13ca 09be ef9f 9e3e bbc7 6cbe
00000280: 2cac 113e 836d d5bd b7fe 02bc fd99 4b3e
00000290: fec0 103e 5067 67be f06b b5be ebcc cebe
000002a0: 84f5 35be ac63 61be 523a 853e a5b6 39bc
000002b0: 3efd 643e fa7a 323e 4689 a23d aab7 3a3e
000002c0: fbbb 983e 80d7 a13e b930 1abe 9006 bcbe
000002d0: c870 c33e ff39 dabe 9d04 b83e 67f2 253e
000002e0: 41de f6bd 2237 9abd 7e8a a6be 3c9d 67be
000002f0: 2556 b9be 6417 8a3d 5b3c 803e 6adf 3d3c
00000300: 7ed3 36bd cac4 983e 3a70 d13d dddd 6bbe
00000310: a5fa 05be b0d0 f2bd 6596 e13d 363d 12bd
00000320: 9710 acbe 8e26 cabd 0eb0 61bd 88b5 67be
00000330: 1dd1 a43d 9e16 d73e 63e2 bebe 893c 3dbd
00000340: 7fe9 dbbe 20ee 7dbe fdac 093d 3752 c8be
00000350: 7b80 503e d99b c3bd acf5 8abc 403e a13e
00000360: 23ec c4be 65f3 c0bd 76a8 c3be 1c16 4f3d
00000370: ce85 d83d e7d7 63be ac1e 963e f420 76be
00000380: 4e7a 37be 8da5 e93d cbe5 4dbe 151f af3d
00000390: c2e3 123e 8494 66be c95a 77bd 8c4c 4b3c
000003a0: eb57 afbe f544 8d3e 0eee d1be b843 cfbe
000003b0: ec01 903d f3c0 9dbe 66e6 523e d57f 30be
000003c0: 433b bc3e 9250 70be 6e6f b93e d884 973e
000003d0: 1d18 afbe 5548 44be 98c3 99be a0f3 5bbe
000003e0: 800c d1be 0b12 c9be 9021 ba3e d119 d43e
000003f0: d852 66bd c317 aabd cd8e 193d c4cf 64bd
-0.36207482 0.30714816 -0.33478647 -0.19662628 0.14287823 -0.3958584 0.2882326 0.08324561
0.2957933 -0.36702895 0.40038848 -0.04438326 -0.089392744 0.06939428 0.096152104 -0.3090246
-0.0108625805 -0.26976898 0.3228707 -0.065649115 -0.33365607 -0.113433436 -0.17440386 -0.20478374
-0.377264 -0.36514634 0.20784372 0.20631981 0.1257209 0.16677776 -0.17991337 -0.045289163
-0.041935664 -0.093678035 -0.3040165 0.26095274 0.116798736 0.28621006 -0.10364854 0.33564138
-0.29797196 0.13791296 0.4005385 -0.3640625 -0.24896863 -0.28265062 -0.31638703 0.1634798
-0.24311891 0.15879737 -0.023716928 0.23751374 0.39201254 0.32578796 -0.20349611 0.05090699
0.22382784 -0.4047848 0.4046884 -0.26850447 -0.27455443 0.3101261 0.20038317 0.059214514
-0.23586701 -0.35022318 0.047765583 -0.1804459 -0.27015403 0.14751577 -0.123343825 0.26808256
0.27608266 -0.18175681 0.38502 0.278315 0.16547039 0.43222007 0.1397445 0.2199694
-0.10891747 -0.02591211 0.058871698 0.31944892 -0.2281196 -0.08486733 -0.10625515 -0.1680801
-0.19592568 0.34971622 0.18494806 0.21241832 -0.25679109 -0.29173702 0.30435017 -0.22400413
-0.0053061307 -0.43280092 -0.3953168 -0.04150852 0.39907846 0.42250144 0.04052209 -0.26034626
-0.29843238 0.3437467 0.008600156 -0.3310275 -0.24662355 0.19353406 -0.07932432 -0.3268918
-0.30643806 -0.32225814 -0.03250889 -0.38670087 0.1449356 0.182953 -0.30846235 0.35537377
0.21541288 -0.35345003 0.3394948 0.39402086 0.15337725 0.28294584 0.3563122 -0.09067316
0.017944178 0.21366191 0.36312646 0.1283167 0.3680695 0.19507094 -0.41124365 0.34694275
-0.23964882 0.11348744 -0.227076 0.14676142 -0.30658162 -0.33565006 0.17289507 -0.019677855
-0.1140751 -0.2915922 -0.105490334 0.3007868 -0.19758953 -0.0040734354 0.3499117 -0.2954623
-0.32338384 0.4141769 -0.084242195 -0.39364067 -0.4316019 -0.13455991 0.30981395 -0.23123066
0.14225835 -0.10421278 -0.007995299 0.1988296 0.1413612 -0.22598004 -0.35433912 -0.40390715
-0.17769438 -0.22010678 0.26021057 -0.01133505 0.22362229 0.17429724 0.07936339 0.18234125
0.29830918 0.31609726 -0.15057649 -0.36723757 0.38171983 -0.42622373 0.3594102 0.1620575
-0.1205411 -0.07530047 -0.32527536 -0.22618574 -0.36198536 0.06742743 0.25046048 0.011588911
-0.04463529 0.29837638 0.10226484 -0.23033853 -0.13083895 -0.1185621 0.110150136 -0.035702907
-0.33606407 -0.09870635 -0.05509954 -0.22627842 0.08047698 0.42009443 -0.37282094 -0.04620031
-0.4295158 -0.24797869 0.03361224 -0.39125225 0.20361511 -0.0955121 -0.016962849 0.31492805
-0.38461408 -0.09421424 -0.38214463 0.050558195 0.10572396 -0.22250329 0.29320276 -0.24036008
-0.1791775 0.114085294 -0.2010719 0.0855085 0.14344695 -0.22517592 -0.060389314 0.012408387
-0.34246764 0.27591673 -0.41001934 -0.40481353 0.070316166 -0.3081127 0.20595703 -0.17236264
0.36763963 -0.23468235 0.36217827 0.2959354 -0.34198084 -0.19168217 -0.3003204 -0.21479654
-0.4082985 -0.39271578 0.3635373 0.41425946 -0.05623135 -0.083053134 0.0374897 -0.055862203

std.constant6 f4 [8, 10]
00000000: ed62 7d3e 6a21 25be 2c78 dcbe ac6c afbe
00000010: 320e c03e cb45 b0be 2c27 9bbe bba9 9cbe
00000020: 1e05 913c 2ebe 723e abbe 2ebe 33e0 d1bd
00000030: 940c 30be 3631 913d 6d72 f3be 5838 9fbd
00000040: 3fd1 0d3f 9acd 153e ab5f 0abf b002 113f
00000050: 8b0d d6bd 5ea0 efbe 82d1 0ebf fa5b cfbe
00000060: 730e b83e 99fb 02bf c75c ac3c 848e 7cbe
00000070: f89f 05be 348e 453e c8a8 95be 8d28 d7be
00000080: 8c76 0b3f 5d44 ecbe e3f1 fbbe f150 0dbf
00000090: 9896 ebbe 7a24 aabd 429a c1be cad4 e7be
000000a0: 4f02 e63e aec6 0f3d 0dd3 b73e c2c6 e7be
000000b0: 3c70 87bd d0c9 a8be 971c ffbe 44fb 0ebe
000000c0: a6ee 463e f6a7 58be f5d2 d73e 6a0c bcbd
000000d0: 699a f5bd 0b4d bbbe fda4 77be 0a4a 79bd
000000e0: cef3 15be 7573 153e f573 893e 1c74 973e
000000f0: 8c32 9dbe bfb2 b8be c9d0 0d3f 2ad9 76be
00000100: a98f 8e3e 836d f13e 1f0f 9f3e 4c52 833e
00000110: 2377 033f 8e71 993e 2aa3 b1bd 1f2b 12bf
00000120: 7dd2 b73e 0e03 df3e 9141 e3bc 9d8e 2b3e
00000130: 5427 423c f1be f7be 8fd1 3e3e 7631 0c3f
0.24744768 -0.16126028 -0.43060434 -0.34262598 0.3751083 -0.34428248 -0.30303323 -0.30598244
0.017702635 0.2370536 -0.17064922 -0.10247841 -0.17192298 0.07089464 -0.47548237 -0.077744186
0.5539741 0.14629212 -0.5405223 0.56644726 -0.10451802 -0.46802038 -0.55788434 -0.4049986
0.35948524 -0.5116516 0.021040333 -0.2466374 -0.13049304 0.19292527 -0.29230332 -0.42023125
0.54477763 -0.46145907 -0.49207982 -0.5520163 -0.4601333 -0.083077386 -0.37813002 -0.45279533
0.44923636 0.035101585 0.35903206 -0.45268828 -0.06613204 -0.3296647 -0.498265 -0.13963038
0.19426975 -0.21157822 0.42153135 -0.09182055 -0.11992342 -0.36582217 -0.24184032 -0.060861625
-0.14643785 0.14594825 0.2684628 0.29580772 -0.30702627 -0.36073872 0.55396706 -0.24106279
0.2784398 0.47153863 0.31066224 0.25648725 0.51353663 0.29969448 -0.08673699 -0.5709705
0.35902777 0.43557018 -0.027741225 0.16753621 0.011850197 -0.48387864 0.18634628 0.5476297

std.constant7 f4 [2, 3, 3, 1]
00000000: e3f4 ea3e 8a58 c23e b4fa 353e 54b8 453e
00000010: 1da0 92bd 858b dfbe a1e9 b4be e9ba 0c3e
00000020: 1b0f 993e 94e7 80bd 2522 85be 697d 993d
00000030: 8d79 ce3d 17cc 0abe e900 13be 3cdf 4f3e
00000040: a110 13be 8bdf 27be
0.4588996 0.37958175 0.17771417 0.19308597 -0.071594454 -0.43661132 -0.35334495 0.13743176
0.29894337 -0.0629417 -0.26002613 0.07494623 0.10081778 -0.13554417 -0.14355816 0.20300001
-0.14361812 -0.16393869
