TFLiteWrapper/2.7.0/data/nonreshaped_best_704_2d.tflite (tflite, 45568 bytes, 18 tensors)

dense_1/bias f4 [32]
0	0x3f399a64	0.72501206
1	0x3f9eb624	1.2399335
2	0x3fbd4efa	1.4789727
3	0x3fcbc001	1.591797
4	0x3f3fa109	0.74855095
5	0x3f9480ba	1.1601784
6	0x3fbecaca	1.4905636
7	0x3fbb1fb2	1.4619048
8	0x3fbfcc30	1.4984188
9	0x3fa56fdd	1.2924763
10	0x3fa80c5c	1.3128772
11	0x3f53b8e3	0.8270399
12	0x3fbc0ba3	1.4691051
13	0x3f6b60a3	0.9194433
14	0x3f380bff	0.71893305
15	0x3fb2c843	1.3967365
16	0x3f81293f	1.0090712
17	0x3fd5a66a	1.669141
18	0x3f914a62	1.1350825
19	0x3fe266fa	1.7687676
20	0x3fd13df7	1.6347035
21	0x3f22eb9f	0.6364078
22	0x3face414	1.3507104
23	0x3f46b324	0.77617097
24	0x3f284b1d	0.65739614
25	0x3fd6884e	1.6760347
26	0x3fae82d1	1.3633672
27	0x3f91222f	1.1338557
28	0x3f8d8ad9	1.1057998
29	0x3f989f7c	1.1923671
30	0x3fbdd6e3	1.4831203
31	0x3fb51268	1.4146242

dense_0/bias f4 [32]
0	0xbf18dff9	-0.59716755
1	0x3fd0ba9e	1.6306951
2	0xba134fb9	-0.00056194846
3	0xbeec55d0	-0.4615922
4	0xbd8e5fa4	-0.06951836
5	0xbcf76327	-0.030198647
6	0xbb56e693	-0.0032791242
7	0xbdb91e00	-0.09038925
8	0xbe244ce3	-0.16044955
9	0xbf01c983	-0.5069811
10	0x3cfa2c2b	0.030538639
11	0xbee9694c	-0.45588148
12	0x3f49c3c6	0.7881435
13	0xbee0ee96	-0.43932027
14	0x3fe6a745	1.8019797
15	0x3e567dba	0.20946398
16	0x3f036259	0.5132194
17	0x3f12f564	0.57405686
18	0xbcf3dac5	-0.029767403
19	0x3f8716b4	1.0553803
20	0xbf20784e	-0.6268357
21	0x3daba4c5	0.08381037
22	0x3e48fb29	0.1962706
23	0xbe193892	-0.14962986
24	0xbee1c1b2	-0.4409309
25	0xbea498b5	-0.32147756
26	0x3dda59a6	0.1066163
27	0xbe71439b	-0.23560946
28	0xbf29f172	-0.6638404
29	0x3dc25062	0.09487988
30	0x3e3992ba	0.18122378
31	0xbea73a98	-0.3266189

conv_1/bias f4 [4]
0	0x3ed876c6	0.42278117
1	0xbddad0b2	-0.10684337
2	0xbeba49be	-0.36384386
3	0x3dce358c	0.10068807

conv_0/bias f4 [4]
0	0xbdd731eb	-0.10507568
1	0x3d1a02c3	0.03760029
2	0x3b257534	0.002524686
3	0x3e933333	0.2875

OUT_dense_2/bias f4 [8]
0	0xbf3d3d49	-0.7392164
1	0xbfadfb63	-1.3592342
2	0xbfc58fc9	-1.5434505
3	0xbf9722ba	-1.1807473
4	0xbe018219	-0.12647285
5	0x3f8b5f46	1.088845
6	0x3ec43280	0.38319778
7	0x3f180e8b	0.5939719

std.constant1 f4 [32]
0	0x3f826ce7	1.0189484
1	0x3e99b585	0.300213
2	0x3f0f5836	0.55993974
3	0x3f4e5261	0.8059445
4	0x3f3e60c2	0.7436639
5	0x3f301af2	0.68791115
6	0x3f04a7a3	0.51818293
7	0x3efc5d7b	0.4929007
8	0x3f3c93e4	0.73663163
9	0x3f5080bc	0.81446433
10	0x3f40a08e	0.75244987
11	0x3f52bbb7	0.8231768
12	0x3eeec94f	0.4663796
13	0x3f37269f	0.71543306
14	0x3ea28eac	0.31749475
15	0x3f11c8ea	0.56947196
16	0x3f067b92	0.52532303
17	0x3ee9387d	0.4555091
18	0x3f38aa52	0.7213489
19	0x3ed1322e	0.40858597
20	0x3f89fc71	1.0780164
21	0x3f09fbbd	0.5389975
22	0x3f44458d	0.76668626
23	0x3f8bf967	1.0935487
24	0x3f3e0d3b	0.7423894
25	0x3f703b37	0.93840355
26	0x3f5215ed	0.82064706
27	0x3f10f3bd	0.56621915
28	0x3f8d163b	1.1022409
29	0x3f06e906	0.52699316
30	0x3f2dbe7e	0.67868793
31	0x3f0f9105	0.5608066

std.constant2 f4 [32]
0	0xbe9eaeee	-0.30992836
1	0xbf659f5c	-0.8969629
2	0xbebd5038	-0.36975265
3	0xbe563b8f	-0.20921157
4	0xbef5cbc8	-0.48007035
5	0xbf128ce2	-0.5724622
6	0xbea75492	-0.3268171
7	0xbf347581	-0.70491797
8	0xbedfb86f	-0.436954
9	0xbe68df99	-0.22741546
10	0xbe292438	-0.16517723
11	0xbe8d3bf8	-0.27584815
12	0xbf70e760	-0.9410305
13	0xbeac73ad	-0.33682004
14	0xbf7fb063	-0.9987852
15	0xbebf0462	-0.3730803
16	0xbf3a496a	-0.7276827
17	0xbf0a9ee4	-0.541487
18	0xbeed8732	-0.46392208
19	0xbf897286	-1.0738075
20	0xbe24badc	-0.16086906
21	0xbea40da1	-0.32041648
22	0xbea8891c	-0.32917106
23	0xbef15bc2	-0.47140318
24	0xbe5e6002	-0.21716312
25	0xbe9eae91	-0.3099256
26	0xbedd2ff1	-0.4320064
27	0xbf0b976e	-0.5452794
28	0xbe42508c	-0.18976039
29	0xbf1cf894	-0.613168
30	0xbeb5fb4c	-0.35543287
31	0xbee062eb	-0.43825468

std.constant3 f4 [32]
0	0x3f1cafba	0.6120564
1	0x3f4b6547	0.7945141
2	0x3f07bc8c	0.53022075
3	0x3f38b2aa	0.7214762
4	0x3f321563	0.69563884
5	0x3f4bb159	0.79567486
6	0x3f3e1e93	0.742654
7	0x3f1a4d4c	0.60274196
8	0x3efa0de5	0.48838726
9	0x3f0ea246	0.5571636
10	0x3ef3bce0	0.47605038
11	0x3f4ad3af	0.79229254
12	0x3f14bd59	0.5810142
13	0x3f471c0e	0.77777183
14	0x3f772c56	0.96552026
15	0x3f7963b9	0.9741779
16	0x3f29c1ef	0.66311544
17	0x3f0037b2	0.50084984
18	0x3f0a1866	0.5394348
19	0x3f28916a	0.65846884
20	0x3f1243b7	0.57134575
21	0x3f11cf26	0.5695671
22	0x3f5170d4	0.8181279
23	0x3f2371f5	0.6384576
24	0x3f6093cf	0.8772554
25	0x3f048964	0.5177214
26	0x3efd85b1	0.4951606
27	0x3ee03e10	0.4379735
28	0x3f571ad7	0.8402533
29	0x3f49ffcf	0.7890596
30	0x3eed6ad4	0.46370566
31	0x3eed4360	0.46340466

std.constant4 f4 [32]
0	0xbef01dc6	-0.46897715
1	0xbfae4c49	-1.361703
2	0xbfaa6926	-1.3313339
3	0xbfbe50e1	-1.4868432
4	0xbf80aefc	-1.0053401
5	0xbf9845f1	-1.1896344
6	0xbfbd4042	-1.4785235
7	0xbf721a28	-0.9457116
8	0xbfa3f96e	-1.2810495
9	0xbf6e5ed7	-0.93113464
10	0xbf441d4d	-0.7660721
11	0xbf50bed9	-0.8154121
12	0xbf4beadd	-0.7965525
13	0xbf57818b	-0.8418204
14	0xbf56d3e9	-0.839171
15	0xbfad198c	-1.3523421
16	0xbf4b2129	-0.79347473
17	0xbfbff106	-1.499543
18	0xbf4fc0fb	-0.8115384
19	0xbfd9b25e	-1.7007558
20	0xbfca3d50	-1.5799961
21	0xbe8165d8	-0.25273013
22	0xbfc21266	-1.5161865
23	0xbf1f1b53	-0.6215107
24	0xbf39c208	-0.72561693
25	0xbfb9fe85	-1.4530798
26	0xbf9ccfa9	-1.2250873
27	0xbf359f13	-0.70945853
28	0xbfa2a348	-1.270608
29	0xbf887eaf	-1.0663661
30	0xbfad7970	-1.3552685
31	0xbfcda5b7	-1.6066197

std.constant5 f4 [4]
0	0x414e0c8b	12.878062
1	0x410468a7	8.27555
2	0x41adede5	21.74116
3	0x41482754	12.509602

std.constant6 f4 [4]
0	0xbf40d574	-0.75325704
1	0xbfa63bc6	-1.2986991
2	0xbdf69853	-0.12040772
3	0xc04adb78	-3.1696453

std.constant7 f4 [4]
0	0x4012e5fc	2.2952871
1	0x3fdfd15f	1.748577
2	0x3fe957f2	1.8229964
3	0x3fd0079a	1.625232

std.constant8 f4 [4]
0	0xbf08a3df	-0.5337505
1	0xbf02c950	-0.5108843
2	0xbfff1ff0	-1.9931622
3	0xbfa72680	-1.3058624

std.constant9 f4 [32, 268]
0	0xbc2bbf8a	-0.010482678
1	0xbdd6d8c1	-0.10490561
2	0xbe0c5c52	-0.13707092
3	0xbd4449fb	-0.047922116
4	0xbdfc2e81	-0.123135574
5	0xbcee69f0	-0.02910325
6	0x3d94bbba	0.072623685
7	0xbc930592	-0.017946992
8	0x3dc33a0d	0.09532557
9	0xbc2ce1ad	-0.010551852
10	0x3df8f984	0.12156966
11	0xbe1e1c9e	-0.15440604
12	0xbd8a6a02	-0.06758501
13	0x3c3eebce	0.0116529
14	0x3e175e49	0.1478206
15	0x3de594dd	0.11210034
16	0xbd4fb4e5	-0.050709624
17	0x3d75003e	0.059814684
18	0x3d39ceac	0.045363113
19	0x3e323424	0.17402703
20	0x3e6c2d6d	0.23064204
21	0x3ccf91da	0.025338102
22	0x3cf57643	0.029963618
23	0x3d5faf30	0.05461043
24	0x3e993739	0.29924944
25	0x3d04dbac	0.032436058
26	0xbd1ee07b	-0.0387883
27	0xbde6a467	-0.11261826
28	0x3e9d700c	0.30749547
29	0x3da428a1	0.08015562
30	0xbe14f069	-0.14544834
31	0xbe44950f	-0.19197486
32	0x3e1d05e1	0.15334274
33	0x3d74ce95	0.059767324
34	0xbe14b9fe	-0.14524075
35	0x3d28330d	0.04106431
36	0xbd21eae5	-0.039530654
37	0x3d8a88d5	0.0676438
38	0x3bbf9023	0.00584604
39	0x3e0f2605	0.13979347
40	0xbebaba60	-0.36470318
41	0x3d551a21	0.05202687
42	0x3d9c852d	0.07642589
43	0x3e0c4961	0.13699867
44	0xbf083b79	-0.5321575
45	0x3c047477	0.008084408
46	0x3df4c75f	0.119520895
47	0x3dfe4a13	0.12416472
48	0xbe1ea6f4	-0.15493375
49	0x3a28cb55	0.000643899
50	0xbee07ec7	-0.43846723
51	0x3d8a9e5a	0.067684844
52	0xbe494c2c	-0.19657964
53	0xbd808f24	-0.06277302
54	0x3e17715a	0.14789334
55	0x3e23ce58	0.15996683
56	0xbc51b920	-0.012800485
57	0x3d03139c	0.032001123
58	0x3db2b711	0.087263234
59	0x3d165716	0.036704145
60	0xbe1b380a	-0.15158096
61	0x3c832622	0.016009394
62	0xbcf34624	-0.029696532
63	0x3d94f7d8	0.07273835
64	0x3d2261ff	0.039644238
65	0xbd4cd588	-0.050008327
66	0x3d0048c7	0.031319406
67	0x3db45c18	0.08806628
68	0xbd11536e	-0.035479955
69	0xbdac2e27	-0.0840724
70	0xbd518b52	-0.051158257
71	0x3d1c508f	0.038162764
72	0xbe3b1e29	-0.18273224
73	0x3d1d2377	0.0383639
74	0xbd45d028	-0.048294216
75	0x3cda106f	0.026619164
76	0x3c48f85e	0.012266247
77	0xbd8fc167	-0.070193104
78	0xbea8319f	-0.32850358
79	0x3ce021e5	0.027359912
80	0xbc986b09	-0.018605726
81	0xbdc205b6	-0.094737455
82	0x3ec2372e	0.37932724
83	0xbe5b71fd	-0.21430202
84	0xbdb12b80	-0.08650875
85	0xbde197f4	-0.11015311
86	0xbddc452b	-0.1075538
87	0x3c8a0bf5	0.016851405
88	0xbd3584ef	-0.04431623
89	0x3ce3099f	0.027714549
90	0x3ddf0efd	0.10891531
91	0xbd90c894	-0.07069507
92	0xbdb86387	-0.09003358
93	0xbcd7dc02	-0.026350025
94	0x3e2e1aaf	0.17002366
95	0x3c07f93d	0.008299169
96	0x3d3d534a	0.04622201
97	0xbc90aa09	-0.017659204
98	0xbd67c408	-0.056583434
99	0xbd8e4317	-0.0694639
100	0xbcbe8c42	-0.02326024
101	0x3dc92b06	0.09822659
102	0xbe1614a8	-0.14656317
103	0x3d031047	0.031997945
104	0x3d287ac8	0.04113272
105	0x3dcf31b7	0.10116904
106	0x3de7c478	0.1131677
107	0xbe953fa4	-0.29150116
108	0x3d42ed87	0.047589805
109	0x3de2c840	0.11073351
110	0xbd50c5cd	-0.050969888
111	0x3d8ef32d	0.06979976
112	0x3cab7528	0.020929888
113	0x3df8e87f	0.1215372
114	0x3e1857ed	0.14877291
115	0x3b9237a9	0.0044622016
116	0xbd0e5420	-0.034748197
117	0xbcb92056	-0.022598427
118	0xb97042a3	-0.00022913008
119	0x3cfb5cc5	0.030683884
120	0xbe0eada7	-0.1393343
121	0xbd682f5d	-0.056685794
122	0xbdaabe80	-0.08337116
123	0x3c8571dc	0.016289644
124	0xbd41b728	-0.047293812
125	0xbc0772fc	-0.0082671605
126	0xbdaa8790	-0.08326638
127	0x3dbea320	0.093084574
128	0xbd7b7ac4	-0.061396375
129	0xbc983edf	-0.018584667
130	0xbc01a41c	-0.007912662
131	0x3dc47737	0.09593051
132	0xbbdc22a9	-0.006717999
133	0xbc8a6816	-0.016895335
134	0xbc580263	-0.013184163
135	0x3c581756	0.0131891575
136	0xbdc652ec	-0.09683785
137	0xbd20f9ee	-0.03930085
138	0x3d011b56	0.03152021
139	0x3c912a9e	0.017720517
140	0x3bd65f46	0.006542119
141	0xbcd5a78a	-0.026080865
142	0xbd05d8c7	-0.032677438
143	0xbd60a3b6	-0.054843627
144	0xbba1837d	-0.0049290047
145	0x3d981f0e	0.07427798
146	0x3e55c69f	0.20876549
147	0xbd13851f	-0.036015626
148	0xbd261d25	-0.04055514
149	0x3dd932e3	0.10605409
150	0xbd87f141	-0.066378124
151	0xbd164dd6	-0.036695324
152	0xbd9b7107	-0.07589918
153	0x3c90fa2b	0.017697414
154	0xbd600f84	-0.054702297
155	0xbcd42217	-0.025895162
156	0xbd3764ce	-0.04477387
157	0xbcfd15e6	-0.030894231
158	0xbc806918	-0.015675113
159	0xbbf63cd0	-0.0075145736
160	0xbcc4307b	-0.023948899
161	0xbca33161	-0.019921007
162	0xbd268b94	-0.040660456
163	0xbcd0f328	-0.025506571
164	0xbd4e9a5f	-0.05044019
165	0xbddbed81	-0.1073866
166	0x3d35e3f1	0.044406835
167	0xbd65969e	-0.056051843
168	0x399818b2	0.000290101
169	0xbccc6d85	-0.024954567
170	0xbdc0f73c	-0.09422156
171	0xbdd8159d	-0.105509974
172	0x3bc9a752	0.0061539793
173	0x3bf8e6f5	0.0075958916
174	0xbc0cf6be	-0.00860375
175	0xbd5de1fd	-0.054170597
176	0x3ca3f120	0.020012438
177	0xbba10720	-0.0049141794
178	0xbabafec0	-0.0014266595
179	0xbda11435	-0.07865182
180	0x3d1171ea	0.035509028
181	0x3ad556ae	0.0016276443
182	0x3c46e0a7	0.012138522
183	0xbd043314	-0.032275274
184	0x3d18c417	0.03729638
185	0xbd82ce39	-0.0638699
186	0xbd5b4749	-0.05353478
187	0xbd1c6885	-0.038185615
188	0xbd53736d	-0.05162375
189	0xbdf747c1	-0.12074233
190	0x3d293f8e	0.041320376
191	0xbd6bbd18	-0.05755338
192	0x3d152809	0.036415134
193	0xbc9d012f	-0.019165603
194	0xbcd4a364	-0.025956817
195	0xbce87601	-0.028376581
196	0x3d77d440	0.06050515
197	0xbcbc8df2	-0.023016904
198	0xbc847350	-0.016168267
199	0xbcbbf9d9	-0.022946285
200	0xbd02be01	-0.031919483
201	0xbd6693ba	-0.056293227
202	0xbd11fa18	-0.0356389
203	0xbd242da4	-0.04008259
204	0x3cf5d865	0.030010412
205	0x3d626291	0.05526978
206	0xbd0aebd1	-0.0339163
207	0x3bd1e1d3	0.006405094
208	0x3c84681f	0.01616293
209	0x3d5a5273	0.053301286
210	0x3c1da9a4	0.009622965
211	0xbc5cc9f0	-0.01347588
212	0x3d19b401	0.03752518
213	0x3d3454f3	0.044026326
214	0xbcd51055	-0.026008764
215	0xbaf94d7e	-0.0019020287
216	0xbb28a566	-0.002573335
217	0xbdd595c6	-0.10428958
218	0xbd1da1a1	-0.03848422
219	0xbc83e503	-0.016100412
220	0x3d22b3cd	0.039722253
221	0x3d0bfc60	0.03417623
222	0x3cb2c3a6	0.021821808
223	0xbd97f99f	-0.07420658
224	0x3c77735d	0.015103188
225	0xbc2e8cdf	-0.0106537035
226	0x3cbb5d04	0.022871502
227	0xbd664c0b	-0.056224864
228	0x3cc4d0af	0.02402529
229	0xbd85521e	-0.06509803
230	0xbdf6a7b9	-0.12043709
231	0xbdf0b6c3	-0.11753609
232	0xbe5252ab	-0.20539348
233	0x3cbb7552	0.022883091
234	0xbc2f2d80	-0.010692
235	0xbdc18eac	-0.094510406
236	0x3d9afb26	0.07567434
237	0x3d92d440	0.0716939
238	0x3e1bfd94	0.15233451
239	0x3d8f98b4	0.07011548
240	0xbd5043f9	-0.050846074
241	0x3cc4623f	0.023972629
242	0xbd8c1971	-0.0684079
243	0xbd3ba0eb	-0.04580776
244	0x3ba2b510	0.004965432
245	0xbbebeed8	-0.0072001033
246	0x3e2448b4	0.16043359
247	0x3d181ece	0.037138753
248	0xbd90d2a2	-0.07071425
249	0xbdc0bc66	-0.09410934
250	0x3dc03e9a	0.0938694
251	0x3e2d4543	0.16920952
252	0xbe20fea1	-0.15722133
253	0xbd062fae	-0.032760315
254	0x3e4c5643	0.19954781
255	0x3cc281cf	0.023743538

std.constant10 f4 [32, 32]
0	0xbe047643	-0.12935738
1	0x3c589d41	0.013221086
2	0x3e0ce80f	0.13760398
3	0xbc8f4044	-0.017486699
4	0x3e6f55dc	0.23372597
5	0x3bc2f623	0.005949752
6	0x3e303dde	0.172111
7	0x3ddef2e4	0.108861715
8	0xbf00d0a4	-0.5031836
9	0x3e5e6011	0.21716334
10	0xbf26ca32	-0.65152276
11	0xbda7cedb	-0.081937514
12	0xbcbdf961	-0.023190202
13	0xbd1030f3	-0.03520293
14	0x3ce6d4ad	0.028177584
15	0xbcfd6a02	-0.030934338
16	0xbe0f63c6	-0.14002904
17	0xbdec4cf3	-0.115381144
18	0xbe3bf44c	-0.1835491
19	0x3ed0473f	0.40679356
20	0x3e9db6d2	0.30803543
21	0x3ce17106	0.027519714
22	0xbef76c1b	-0.48324665
23	0x3e0af3f7	0.13569628
24	0xbd51f520	-0.05125916
25	0xbf3ffc0f	-0.74993986
26	0xbeb9fa81	-0.36323932
27	0xbe172993	-0.14761953
28	0x3e7ea4b9	0.24867524
29	0x3eb58ca2	0.35458857
30	0x3cda4cba	0.026647914
31	0x3cdaabea	0.026693303
32	0xbd2dde3f	-0.04244828
33	0xbdde0a84	-0.108418494
34	0xbf32159c	-0.69564223
35	0x3d5f4d6f	0.054517206
36	0x3dcb2e60	0.09920955
37	0x3e57b680	0.21065712
38	0x3c57642f	0.013146444
39	0x3e42bf4a	0.19018283
40	0xbe446008	-0.19177258
41	0x3e06869d	0.13137288
42	0xbd3b9117	-0.045792665
43	0xbea7a610	-0.32743883
44	0xbf0011b1	-0.50026995
45	0x3df3f60e	0.119121656
46	0xbd47bec6	-0.04876592
47	0xbec98cc8	-0.3936522
48	0xbdbf1ab4	-0.09331265
49	0xbdf64701	-0.12025262
50	0xbe2a1408	-0.16609204
51	0xb9c62288	-0.0003779123
52	0xbf128e0b	-0.5724799
53	0x3d91f5a2	0.07126929
54	0xbce0bf7e	-0.02743506
55	0x3e5cad6b	0.21550529
56	0x3d689a24	0.056787625
57	0x3e22eeef	0.15911458
58	0xbeadf061	-0.33972457
59	0x3e27763e	0.163537
60	0xbf022b00	-0.5084686
61	0x3d0486bb	0.03235505
62	0xba8f3a1c	-0.0010927352
63	0xbeec07fc	-0.46099842
64	0x3e3a848f	0.1821463
65	0x3e65bd69	0.22435535
66	0xbd03bfd8	-0.03216538
67	0x3e87adbf	0.26499745
68	0xbea923e0	-0.33035183
69	0x3e249a7b	0.16074555
70	0xbe7c97f8	-0.24667346
71	0x3d63b6ef	0.05559438
72	0x3e0a0187	0.13477145
73	0xbe432822	-0.19058278
74	0x3e23e1bf	0.16004084
75	0x3e85d219	0.26136854
76	0xbb50c0d8	-0.0031853225
77	0x3dc19fa9	0.09454281
78	0x3e6bb1d7	0.2301706
79	0xbe8f2050	-0.2795434
80	0xbe8653a9	-0.26235703
81	0xbeb7bdb8	-0.3588693
82	0x3d0dc58f	0.034612235
83	0xbdf59040	-0.11990404
84	0x3dc611ec	0.09671387
85	0xbe7c9edb	-0.24669974
86	0x3d9fec54	0.07808748
87	0x3ba428fe	0.0050097695
88	0x3ea4799d	0.32124034
89	0x3e2c7764	0.16842419
90	0xbe8301bd	-0.25587264
91	0x3eeb57e4	0.45965493
92	0x3d30efe1	0.043197516
93	0xbc8fdfd8	-0.017562792
94	0xbc3341a7	-0.010940946
95	0x3e460e26	0.19341335
96	0x3c76b6b7	0.015058211
97	0xbd64dbdd	-0.05587374
98	0x3d53bb19	0.051692102
99	0x3cac5948	0.021038666
100	0xbdb750c7	-0.08950954
101	0xbb9273f6	-0.00446939
102	0xbe88842a	-0.26663333
103	0x3d0406ed	0.032233167
104	0xbe8ff0c8	-0.2811339
105	0xbc1cbbad	-0.00956623
106	0xbed543ad	-0.41653195
107	0x3d83e069	0.06439287
108	0xbcbfdc2f	-0.023420421
109	0xbd81023b	-0.062992536
110	0x3ce76339	0.028245555
111	0x3e22d4ba	0.15901461
112	0x3e824920	0.25446415
113	0xbebdf297	-0.37099144
114	0xbea1a880	-0.31573868
115	0x3e878385	0.2646753
116	0x3e3d4211	0.18482234
117	0xbe2e05a2	-0.16994336
118	0xbec438c5	-0.38324562
119	0x3e8bed6c	0.27329576
120	0xba9f9387	-0.0012174704
121	0xbe9cb418	-0.3060615
122	0xbd24eeff	-0.040266987
123	0xbdbb34be	-0.09140919
124	0x3e27ab58	0.16373956
125	0xbd0b6038	-0.03402731
126	0xbdc89a8d	-0.09795103
127	0x3e07347b	0.13203613
128	0xbeb5bdd4	-0.3549639
129	0x3e8281a5	0.25489536
130	0x3dbc5e45	0.09197668
131	0xbdd9e525	-0.10639409
132	0x3dd29f27	0.10284262
133	0x3d37e0c8	0.044892102
134	0xbc5138fd	-0.012769935
135	0xbe0bba40	-0.13645267
136	0xbea577ad	-0.32317868
137	0xbe3a7852	-0.18209961
138	0x3d5bb617	0.05364045
139	0xbeffa3e0	-0.49929714
140	0xbd5c50cf	-0.053788003
141	0x3e05ead7	0.13077866
142	0x3eb2bded	0.34910527
143	0xbe25d116	-0.16193041
144	0x3d1b7e15	0.037962038
145	0xbeba5515	-0.36393037
146	0x3dcaa998	0.09895629
147	0x3ef79b4d	0.48360673
148	0xbf28f940	-0.66005325
149	0xbf2092ca	-0.6272398
150	0x3d7ca663	0.061682116
151	0x3ddf5a1c	0.10905859
152	0xbd532431	-0.051548187
153	0xbebc1a19	-0.3673866
154	0xbe0d05d7	-0.13771759
155	0xbe36fde5	-0.1787029
156	0xbf130d7e	-0.5744246
157	0xbdd67e10	-0.10473263
158	0x3eb29073	0.3487583
159	0xbed06103	-0.40699014
160	0x3cede230	0.029038519
161	0x3e1ab6b0	0.15108752
162	0x3db07ad7	0.0861718
163	0xbf152e73	-0.58274
164	0x3e30df54	0.17272693
165	0xbe30ea5f	-0.17276905
166	0x3ea994be	0.33121294
167	0x3e0c76e9	0.13717236
168	0xbd1d4746	-0.03839805
169	0x3dacadb3	0.08431568
170	0xbe4a4e98	-0.19756544
171	0xbc53110d	-0.012882483
172	0x3e4aef75	0.19817908
173	0xbe2b6273	-0.16736774
174	0x3d7d1245	0.061785
175	0xbe19e5a4	-0.15029007
176	0xbea0366e	-0.31291527
177	0x3d8ffb8a	0.07030399
178	0x3e8f8f06	0.28038806
179	0xbe1aea6a	-0.15128484
180	0xbf47d640	-0.78061295
181	0xbd137167	-0.03599682
182	0xbdd6d7d5	-0.104903854
183	0xbea2da5e	-0.31807226
184	0xbef59396	-0.47964162
185	0x3e2d05ef	0.16896795
186	0xbe20e512	-0.15712383
187	0x3d052a58	0.032511085
188	0xbf3732e3	-0.7156202
189	0x3e29840d	0.1655428
190	0x3e0b3808	0.13595593
191	0xbd83addf	-0.06429648
192	0x3e265bba	0.16245928
193	0xbd526703	-0.05136777
194	0xbb5fc3c6	-0.003414379
195	0xbf1243ec	-0.5713489
196	0xbe7ddc2d	-0.24791022
197	0xbe0da6b0	-0.13833117
198	0xbe98b842	-0.29828078
199	0xbded5399	-0.115882106
200	0x3e5de7cd	0.21670456
201	0xbe8451f7	-0.25843784
202	0x3e28b5c6	0.16475591
203	0x3e117d9d	0.14208074
204	0xbc95236d	-0.018205369
205	0xbecf36cf	-0.40471503
206	0x3d0b4384	0.033999935
207	0x3dbd8bb3	0.09255161
208	0x3e1fa3eb	0.15589873
209	0xbd4e6574	-0.050389722
210	0x3d1a7c48	0.03771618
211	0xbe09af08	-0.13445675
212	0xbe9d6d04	-0.30747235
213	0x3cb2d612	0.021830592
214	0x3d9f4eb5	0.07778684
215	0x3de81fdc	0.11334202
216	0xbf16837e	-0.5879439
217	0x3d999023	0.07498195
218	0x3ddb1746	0.106977984
219	0x3bb12d39	0.0054070023
220	0xbea0a1ed	-0.3137354
221	0xbe80a463	-0.25125417
222	0xbe14d444	-0.14534098
223	0x3da93b7a	0.082632974
224	0x3c2adfa2	0.010429295
225	0xbf21e8d3	-0.63245887
226	0xbecc4129	-0.39893463
227	0xbe848fd1	-0.25890973
228	0xbcc7711f	-0.024345933
229	0x3dbc4aab	0.09193929
230	0xbd5ec83a	-0.05439017
231	0x3dcb5dbc	0.09929988
232	0x3d8ce6e9	0.0687998
233	0x3e1ddfea	0.15417448
234	0x3cbbc2ed	0.022920096
235	0xbe02f9dd	-0.12790628
236	0xbebbdc8a	-0.36691695
237	0xbe75a358	-0.23988092
238	0xbef78c0c	-0.48349035
239	0xbba8f903	-0.0051566376
240	0x3e14838b	0.14503305
241	0xbcfb6558	-0.030687973
242	0xbe5d0a4d	-0.2158596
243	0xbda45e21	-0.08025766
244	0xbd32d2b2	-0.043657966
245	0x3ea5506e	0.32287925
246	0xbc95591a	-0.018230963
247	0x3e7b6f69	0.24554218
248	0xbe94419d	-0.2895631
249	0x3d86d60c	0.06583795
250	0xbbe4de7f	-0.0069845314
251	0xbe54d03e	-0.20782563
252	0xbd9d6207	-0.07684713
253	0xbcb48313	-0.022035157
254	0xbe9a85e8	-0.30180287
255	0xbe0ade56	-0.13561377

std.constant11 f4 [8, 32]
0	0x3e3bc548	0.18336976
1	0xbdb05c3c	-0.08611342
2	0x3e91faa0	0.28511524
3	0x3e561471	0.20906235
4	0xbe0f3fe2	-0.13989213
5	0x3d378545	0.04480483
6	0xbdf0205b	-0.11724921
7	0xbe895236	-0.26820534
8	0xbe4af62a	-0.19820467
9	0xbdf5876e	-0.11988722
10	0xbe3735fa	-0.17891684
11	0xbe468ec2	-0.19390395
12	0xbe7a803d	-0.24462982
13	0x3e2d2362	0.16908029
14	0xbd83356a	-0.06406672
15	0xbe8b95f9	-0.27262858
16	0xbe20bd79	-0.15697278
17	0x3e6f8907	0.23392116
18	0xbe7d5f6d	-0.24743433
19	0xbe4b34ba	-0.19844332
20	0x3ea77066	0.3270294
21	0xbf0866cd	-0.5328186
22	0x3e09a78f	0.13442825
23	0x3e261f6c	0.16222924
24	0xbe96c861	-0.29449752
25	0x3e4af1e1	0.19818832
26	0x3e9927d9	0.29913214
27	0xbe171e44	-0.14757639
28	0x3bf00230	0.0073244795
29	0x3eac40fe	0.33643335
30	0x3e828d72	0.2549854
31	0xbd8f53a3	-0.06998374
32	0xbdf3a56b	-0.11896785
33	0x3ed56cd8	0.41684604
34	0x3ea89473	0.32925758
35	0xbe881c8b	-0.26584277
36	0x3e24a93c	0.16080183
37	0xbd9311e0	-0.07181144
38	0xbe61083e	-0.219758
39	0xbea19272	-0.3155704
40	0x3eb5ff9d	0.3554658
41	0xbdfa60b5	-0.12225477
42	0xbc9bb590	-0.019007474
43	0xbe6ab197	-0.22919308
44	0x3e354108	0.17700589
45	0xbe7751f3	-0.24152355
46	0xbdfa6815	-0.12226883
47	0xbe9f6fa6	-0.31139868
48	0xbd076042	-0.033050783
49	0xbe67ce8b	-0.22637384
50	0xbe9cc66d	-0.30620137
51	0xbe8b6b0a	-0.27230102
52	0x3eaeaf7e	0.34118265
53	0xbf4e93ff	-0.80694574
54	0x3e74aff6	0.23895249
55	0xbea43b48	-0.32076478
56	0x3e79d754	0.24398547
57	0xbea2f0f0	-0.31824446
58	0x3ea32bdc	0.318694
59	0xbdb0f419	-0.08640308
60	0xbe975c8e	-0.295628
61	0xbe1e6a50	-0.15470243
62	0x3e8dc1e6	0.27686995
63	0x3edac51b	0.42728505
64	0x3e504f4f	0.20342754
65	0xbda28641	-0.07935763
66	0x3e942520	0.28934574
67	0x3e8d098b	0.27546343
68	0xbdd06fa8	-0.10177547
69	0xbdce9349	-0.10086686
70	0xbe378d62	-0.17925027
71	0xbe7e6ce6	-0.24846229
72	0xbe5ed21f	-0.21759842
73	0x3ed3be2c	0.41356027
74	0xbe364e49	-0.17803301
75	0xbe6ac715	-0.22927506
76	0x3e75de5a	0.24010602
77	0xbe85e3be	-0.26150316
78	0xbe13d0b1	-0.14435078
79	0xbe8fd7a3	-0.28094205
80	0x3e524315	0.20533402
81	0x3e8fe2ba	0.28102666
82	0xbe77ff0f	-0.24218391
83	0xbe816d47	-0.25278684
84	0x3ea6e0d0	0.32593393
85	0xbf3a6611	-0.7281199
86	0xbe8e8ea0	-0.2784319
87	0xbecb4700	-0.39702606
88	0xbe9e3caa	-0.30905658
89	0x3e785461	0.24250938
90	0x3e9f655e	0.31132025
91	0x3eeb41ff	0.4594879
92	0xbea43e97	-0.32079002
93	0xbd50cfad	-0.050979305
94	0x3e87fb4c	0.26558912
95	0x3eef5b29	0.46749237
96	0xbefad675	-0.48991743
97	0xbd18a40a	-0.037265815
98	0x3eac7899	0.3368576
99	0xbe84a131	-0.2590423
100	0xbe745bea	-0.23863187
101	0x3eab2ef0	0.33434248
102	0x3ec5539b	0.38540348
103	0xbe6aefa5	-0.2294298
104	0xbe59bbf3	-0.21263103
105	0x3ca221a7	0.019791437
106	0xbe4ba2a7	-0.19886266
107	0xbe61030a	-0.21973816
108	0x3defbe90	0.11706269
109	0x3e4505a3	0.19240431
110	0x3eb05057	0.34436294
111	0xbe6758b0	-0.22592425
112	0x3e28ed4d	0.16496773
113	0x3e9ae10b	0.3024982
114	0xbe7a5465	-0.24446256
115	0x3e9a20df	0.30103204
116	0xbe5aa059	-0.2135023
117	0xbf0c6696	-0.54844034
118	0xbe508d7c	-0.20366472
119	0xbeb465bb	-0.35233864
120	0xbe760e09	-0.24028791
121	0x3e7c9f72	0.24670199
122	0x3eabaf4b	0.33532175
123	0xbe12762a	-0.14302889
124	0x3d068870	0.03284496
125	0xbdeddc38	-0.11614269
126	0xbe8deed7	-0.27721283
127	0xbd5694f4	-0.052388147
128	0x3e22c3a2	0.1589494
129	0x3e53d272	0.20685747
130	0xbe18faf9	-0.14939488
131	0x3dbbc0c3	0.09167626
132	0x3df2c487	0.11853891
133	0x3bf8d3b2	0.0075935954
134	0x3e051fa1	0.13000347
135	0x3e1aa0d4	0.15100414
136	0xbd81cb32	-0.063375846
137	0xbd207f1d	-0.039183725
138	0xbd0a69d5	-0.033792336
139	0x3e703384	0.23457152
140	0xbd845621	-0.0646174
141	0xbdda13e6	-0.106483266
142	0x3e8ba099	0.27270964
143	0x3dddc82a	0.10829194
144	0x3dd52a8e	0.10408507
145	0xbe320766	-0.17385635
146	0x3c671a7b	0.0141054345
147	0xbe1a6993	-0.15079336
148	0xbe14cd6e	-0.1453149
149	0x3e2ceade	0.1688647
150	0x3e08bf2e	0.1335418
151	0x3d9189a5	0.07106332
152	0x3e646590	0.22304368
153	0xbe697bdf	-0.2280116
154	0xbe2981ed	-0.16553469
155	0xbd92993f	-0.071581356
156	0xbe2a7df6	-0.16649613
157	0x3e8a9e7e	0.27074045
158	0xbe7d9b8d	-0.24766369
159	0xbad8bb6e	-0.0016535351
160	0x3e24609f	0.16052483
161	0xbb033762	-0.0020022024
162	0xbe158a21	-0.14603473
163	0xbe04af25	-0.12957437
164	0x3df64454	0.12024751
165	0x3e812898	0.25226283
166	0xbbbd868d	-0.005783862
167	0xbe148966	-0.14505538
168	0xbe02e512	-0.12782696
169	0x3e2bff15	0.16796525
170	0xbdf9234b	-0.12164935
171	0x3e60972e	0.2193267
172	0x3e43b25c	0.19111007
173	0x3dbbbe0b	0.09167107
174	0x3e735a6f	0.23764966
175	0xbe4811ef	-0.19538091
176	0x3ddf2f72	0.10897721
177	0xbe2f908b	-0.17144983
178	0xbe14800e	-0.14501974
179	0xbe1315ba	-0.14363757
180	0xbdf60327	-0.1201232
181	0x3e5026b7	0.20327269
182	0xbdc1a0df	-0.09454512
183	0x3dba4cae	0.09096657
184	0x3e32fcb1	0.17479207
185	0xbe7ad7db	-0.24496405
186	0xbe116816	-0.14199862
187	0xbc164aaa	-0.009173075
188	0xbbf7d99a	-0.007563782
189	0x3e8b2bd6	0.27181882
190	0xbe44c911	-0.19217326
191	0xbc81134f	-0.015756277
192	0xbe0a0d03	-0.13481526
193	0x3b87b7a4	0.0041417647
194	0xbe3d6ae8	-0.18497813
195	0xbe39656b	-0.18105094
196	0xbe05da8c	-0.1307165
197	0x3d005d66	0.03133907
198	0x3e748f7f	0.23882864
199	0x3e1a5d3f	0.15074633
200	0x3e113dfe	0.14183804
201	0xbd138f7a	-0.0360255
202	0x3e59d9b5	0.21274455
203	0x3dbf6c9d	0.09346888
204	0x3e2c7ef7	0.16845308
205	0xbdcc25c9	-0.099681444
206	0x3cc7a2dc	0.02436965
207	0x3dd46376	0.10370533
208	0xbe336241	-0.1751795
209	0xbe58000e	-0.21093771
210	0x3e2b17d9	0.16708316
211	0x3df1fcb1	0.11815775
212	0xbe25439a	-0.16139069
213	0x3e83ed11	0.25766805
214	0xbe01d135	-0.12677462
215	0xbdee86d2	-0.11646809
216	0x3e560f0e	0.2090418
217	0xbe91c639	-0.28471544
218	0xbe2f4ba2	-0.17118695
219	0x3e386246	0.18006238
220	0xbe6bdcbd	-0.23033424
221	0x3ea11f5f	0.31469247
222	0xbe84d68d	-0.2594494
223	0xbd705568	-0.0586752
224	0x3e23172f	0.15926813
225	0x3e3940d6	0.18091139
226	0xbe2f923c	-0.17145628
227	0xbe360e89	-0.17778982
228	0xbdceb785	-0.10093597
229	0x3e83a3ef	0.2571101
230	0xbd3edd5a	-0.046597816
231	0x3e0da0f4	0.1383093
232	0xbe1ddde9	-0.15416683
233	0x3e4b4018	0.19848669
234	0x3e56dd5f	0.20982884
235	0x3e6af57c	0.22945207
236	0xbde3ad80	-0.11117077
237	0x3e002e15	0.12517579
238	0x3e89c7d2	0.26910263
239	0x3dcfa522	0.101389185
240	0xbe1c8da2	-0.15288404
241	0xbe3cc2ac	-0.18433636
242	0x3e1e66b5	0.15468867
243	0xbe22abb7	-0.15885817
244	0xbe1fb0a8	-0.15594733
245	0x3e775ae0	0.2415576
246	0xbdcede88	-0.10101038
247	0x3e029a02	0.12754062
248	0x3c7cb27d	0.015423414
249	0xbe8a8409	-0.2705386
250	0xbe2b0aae	-0.16703293
251	0x3e3923d2	0.1808007
252	0xbe67cd1c	-0.22636837
253	0x3e16b16b	0.14716117
254	0xbe7d3b03	-0.24729542
255	0xbd466c40	-0.04844308

std.constant12 f4 [4, 3, 3, 1]
0	0x3e47ccb3	0.1951168
1	0x3e1113a0	0.14167643
2	0xbed29ab8	-0.41133666
3	0x3e4d6105	0.20056541
4	0x3e7d9800	0.24765015
5	0xbe5abfdb	-0.2136225
6	0x3df332fd	0.118749596
7	0x3e2d2d9c	0.1691193
8	0xbdf39270	-0.11893165
9	0xbe05f9bc	-0.13083547
10	0xbe3dca9a	-0.18534318
11	0x3bf91eec	0.007602563
12	0xbde3f178	-0.11130041
13	0xbd0bf35a	-0.034167625
14	0xbdbe5520	-0.0929358
15	0x3ea3563b	0.31901726
16	0x3e95326f	0.2914004
17	0x3e6e20fd	0.23254772
18	0xbeaef3c7	-0.34170362
19	0x3d53df7e	0.05172681
20	0x3e3f07b7	0.18655287
21	0xbe2e6507	-0.17030726
22	0x3e74f207	0.23920451
23	0x3e1fc774	0.15603429
24	0xbf12f29b	-0.57401437
25	0xbdddf75a	-0.10838194
26	0xbea25c98	-0.31711268
27	0x3baa05b1	0.0051886667
28	0x3ddc8133	0.1076683
29	0x3dd4b9c3	0.10386994
30	0xbdcaf3ec	-0.09909806
31	0xbe8ff8bb	-0.28119454
32	0x3e4d955c	0.20076507
33	0x3d9a3c44	0.07531026
34	0x3e6cb433	0.23115616
35	0xbe8ef898	-0.27924037

std.constant13 f4 [4, 3, 3, 4]
0	0x3db104b3	0.086434744
1	0x3e516acb	0.20450895
2	0x3d9253ee	0.071449146
3	0x3d4f9db0	0.050687492
4	0x3db9228b	0.09039792
5	0x3d021e49	0.031767163
6	0xbd9e43dc	-0.07727787
7	0xbdf2cfcd	-0.11856041
8	0xbdc1b8bb	-0.09459063
9	0xbb9d5444	-0.004801305
10	0xbd0422dc	-0.032259807
11	0xbdec4cfc	-0.11538121
12	0x3dd7f99e	0.105456576
13	0xbe493502	-0.19649127
14	0xbd3de415	-0.046360094
15	0xbe42b95c	-0.19016021
16	0xbe557f07	-0.20849238
17	0xbe628160	-0.22119665
18	0x3e517014	0.2045291
19	0xbe72d426	-0.2371374
20	0xba02a454	-0.0004983593
21	0xbdbe2633	-0.0928463
22	0x3d83ae59	0.064297386
23	0xbea7088a	-0.32623702
24	0x3ec2a623	0.38017377
25	0xbd53cca4	-0.051708832
26	0xbd666a87	-0.056253936
27	0x3dad7eb1	0.0847143
28	0xbd9feb71	-0.07808579
29	0xbe8bd9b9	-0.27314547
30	0x3e55ce0c	0.20879382
31	0xbe313893	-0.17306738
32	0x3e3601e7	0.17774163
33	0x3caeafee	0.021324124
34	0x3dc1bddd	0.09460042
35	0xbd9a0595	-0.07520596
36	0x3ca2114f	0.019783644
37	0x3aa640ae	0.0012684071
38	0x3ed42924	0.41437638
39	0x3e0ede0b	0.1395189
40	0xbe1a1e37	-0.15050589
41	0x3e206431	0.1566322
42	0x3ea02107	0.31275198
43	0x3e999514	0.2999655
44	0xbd953777	-0.0728597
45	0xbdf9f6ed	-0.122053005
46	0x3ed4d3c4	0.41567814
47	0x3e3d9978	0.18515575
48	0x3de275f9	0.11057658
49	0xbe8028aa	-0.25031024
50	0x3e697fb1	0.22802617
51	0xbe1ef2df	-0.15522335
52	0x3e2c75a0	0.16841745
53	0xbe902f4e	-0.2816109
54	0x3dcd0c4f	0.10012113
55	0xbe6c618a	-0.23084083
56	0x3cbbd66d	0.022929395
57	0xbe6606f2	-0.22463587
58	0xbd599754	-0.053122833
59	0x3c44517e	0.01198232
60	0x3e96289d	0.2932786
61	0xbd092a07	-0.033487346
62	0xbcd6765d	-0.026179487
63	0x3da19266	0.078892514
64	0x3e8dc596	0.2768981
65	0xbe94cc1b	-0.2906197
66	0xbd5f55a6	-0.05452504
67	0x3d82cbda	0.06386538
68	0x3e43b312	0.19111279
69	0xbdcbaa1c	-0.09944555
70	0xbcf2cdf2	-0.029639218
71	0x3ddd0311	0.107916005
72	0xbd5e35b6	-0.05425044
73	0x3e9c28ad	0.30499783
74	0xbf3e5dfa	-0.74362147
75	0x3dfbc30f	0.12293064
76	0xbd971c0c	-0.073783964
77	0x3dd7be0f	0.10534298
78	0xbebecf10	-0.3726735
79	0x3d1006af	0.035162624
80	0xbd6e6a78	-0.058207005
81	0xbeb050a3	-0.3443652
82	0x3edf7bf2	0.4364925
83	0x3d9008cc	0.07032928
84	0x3dbe3d2b	0.092890106
85	0xbdad20e2	-0.084535375
86	0x3c3aa9ed	0.0113930525
87	0x3e03ecb8	0.1288327
88	0xbcc37388	-0.0238588
89	0x3ea18aaf	0.3155112
90	0xbddea3e9	-0.10871107
91	0x3da2682e	0.07930027
92	0xbe396033	-0.18103103
93	0xbe11b888	-0.1423055
94	0x3ec67fbf	0.38769338
95	0x3e78b892	0.24289158
96	0xbe1ef04e	-0.15521356
97	0xbc8ac07c	-0.016937487
98	0x3d9414db	0.0723054
99	0x3e3e4ba3	0.1858354
100	0xbcb16056	-0.021652382
101	0xbe27e011	-0.16394068
102	0x3d874337	0.06604617
103	0x3e2547be	0.16140649
104	0x3e108ecd	0.14116974
105	0xbd94ee69	-0.07272036
106	0x3b9e4e5d	0.004831119
107	0xbc6f0b81	-0.014590145
108	0xbe34d9c2	-0.17661193
109	0x3c7dcbd5	0.015490492
110	0xbeba915b	-0.36439022
111	0xbdc34834	-0.09535256
112	0x3d6fd659	0.058554027
113	0x3e3ddff0	0.18542457
114	0x3d0248c6	0.031807683
115	0x3e7fbe0c	0.24974841
116	0x3d9847ef	0.07435595
117	0xbd0b5366	-0.03401508
118	0xbdd02f7e	-0.101653084
119	0x3ed568ec	0.41681612
120	0xbd923415	-0.0713884
121	0x3dab7877	0.08372586
122	0x3d9f9b97	0.07793348
123	0x3e40d74f	0.18832134
124	0x3e71943b	0.23591702
125	0xbe7d9eb1	-0.24767567
126	0xbdb40524	-0.08790043
127	0xbdcb02a9	-0.09912617
128	0x3e7df5d1	0.24800803
129	0xbe8a7f8d	-0.2705044
130	0x3d25840e	0.04040914
131	0x3e424f1c	0.1897549
132	0x3d7c3fd6	0.061584316
133	0x3d02c984	0.03193046
134	0xbd4d2b53	-0.050090145
135	0xbc671b31	-0.014105604
136	0xbe753a8d	-0.23948117
137	0x3dedea5a	0.11616965
138	0xbe58900e	-0.21148703
139	0x3c486f7f	0.012233614
140	0xbe3b1fdf	-0.18273877
141	0x3c4f5cdc	0.012656417
142	0xbdc25ebd	-0.09490726
143	0xbb609594	-0.0034268843
