TFLiteWrapper/2.7.0/data/reshaped_2d_trainedsize.tflite (tflite, 5804 bytes, 10 tensors)

dense_5/bias f4 [8]
000000 bf a5 9e 3b 73 fc e3 3b 80 ec 0f bc 5e 40 1a bc
       0.004841536 0.0069575845 -0.008784413 -0.00941476
000010 d0 db 1a 3c a5 52 1a 3c 63 6b 15 bc 2d ab 1d 3c
       0.009451821 0.009419118 -0.009119841 0.009623331

dense_4/bias f4 [10]
000000 34 51 6c bb df 6c ce 39 94 8b af 3b ff 34 5f bb
       -0.0036059143 0.00039372497 0.005357215 -0.0034058688
000010 4e eb 24 bb 29 4d 18 3b 70 ea dc b7 49 ee 56 3b
       -0.0025164667 0.002323935 -2.6335212e-05 0.0032795838
000020 02 6b 4f bb e9 65 d2 3a
       -0.0031649475 0.00160521

conv2d/bias f4 [2]
000000 35 4b 4d ba cc 08 ca 3a
       -0.0007831336 0.0015413999

std.constant3 f4 [10]
000000 27 3d 73 3f 2c 0c 7c 3f a4 c6 76 3f 70 25 85 3f
       0.95015186 0.9845607 0.9639685 1.040205
000010 f9 c7 84 3f 36 71 7a 3f 42 4d 82 3f 2b 3c 86 3f
       1.0373527 0.97828996 1.0179827 1.0487112
000020 02 70 83 3f 1c ee 78 3f
       1.0268557 0.97238326

std.constant4 f4 [10]
000000 42 d7 c4 bd 71 fb a7 bd 5f af 0a be 7c 0a aa bb
       -0.0961137 -0.082022555 -0.13543461 -0.005189238
000010 be 2b e2 bc 93 df 9b bd 8d b4 3d bd ea 3d 82 3b
       -0.027608749 -0.07611003 -0.046314765 0.003974666
000020 9e e6 f3 bc a7 03 e1 bd
       -0.029773053 -0.10987025

std.constant5 f4 [2]
000000 6c 61 86 3f 39 fe 85 3f
       1.0498481 1.0468208

std.constant6 f4 [2]
000000 f8 d3 8a bd a0 90 c8 bc
       -0.06778711 -0.024483025

std.constant7 f4 [10, 32]
000000 89 65 3d 3e 40 05 58 3e 92 1d ae be 1d 2e b4 3e
       0.18495764 0.21095753 -0.34006935 0.35191432
000010 8c a2 57 be 9b 80 be be 50 a6 ab be 0d 7b 1b bd
       -0.210581 -0.37207493 -0.33525324 -0.037959147
000020 9b df b8 3e 66 95 91 3e 99 1d d8 3e 20 cf a3 bc
       0.36108097 0.28434294 0.4221008 -0.019996226
000030 26 5a d5 3e ce 0c b9 be c5 b2 9a be 04 b9 8c be
       0.4167034 -0.36142582 -0.30214515 -0.27484906
000040 67 e7 97 be 3e 6d fd bc 8a 3c c2 be 29 a2 a6 be
       -0.29668733 -0.03093588 -0.37936813 -0.32545593
000050 db 93 ad be bd 1b f0 3d ae 2d ae 3e 6a fd 7d be
       -0.33901867 0.11724041 0.34019226 -0.24803701
000060 65 a8 99 3e 23 0d 4d 3e e0 9b ca 3e 19 19 2b be
       0.30011287 0.20024543 0.39572048 -0.16708793
000070 6f 16 7d 3e eb b0 67 3e 85 88 15 3c 89 8b 4c be
       0.24715589 0.22626083 0.009126787 -0.19975103
000080 8f 59 72 3e 20 0c 2c 3e 2f 6e 93 3e 72 2d c2 be
       0.23666976 0.168015 0.28795 -0.37925297
000090 bb 9c 3e 3e 1a 9d be 3e e3 7b 9a 3d c6 de 3f be
       0.18614475 0.37229234 0.07543161 -0.18737325
0000a0 1a bc a7 be a3 a8 d1 be 87 1c 1d 3e 2c f6 2b 3e
       -0.32760698 -0.40948972 0.15342914 0.16793126
0000b0 c9 49 b7 be 14 c3 71 3e 27 02 ad 3e 8e 50 c4 3e
       -0.3579848 0.23609573 0.33790705 0.38342708
0000c0 50 77 d5 be fe d0 a3 3e e8 f9 bc be de f0 ad be
       -0.4169259 0.31995386 -0.36909413 -0.3397283
0000d0 11 21 8a bd 02 60 6f 3e 80 69 bd be d6 f2 ac 3e
       -0.06744588 0.23376468 -0.36994553 0.3377902
0000e0 cc 05 f6 3d 07 e8 d9 be de 72 fe 3d 01 d2 12 bd
       0.120128244 -0.42559835 0.12424253 -0.035844807
0000f0 60 b3 90 bb 14 f5 98 39 3f 42 44 bd ad 60 8f be
       -0.0044159144 0.00029174297 -0.04791474 -0.28003445
000100 94 00 d2 3e 12 33 d5 3e 3d 5f 20 be 63 08 8b 3c
       0.41016066 0.41640526 -0.1566133 0.016971773
000110 7a 8d 91 bd 59 22 3a 3e 4e e9 ff bd 8c f9 2f 3d
       -0.07107063 0.18177165 -0.12495671 0.042962596
000120 f1 71 26 be 81 61 5d bd dc bb 86 3e ad 61 ae 3d
       -0.16254403 -0.054048065 0.263152 0.08514724
000130 5d 33 36 be d1 dd 83 3e 9a c2 3b 3e 41 e4 82 3e
       -0.17793031 0.2575517 0.18335953 0.2556477
000140 63 d1 81 be 3a 24 a5 be ea e8 e5 3d 2c 3a 72 bb
       -0.25355062 -0.322542 0.112260655 -0.0036960943
000150 ca a1 c2 3d 53 35 13 bd a8 24 4e be bf 96 92 bd
       0.09503515 -0.035939526 -0.20131171 -0.07157659
000160 6b 49 56 3e f6 5c 26 3e 92 aa 57 3b 53 2d b7 3d
       0.20926444 0.162464 0.0032908064 0.08944192
000170 c0 41 d1 be 73 78 d4 3e cc 0c 4e be 54 22 82 3e
       -0.40870476 0.41498145 -0.20122069 0.25416815
000180 0e 3d 81 bd 83 e5 83 be 22 c0 92 3d 54 65 71 be
       -0.063104734 -0.2576104 0.07165553 -0.2357381
000190 52 63 98 be b1 1d 0a be 3c 01 1e 3d 1b 9f 88 be
       -0.29763275 -0.13487889 0.038575396 -0.26683888
0001a0 89 72 d3 3e d1 de 69 be a2 3a 07 3e 85 5d 83 3d
       0.4129832 -0.22838904 0.1320596 0.06414322
0001b0 48 2a 92 3e 07 90 bf be ef ed 88 be 59 c9 da 3d
       0.28547883 -0.37414572 -0.2674403 0.10682935
0001c0 a8 51 c0 3e 71 60 67 3d a2 99 be be fa 6e 1e 3e
       0.375623 0.056488458 -0.37226588 0.15472022
0001d0 c0 49 43 bd bc 6b cf be ec 88 a0 be 17 1d bd bd
       -0.047677755 -0.40511882 -0.31354463 -0.09234064
0001e0 66 ca b4 be 9e 8b d7 be 10 5c 79 be 47 32 a4 be
       -0.35310668 -0.42098707 -0.24351525 -0.3206961
0001f0 3c 40 6d 3e 22 47 da 3e 9c 0f ae bd b9 c4 ad be
       0.23169035 0.42632395 -0.08499071 -0.3393915
000200 dc 51 1c bd ff 4e b5 3e 9e ad 6b be f5 f5 94 3e
       -0.038164005 0.35411832 -0.23015448 0.290939
000210 c3 1d b4 be d6 b2 93 be b6 dd c3 be f6 21 81 be
       -0.35178956 -0.28847378 -0.3825509 -0.25221223
000220 de ca 9c be 8f 78 13 be db 07 a6 3e c4 35 92 be
       -0.30623525 -0.14401458 0.32427868 -0.28556645
000230 3d 2e 9e be 79 81 d6 bd 28 52 0e 3e c7 75 b4 3e
       -0.30894652 -0.10473914 0.13898528 0.35246107
000240 8c 69 08 3e d0 b1 8f 3c 2e 92 73 be 60 a5 9d be
       0.13321513 0.017540842 -0.23786232 -0.30790234
000250 15 d5 ab bd 05 14 05 be da e5 0e 3e ae 51 9e 3d
       -0.083902515 -0.12995918 0.13954869 0.07730423
000260 45 05 b8 3e c3 63 b1 3e 99 c4 43 3d a4 5d d2 3e
       0.3594152 0.34646425 0.047794912 0.41087067
000270 f6 44 6b 3d 43 5d 7b bd 9d 1d d1 be 74 78 52 3e
       0.057438813 -0.06136824 -0.40842906 0.20553762
000280 29 1d c7 bd f9 83 04 be 57 6a 8f be 0e fb 07 3c
       -0.09722359 -0.12940969 -0.28010818 0.008299602
000290 08 8b 96 3e c2 02 7b bd 74 a0 0f 3e 0c ed d9 3e
       0.29402947 -0.061281927 0.14026052 0.42563665
0002a0 98 51 86 bc 37 89 90 be 0a 6e bd 3e 34 39 30 3e
       -0.016396329 -0.28229687 0.36998016 0.17209321
0002b0 26 81 b7 bd 72 22 df 3d 6f 74 90 be 69 ba b7 be
       -0.0896018 0.10895242 -0.28213832 -0.35884407
0002c0 64 d6 0b 3e a8 d2 59 be f6 d4 d5 be d5 90 92 bc
       0.13656002 -0.21271765 -0.4176404 -0.017891327
0002d0 39 53 21 bc a5 aa b8 3e 9a 88 d1 3e 6c 41 3c be
       -0.009846502 0.3606769 0.4092453 -0.18384331
0002e0 12 41 cb 3e 17 54 c9 be 07 f8 13 be 60 a0 32 be
       0.39698082 -0.39321968 -0.14450084 -0.1744399
0002f0 d7 03 38 be 77 07 d6 3e 2f c9 8a be 97 a9 b6 be
       -0.17970215 0.4180257 -0.27106616 -0.35676262
000300 34 ad bf bd a1 ff 3e be 7e 23 92 be e2 df 59 be
       -0.09359208 -0.18652202 -0.28542703 -0.21276811
000310 1e 5b 98 3e 06 fb a1 3e a2 28 9a 3e 8f 88 b8 3e
       0.29757017 0.31636828 0.30109125 0.36041686
000320 90 24 de be 0c d6 38 bd ef ad c2 3e ee c1 bc be
       -0.4338727 -0.045126006 0.38023326 -0.36866707
000330 04 5f e8 bd b7 b6 ab be de fc 50 3d 71 4a b8 3e
       -0.11346248 -0.33537838 0.051022403 0.35994294
000340 0e 07 bd be 63 51 3e 3e 5c 46 ee bd e7 31 af be
       -0.36919445 0.18585734 -0.11634514 -0.3421776
000350 43 f8 cc 3e ee 11 cd be f0 48 af 3c 8b 7a 1f 3e
       0.4003316 -0.40052742 0.021397084 0.1557409
000360 85 74 c0 be ad fa 03 3d cd 5f a4 3d 95 48 d4 be
       -0.37588897 0.032221485 0.08026085 -0.41461626
000370 59 06 d7 3e a5 c0 64 be 45 17 c0 be 36 12 e7 bc
       0.4199703 -0.22339113 -0.37517753 -0.028206926
000380 b3 34 07 bc 78 60 6a 3e 0d 83 87 bd 4b 56 ac 3c
       -0.008252311 0.22888362 -0.06616793 0.021037241
000390 ce 2d cf bd 3e 7c 58 be 2c da 84 be 2b 68 cf be
       -0.101161584 -0.21141145 -0.25947702 -0.4050916
0003a0 d2 b3 6d bd 80 af a3 be eb 2f 4d bd 1c cc 11 3d
       -0.05803282 -0.31969833 -0.050094526 0.035595044
0003b0 f0 50 cf 3e b2 fd 7e be 53 73 98 3e d0 a1 55 bd
       0.40491438 -0.24901465 0.29775485 -0.05215627
0003c0 3b 0b 11 be 58 6b 98 be cb 6b 8e be 81 0d ab be
       -0.1416444 -0.29769397 -0.27816615 -0.3340874
0003d0 7f 17 a0 3e 42 a6 50 3e ce 70 29 bd 33 94 bf bd
       0.31267926 0.20375922 -0.041367345 -0.09354439
0003e0 5e 7c 36 3e fa ff 07 3e f5 02 c5 3d 4a 2d 0c 3e
       0.1782088 0.13281241 0.09619705 0.13689151
0003f0 e1 d7 ca be e5 b9 96 be f8 90 36 bd ad d5 18 3d
       -0.39617828 -0.294387 -0.044571847 0.037313152

std.constant8 f4 [8, 10]
000000 7a 81 da be bf d3 6b 3d 58 69 c6 3e 55 03 a3 3e
       -0.42676908 0.057574984 0.38752246 0.3183848
000010 f2 39 b9 3e aa 3e e2 be e2 67 2e bd 00 46 fb 3c
       0.3617702 -0.44188434 -0.04257954 0.030673027
000020 03 3a ff 3e 7e d1 09 bb a2 6b da 3e 88 bb 42 3e
       0.49848947 -0.0021029408 0.42660242 0.1901685
000030 b3 2e 81 3e e5 c3 13 bf f2 57 9a be d4 d4 72 be
       0.2523094 -0.57720786 -0.30145222 -0.23714
000040 84 e6 2e 3e 54 19 d2 3e de 6f d2 be a2 f1 86 be
       0.17080122 0.4103495 -0.41100973 -0.26356226
000050 fd 8a 3f 3e 68 c8 79 3e b5 c7 74 be 03 0e 13 be
       0.18705364 0.24392855 -0.23904307 -0.14360814
000060 79 64 61 be de 20 08 3f c8 39 c5 3e 4b 6a df be
       -0.22010984 0.5317515 0.38520646 -0.43635783
000070 b7 82 de 3e 0b c1 8f bc f6 1b 46 be d4 ac 13 3f
       0.43459103 -0.017548105 -0.19346604 0.5768559
000080 bd ca 18 3e 75 d0 a4 be 74 29 ae 3e 74 26 b4 3d
       0.14921089 -0.3219029 0.34016 0.08796397
000090 45 11 e9 3e 9a 6f ee be f1 34 ca be d0 42 0a 3f
       0.45520988 -0.4656952 -0.39493516 0.540082
0000a0 6e 86 cb be 7a 9f 31 3e af 7d 88 3d 79 9e b1 3e
       -0.39751 0.17345992 0.06664597 0.34691218
0000b0 60 70 b8 be 19 1d d4 3e c6 1e 01 3f 64 fb 0d bd
       -0.36023235 0.4142845 0.5043758 -0.034663573
0000c0 75 ca 0a bf 64 46 66 bd 48 12 0b bf 22 19 76 3e
       -0.54215175 -0.056219473 -0.5432477 0.24033025
0000d0 6c cc 0b be 0a 35 dc 3e dc e6 ba be 56 92 55 be
       -0.136522 0.43009216 -0.36504257 -0.20856604
0000e0 68 a6 10 bf ee 74 db 3d 9f 45 b3 bd 0b 7a 07 3e
       -0.56503916 0.10715662 -0.087535135 0.1323015
0000f0 cc 41 05 bf d6 d2 83 3e 37 16 0d bf 4d 00 5c be
       -0.52053523 0.25746793 -0.5511202 -0.2148449
000100 8d 4e aa 3e 0e 3f ad 3e 85 cb 02 3d b5 64 47 be
       0.33263054 0.3383717 0.031932373 -0.1947201
000110 71 68 27 3e ae f5 f1 3e 64 a3 cd bd 1f c3 bd 3e
       0.16348435 0.4725775 -0.1004093 0.37062928
000120 63 8d b6 be 09 8b fb 3e ef ad b5 3e c0 bd 1f 3e
       -0.35654745 0.49129513 0.35484263 0.15599728
000130 17 f0 0b bf 7d bf 9d be 64 0b 0d bf c3 37 86 3e
       -0.54663223 -0.30810156 -0.55095506 0.26214418

std.constant9 f4 [2, 3, 3, 1]
000000 5f c7 36 3e 51 e6 d7 3e 90 e1 9f 3c dc d5 49 3e
       0.17849492 0.42167905 0.019516736 0.19710487
000010 d5 70 7e be bb a7 e7 3e 02 1f b7 bd 08 1d b3 3e
       -0.2484773 0.45245156 -0.08941461 0.34983087
000020 dc e9 84 3d 74 41 a0 3d 71 11 73 be 12 22 87 3e
       0.06489918 0.07824984 -0.23737122 0.2639318
000030 2f cb 53 3e c2 60 06 3e c3 b3 07 be 38 41 a8 3d
       0.20682977 0.13122848 -0.13252167 0.082155645
000040 82 cf 5a be 05 be 69 3e
       -0.2136822 0.22826393
