TFLiteWrapper/2.7.0/data/test_model_2d.tflite (tflite, 46556 bytes, 18 tensors)

dense_1/bias f4 [32]
000000 0f f5 78 3f 12 a9 6e 3f 6a b1 7f 3f 49 e9 cd 3f
       0.9724893 0.9322673 0.9988009 1.6086818
000010 56 b2 c7 3f 4d 9f 60 3f e0 ce 9a 3f 71 63 8c 3f
       1.5601299 0.87743074 1.2094383 1.0967847
000020 bb 56 06 40 3c 86 3b 3f 07 8a 9c 3f 5e fb b9 3f
       2.0990436 0.732517 1.2229623 1.4529836
000030 b3 88 8f 3f 11 11 8a 3f 5c 37 53 3f 4d 9b b8 3f
       1.1213592 1.0786458 0.82506347 1.4422394
000040 c9 f6 64 3f 03 08 67 3f 52 74 ad 3f 5b bc b4 3f
       0.89439064 0.902466 1.3551123 1.4119982
000050 10 98 a3 3f b9 a3 3c 3f e9 f0 bd 3e 15 c0 77 3f
       1.2780781 0.7368732 0.37097862 0.9677747
000060 99 1a b1 3f 6c bb 8c 3f 9e 89 40 3f 75 2a 97 3f
       1.3836242 1.0994697 0.7520999 1.1809832
000070 a0 37 78 3f cf 6f 69 3f a0 9a 04 3f c0 36 a4 3f
       0.96959877 0.9118623 0.5179844 1.2829208

dense_0/bias f4 [32]
000000 f5 08 ce bc 5d f8 53 be b2 db 3c be 59 a9 1a 3e
       -0.025150755 -0.20700212 -0.18443182 0.15103664
000010 c7 75 d6 3e 73 59 43 be b6 69 7d bc a0 66 a8 3e
       0.41886732 -0.19077091 -0.015467098 0.32890797
000020 93 f1 61 3e 5d a1 14 be ef 1e a5 bd 3c 84 3a be
       0.2206481 -0.1451468 -0.08062541 -0.18214506
000030 cf 22 b3 bd a1 b6 be 3e 7d a7 87 3f b0 db 0d 3f
       -0.087468736 0.3724871 1.0597988 0.5541334
000040 b3 bc 06 be f0 e0 4d be bb 01 3b 3d db a3 93 bd
       -0.1315792 -0.20105338 0.045655947 -0.07208987
000050 bd 2e 53 be 4b 44 ad 3e cf 51 4e be 2a 6d ea bd
       -0.20623298 0.33841166 -0.20148395 -0.11446603
000060 e5 d9 1c 3e 26 88 97 bd 13 78 21 be af 87 b5 bd
       0.15317495 -0.07399015 -0.15768461 -0.0886377
000070 ec 5b a9 be 58 e7 71 3e 7a 44 69 be 91 e4 07 3e
       -0.33077943 0.23623407 -0.22780028 0.13270785

conv_1/bias f4 [4]
000000 31 da 45 3d 6d b7 e8 3d 87 1d 93 be ce 70 54 be
       0.048303787 0.11363111 -0.28733465 -0.20746157

conv_0/bias f4 [4]
000000 ba a7 8b bc 23 5c b3 3c e0 88 03 bc 21 54 09 3c
       -0.017047752 0.02189452 -0.008028239 0.008381874

OUT_dense_2/bias f4 [8]
000000 d9 17 99 bf f0 79 b8 bf 11 da b7 bf 86 5a 82 bf
       -1.1960403 -1.4412212 -1.4363424 -1.0183876
000010 15 a6 a6 be 9a 8a 87 3f de 91 b9 3e 78 6c 1c 3f
       -0.32548586 1.0589173 0.362441 0.6110301

std.constant4 f4 [32]
000000 4d b1 d2 3e d6 82 82 3f cf d7 41 3f 25 36 14 3f
       0.41150895 1.0196178 0.7571992 0.5789512
000010 75 e0 c4 3e 49 82 f2 3e 71 76 2c 3f 11 7e ce 3e
       0.38452497 0.47365025 0.6736823 0.40330556
000020 9d 5f cd 3e e5 24 0e 3f 3a 5b 47 3f c2 d4 26 3f
       0.4011201 0.55525047 0.77873576 0.6516839
000030 35 9d 4a 3f c3 71 c5 3e 97 22 be 3e 2a 4d a7 3e
       0.7914613 0.38563356 0.37135765 0.3267606
000040 0e 34 19 3f 4e 43 45 3f 21 15 e0 3e 94 93 43 3f
       0.59845054 0.77055824 0.4376612 0.7639706
000050 7a 7d 43 3f 46 7f f5 3e 93 45 c4 3e cb 58 3a 3f
       0.7636334 0.47948664 0.3833433 0.7279174
000060 a8 98 29 3f 40 93 38 3f 00 c8 26 3f 38 e2 23 3f
       0.6624856 0.72099686 0.65148926 0.6401706
000070 89 93 36 3f 29 1e f3 3e 61 a7 78 3f b7 ee ef 3e
       0.7131887 0.47483948 0.971304 0.46861812

std.constant5 f4 [32]
000000 c6 dc b4 be 89 29 d0 be 3c ae ab be a0 fd 90 be
       -0.35324687 -0.4065669 -0.33531368 -0.283185
000010 a2 b9 27 bf 88 81 f8 bd 2f 11 98 be 20 87 f7 be
       -0.6551763 -0.12134081 -0.2970061 -0.4834528
000020 e8 67 27 bf cd 40 6c be 2b fd be be 3a 11 9c be
       -0.65392923 -0.23071595 -0.37302527 -0.30481893
000030 56 81 52 be 90 8b 40 bf 95 bf 50 bf 42 90 69 bf
       -0.2055715 -0.75212955 -0.8154233 -0.91235745
000040 96 06 2e bf 1f 5d f2 be d2 e9 a0 be 0b 10 87 be
       -0.679788 -0.4733667 -0.3142839 -0.26379427
000050 12 5d 69 be e0 1e 9a be b6 14 57 be 5c 7a a7 be
       -0.2278941 -0.3010168 -0.21003994 -0.3271054
000060 01 a7 a4 be 92 ee b5 be 74 db 0f bf da bc c4 be
       -0.32158664 -0.35533577 -0.56194234 -0.38425332
000070 00 71 98 be c6 cf e2 be c8 c2 1f bf 1b c5 4c bf
       -0.29773712 -0.44299144 -0.6240659 -0.7998826

std.constant6 f4 [32]
000000 1b 6c 2f 3f 3a 9a ce 3e 44 88 22 3f 23 ed f4 3e
       0.6852433 0.4035204 0.63489175 0.4783717
000010 92 b0 08 3f 9c c4 31 3f 63 2b 1f 3f d7 94 07 3f
       0.53394425 0.6944063 0.6217558 0.52961487
000020 30 ec e0 3e 18 e0 e5 3e a3 2f 05 3f cc ed cc 3e
       0.43930197 0.44897532 0.5202581 0.40025175
000030 0e 15 10 3f 9c e4 d0 3e c4 f3 ea 3e 0b 6b c5 3e
       0.56282127 0.40799415 0.45889103 0.3855823
000040 8f 09 dd 3e 0c f0 06 3f 6f b6 04 3f 81 ea ca 3e
       0.43171355 0.5271003 0.5184087 0.39632037
000050 ee a3 09 3f db 1b 1f 3f 6d d6 05 3f a5 bc fe 3e
       0.5376576 0.6215188 0.5228031 0.497533
000060 0a fb a8 3e 54 98 0b 3f 59 8a 0d 3f 79 fe 24 3f
       0.33004028 0.5452931 0.55289227 0.64450794
000070 e0 68 b1 3e 90 8a f2 3e fa 5e 27 3f b6 96 28 3f
       0.34650326 0.4737134 0.653793 0.65854967

std.constant7 f4 [32]
000000 67 f1 3e bf e4 29 46 be 0c 37 7f bf d5 3b 90 bf
       -0.745871 -0.19351918 -0.9969337 -1.1268259
000010 8b 63 92 bf 06 ed 83 bf 57 15 c0 bf 48 33 65 bf
       -1.1436628 -1.0306709 -1.5006512 -0.89531374
000020 a4 25 a3 bf 1a 43 c4 be 16 c8 bd bf 30 7c 2c bf
       -1.2745862 -0.38332444 -1.4826686 -0.67376995
000030 88 86 3f bf 14 93 2c bf a8 8c a0 be 68 0f 34 bf
       -0.74814653 -0.67411923 -0.31357312 -0.7033601
000040 02 dd db be cc ac 0a be f6 0c 90 bf f3 65 85 bf
       -0.42942053 -0.1354248 -1.1253955 -1.0421737
000050 88 f8 b2 bf 50 93 cb be 0b 0d d5 be de e4 bf be
       -1.3982096 -0.39760828 -0.41611513 -0.374793
000060 d6 15 6f bf 8f 5b 40 bf 96 23 16 bf 30 de da bf
       -0.93392694 -0.7513971 -0.5864805 -1.7099056
000070 7c 42 08 be 80 e1 f5 be ac c0 08 bf 21 11 91 bf
       -0.13306612 -0.48023605 -0.53418994 -1.1333352

std.constant8 f4 [4]
000000 25 b6 ba 40 e4 ff 5e 41 a1 6a b8 40 c9 07 e8 40
       5.8347344 13.937473 5.763016 7.2509503

std.constant9 f4 [4]
000000 c7 3a fe bf 7f 3c b7 be c6 08 cf be 43 4a d4 bf
       -1.9861687 -0.35788342 -0.4043638 -1.6585163

std.constant10 f4 [4]
000000 c6 1f 7d 40 2d 4d 4c 40 35 bb 6b 40 1f 44 f1 3f
       3.9550643 3.1922104 3.6833012 1.8848914

std.constant11 f4 [4]
000000 f6 81 87 bf 36 54 90 bf 2e f7 1a bf ec 5d 52 bf
       -1.0586536 -1.1275699 -0.60533416 -0.82174563

std.constant12 f4 [32, 268]
000000 3e 99 8d 3d c2 34 f4 bd e5 2f 95 3c 5a a8 3a 3d
       0.06913994 -0.11924125 0.018211314 0.04557071
000010 83 62 1a bd 2a 97 ea bd 78 4f 28 bd d8 83 87 3d
       -0.037691604 -0.114546135 -0.041091412 0.06616944
000020 a9 ef e9 bd ce 97 8f bd ef 69 bc bd 1f d5 4d 3c
       -0.11422665 -0.07011376 -0.09199893 0.012563019
000030 e1 a6 73 be ef 57 14 3e 3f e8 8e be 29 d7 0c bb
       -0.23794128 0.14486669 -0.27911565 -0.002149055
000040 b0 a9 cc bd f6 ab 2c 3e 01 26 e0 bd f6 27 a1 bd
       -0.09993303 0.16862473 -0.10944749 -0.0786895
000050 c6 66 ad 3c f2 3c 06 bd a0 1c eb 3d 81 c8 82 bd
       0.02116717 -0.032772966 0.11480069 -0.06385899
000060 10 9d 01 3d 8c 6b 04 be 2c 22 aa 3c 87 d2 9a bc
       0.031643927 -0.12931651 0.020768248 -0.018899215
000070 b7 07 fe 3d 87 44 19 be 4d b9 7f bc 90 3a b1 3c
       0.12403815 -0.14967547 -0.015608144 0.02163437
000080 70 ce b7 3d b8 97 61 be a7 59 1f bb 32 df 91 bd
       0.08974922 -0.22030532 -0.0024314912 -0.07122649
000090 db d5 d9 3d 75 6c e9 be e1 61 a0 bd 2a a2 a6 3c
       0.10636493 -0.4559056 -0.07831169 0.020340998
0000a0 1d be db 3d 01 30 fe be f2 ee 5e bc 75 35 37 bd
       0.107296206 -0.49646 -0.013606774 -0.044728715
0000b0 fe d8 3c 3e 07 3f 8b be 3d 0f 06 bc 30 7c 6c 3b
       0.18442151 -0.27196524 -0.008182344 0.0036084764
0000c0 e3 9d 25 3e e3 48 68 bd ae bd 67 bd 0a 97 d7 ba
       0.1617351 -0.056710135 -0.056577377 -0.0016448211
0000d0 81 e9 0d bd 5c 75 14 3d bc 6f d7 3b 4d 11 e7 3d
       -0.034646515 0.036244735 0.006574599 0.11282597
0000e0 b6 7e 83 bc c1 98 9d 3c a5 16 f8 bd bb 4f 49 3d
       -0.016051631 0.019237878 -0.12113694 0.049148303
0000f0 ec fe 1e bd 96 29 1b bd fc 2c d1 bd 22 eb 96 bd
       -0.03881733 -0.037881456 -0.10213658 -0.07369067
000100 59 2a 15 bd 6d 7f d5 bd 30 7b 02 3c 81 69 9b bc
       -0.03641734 -0.10424695 0.0079639405 -0.018971207
000110 8f 11 1f bd 69 f8 8c 3d e1 a2 34 bd e6 45 9e bc
       -0.038835105 0.06883318 -0.044100646 -0.01932044
000120 a0 a7 3d bd 70 db 8f 3d 3f 12 94 bc 7f ae ba 3d
       -0.046302438 0.07024276 -0.018075107 0.09115314
000130 47 73 25 bd 15 a6 f5 bb d4 a4 03 bd fc 00 f8 bd
       -0.04039314 -0.007496605 -0.032139614 -0.12109563
000140 4b 54 87 ba a8 e0 1c 3c d2 cf b0 3c b9 2d 10 be
       -0.0010324804 0.009575047 0.021583471 -0.14079942
000150 85 d7 ae 3d 31 7b a8 3d 50 fc 99 3c 99 47 82 3c
       0.08537201 0.08226622 0.01879707 0.015903281
000160 d5 96 ab bd b7 22 44 3d 70 eb 7e 3d c9 13 21 be
       -0.08378378 0.04788467 0.06223625 -0.15730204
000170 c5 e1 ad bd 95 34 ec bb b3 c4 7b 3b 42 05 2e 3c
       -0.08490328 -0.0072084167 0.0038416802 0.010621371
000180 9d 24 78 bc ab f1 06 bd 4e 22 87 bc b0 cd e7 bd
       -0.015145448 -0.032945316 -0.01649585 -0.11318529
000190 93 f4 d0 bd d9 bc 8b 3d cc 99 c9 bb d8 fc 0c 3c
       -0.10202899 0.06823129 -0.006152367 0.0086052045
0001a0 a1 93 b4 bd c6 d9 14 bc bc e8 10 3d 7a 3e 3c 3d
       -0.088172205 -0.009085124 0.035378203 0.04595802
0001b0 92 95 b8 be d5 1f c4 bd 63 4a 9d 3d 0e a1 6e 3e
       -0.36051613 -0.09576384 0.07680204 0.23303625
0001c0 f0 80 e8 bd 36 ee 1b be d2 8e d0 3d 9b 5b 9f 3d
       -0.11352718 -0.15227589 0.10183491 0.07781144
0001d0 34 87 5c bc fc 98 ec bd 4a 61 32 3c c4 87 95 bb
       -0.013459969 -0.11552617 0.010887453 -0.0045633037
0001e0 04 ed 9b 3c 27 d2 2c be 41 7f 56 3d 18 36 75 3d
       0.019033916 -0.16877042 0.052367453 0.05986604
0001f0 b1 c7 ca bc 61 da 4e bd 90 aa 11 3e e0 22 1c 3d
       -0.024753423 -0.05050123 0.1422522 0.038119197
000200 6d d3 81 bc 0b ea 3f bc 79 63 9c 3c ec 38 ea 3d
       -0.015847886 -0.011713515 0.019090401 0.11436638
000210 78 a6 a3 3c 78 62 e3 bc 47 fe 64 3d 7f 31 72 3d
       0.01997684 -0.027756914 0.05590656 0.059129234
000220 57 d9 53 bc 82 5c 20 be 75 b2 8a 3d 03 b2 64 3d
       -0.012930236 -0.15660289 0.06772319 0.055833828
000230 68 d5 5a 3d 4c 67 5c bd cc 3f a7 3d 74 67 76 bb
       0.053426176 -0.05380945 0.08166465 -0.0037598284
000240 42 d9 08 3a c2 04 e9 bd f6 1f 7f 3d f4 1d 3e 3c
       0.0005220362 -0.113778606 0.06228634 0.011603821
000250 11 17 c8 bc 9e e1 b0 bd e0 45 07 3d 12 ba ed 3d
       -0.024425061 -0.08636783 0.033025622 0.11607756
000260 4e cf 15 bc 86 54 f3 bd 91 69 0a 3d 12 25 56 3d
       -0.009143664 -0.11881356 0.033792082 0.052281447
000270 54 01 17 3c 4b 28 28 bd b7 aa 2f 3d 37 27 69 3c
       0.009216625 -0.04105405 0.042887416 0.014230541
000280 a1 6e 33 3c 8d fb b6 bd 17 6b 24 3e 01 ea 46 bc
       0.010951669 -0.08934698 0.16056477 -0.012140752
000290 fe 45 4c bc c4 f8 05 bd ce 87 25 3e 15 e1 50 3d
       -0.012467859 -0.032707945 0.16165087 0.050995905
0002a0 08 19 03 3d 0f 4e 88 bc d0 e9 e3 3d b7 fb fe 3c
       0.032006294 -0.016638784 0.111285806 0.031125886
0002b0 a7 1d ba 3b 92 bc e7 3c 76 e2 6a 3d 32 12 14 3e
       0.0056798044 0.02828816 0.057344876 0.14460066
0002c0 59 47 ed 3b b8 fc 76 bb fc 2c 1a 3e 65 ce b2 3c
       0.0072411713 -0.0037687253 0.15056223 0.021826932
0002d0 a9 f4 c0 3b a3 3e eb bc db 53 e3 3d 42 55 a2 3e
       0.0058885408 -0.028716391 0.110999785 0.31705672
0002e0 71 d4 76 bd 0a 4b c8 3b f8 70 ca 3d 60 e5 16 3e
       -0.060261194 0.006112461 0.09884828 0.14735937
0002f0 59 b7 d5 bb f1 e2 97 bc 0a 0b 17 3e b5 05 28 3e
       -0.006522101 -0.018540831 0.14750305 0.16408427
000300 7e 14 dd bd 7a fe 28 bc 76 1c bf 3d 04 0c 3b 3e
       -0.10794924 -0.010314578 0.093316 0.18266302
000310 0c 38 6a bd ef 45 72 bd 03 8f f8 3d 9a 80 c7 3d
       -0.057182357 -0.059148725 0.12136652 0.09741326
000320 2c 7e 9b bd d6 a6 44 3c 07 0b a7 3d db 1d 61 3d
       -0.07592425 0.012002667 0.081564 0.054960113
000330 9c 7e 12 bd af bb 10 3d 18 bf a0 3d 32 45 11 3e
       -0.035765275 0.03533524 0.07848948 0.14186552
000340 50 1d c7 3a 8a c5 5f bc 55 04 aa 3d 65 78 04 3e
       0.0015191231 -0.013657937 0.083016075 0.12936552
000350 16 2e 32 bd 96 54 fb bb a6 e8 b6 3d 48 0c 72 3d
       -0.043500982 -0.0076699955 0.08931093 0.059093744
000360 d4 0b 8d 3a 59 2c 63 bc 92 51 79 3d 95 e6 60 3d
       0.0010760971 -0.013865554 0.060868807 0.0549074
000370 bb 86 b3 3c 12 98 81 3c ab f2 63 3d 9f be f8 3d
       0.02191483 0.015819583 0.055651348 0.12145733
000380 1f 10 3b 3d 58 77 88 bd bf 1e 83 3b 38 88 1c 3e
       0.04566967 -0.06663388 0.004001468 0.15286338
000390 68 fb 9e bd 99 dd d6 bc aa 33 48 3a 32 21 15 3e
       -0.07762796 -0.026228713 0.0007637093 0.14563444
0003a0 33 26 b5 bd f7 d0 73 bd ae 32 f3 3d 0e 07 ae 3d
       -0.088451765 -0.059525456 0.11874901 0.08497439
0003b0 4d a9 05 bd 0d 49 27 be 83 fb 6e bd 03 0d c8 3d
       -0.03263216 -0.1633646 -0.05834533 0.09768107
0003c0 ae 10 cf bc 36 b7 bf bc d3 86 58 3d 44 56 c2 bd
       -0.025276508 -0.023402791 0.052862953 -0.0948911
0003d0 1f c8 61 bd 95 4d ec bc af 88 19 bd 0a 6c 5d bc
       -0.05512249 -0.028845588 -0.037483867 -0.013514528
0003e0 36 e4 02 bd e5 ab 2b be 28 75 0a be 6b 35 16 be
       -0.03195592 -0.16764791 -0.13521254 -0.14668815
0003f0 da ef 7c bd 5e 92 53 bd 79 b8 fd bc 51 ad 86 bd
       -0.061752178 -0.05165326 -0.030971752 -0.06576026

std.constant13 f4 [32, 32]
000000 e6 4a 14 3e cf 8a 77 3e 66 06 e7 3d 53 48 91 be
       0.14481696 0.24174045 0.11280517 -0.28375491
000010 cc 73 04 be 03 86 09 3e 2a 93 41 be fb c7 67 be
       -0.12934798 0.13430028 -0.18903795 -0.2263488
000020 27 34 00 be b2 f5 59 3e 4a d8 1f be 03 a5 99 be
       -0.12519895 0.21285132 -0.15609851 -0.30008706
000030 ff 58 ff be 56 b1 8a 3d b5 7c 25 bd a5 13 31 3e
       -0.49872586 0.067721054 -0.040402133 0.1729265
000040 0f 8d 3d 3e 86 fb cd 3d 93 70 61 bc 68 e7 a4 be
       0.18510841 0.1005774 -0.01375975 -0.322078
000050 02 cd 87 be a4 8c 8f be ba c3 48 3d 36 4e 1b 3d
       -0.26523596 -0.28036988 0.049014784 0.037916385
000060 cc 46 e7 bd 77 8f 98 3c 65 7e 96 3d 0f c0 69 be
       -0.112928 0.018623097 0.073483266 -0.22827171
000070 0a b6 57 3e 2c 73 87 3e f9 cb 76 be 5f c1 f8 bc
       0.21065536 0.26455057 -0.24101247 -0.030365644
000080 87 1c 09 3f f6 86 f7 3e bf 44 aa be 34 35 49 bb
       0.53559154 0.48345155 -0.33255574 -0.0030701878
000090 38 11 6f be 68 cd 8e 3e af 4c 0f 3d 7f f2 9b be
       -0.23346412 0.27891088 0.03498524 -0.30458447
0000a0 7b 2d ee bd b2 15 2f 3e 6f 09 54 3e f9 2e 4f 3e
       -0.116297685 0.1709812 0.20706724 0.20232762
0000b0 cc 84 95 bc 0e 2b 23 3d cf 25 1d 3e 00 5d a2 3e
       -0.018251799 0.039835982 0.15346454 0.31711578
0000c0 03 cc 08 3e 28 c7 bd bd 5b ab 0d 3d 6d 4d b0 bd
       0.13359074 -0.09266502 0.034587245 -0.08608518
0000d0 b6 c1 31 3e e9 38 4c be bc f2 8b 3e 41 47 ff 3d
       0.17359051 -0.19943585 0.2733363 0.124647625
0000e0 f6 6f bd be c0 86 f8 3b 67 38 ef bd f6 a6 ae be
       -0.36999482 0.007584423 -0.1168068 -0.34111756
0000f0 d4 58 b7 3d 69 db a1 3e f7 81 f4 bd 09 0a 3b bd
       0.089524895 0.3161271 -0.11938851 -0.045663867
000100 91 73 32 3e be 15 4a be f3 01 11 3e aa 33 ff be
       0.17426898 -0.19734856 0.141609 -0.49844104
000110 91 f2 35 be 7a 45 8d 3c 14 d3 84 3d 62 9f ab bd
       -0.17768313 0.017245043 0.064855725 -0.08380009
000120 d8 5c f4 be c9 c3 49 3e ad 20 c0 bd 7a 53 dc be
       -0.47727084 0.19703592 -0.093812324 -0.43032438
000130 60 6e 52 3d 84 3d 80 3e 06 d8 e8 3a b6 d4 39 3e
       0.051374793 0.25046933 0.0017764575 0.18147549
000140 fc 7e 3c 3d 65 91 d9 3d 5e 4f 40 3d 52 8f 1a 3e
       0.04601954 0.10623435 0.04695069 0.15093735
000150 11 78 d7 be 6b a2 53 be 24 79 96 3d c1 ec 46 be
       -0.4208379 -0.20667426 0.073473245 -0.19426252
000160 45 17 b3 3c 26 4f e0 3d aa ef cf 3e e1 5e c0 bd
       0.021861682 0.10952596 0.40612537 -0.09393097
000170 37 ac a7 3e 52 57 1d 3e ec 88 da be 5b 51 22 be
       0.32748577 0.15365341 -0.42682588 -0.15851347
000180 8f 59 56 3e 9e 2d ab bd 5a 3c 38 3e 2a 8f c4 3e
       0.20932601 -0.0835831 0.17991772 0.38390476
000190 bf 65 4a bd 09 d0 91 be c5 72 62 3e 4e e0 d3 3d
       -0.04941344 -0.2847903 0.22114094 0.10345517
0001a0 19 5c 9a bc 9f c7 0e be c7 17 69 bc a8 22 bf 3e
       -0.018842744 -0.13943337 -0.01422686 0.37331128
0001b0 89 b1 63 3e ac 27 0b 3e 5e e3 08 3e a8 42 7d 3d
       0.22235693 0.13589352 0.13367984 0.061831146
0001c0 e7 a6 31 3d 9d 39 e5 3d 83 ac 93 be cc a8 86 3e
       0.04337206 0.111926295 -0.28842553 0.26300657
0001d0 2e 15 a2 3e 0b 76 71 bc ea 1d 48 bc d2 c0 78 3e
       0.31656784 -0.014737616 -0.012214163 0.24292305
0001e0 6b 1a f3 3d dc 4c d5 be d9 7e a8 3e 0d ae f3 3d
       0.11870273 -0.41660202 0.32909277 0.11898432
0001f0 ee 48 44 3e 51 c0 b9 3d 78 b6 87 be e0 37 f5 3d
       0.19168445 0.090698846 -0.265064 0.11973548
000200 d2 c2 02 3e 47 99 a4 3e b4 61 27 bd d5 5b 2a 3e
       0.1276963 0.3214819 -0.04086466 0.16636594
000210 5e 14 b9 bb 2b 0c 77 bd 58 34 88 3e 09 72 3b 3d
       -0.00564818 -0.06031434 0.26602435 0.04576305
000220 c5 32 a8 3d 11 75 c9 bd 48 db dc 3e 1f 7d 43 3e
       0.082128085 -0.09836782 0.43136048 0.19090699
000230 a0 e1 71 3e 51 ab bd bc 60 d3 c2 ba 60 76 ab 3c
       0.23621225 -0.02315298 -0.001486402 0.020930469
000240 a8 6d 02 3e d7 ff 43 3d b1 7c 9d be 24 1b aa 3e
       0.12737143 0.04785141 -0.30759194 0.33223832
000250 8f ae 1e 3e 68 21 da bc 22 bd 2c 3e 34 a2 54 3e
       0.15496276 -0.026627257 0.16869023 0.20765
000260 41 e7 8d bd c6 be 52 be 23 6d a1 bd 08 3d dd 3c
       -0.06928874 -0.20580587 -0.07882144 0.027006641
000270 24 9e 5a bd dd cb 80 3d d2 6a 6a be c7 22 da bd
       -0.05337347 0.06288884 -0.22892311 -0.106511645
000280 dc ca 8d be aa c2 32 3e 66 04 bb 3b 69 43 95 3e
       -0.27693832 0.17457071 0.0057073114 0.29152992
000290 61 c2 9d 3e 8b f6 18 be 0e 33 16 bf 72 fc 3c 3e
       0.30812362 -0.14937799 -0.58671653 0.18455675
0002a0 3c eb 9d 3d f6 08 88 be 34 52 0e be d8 89 0b be
       0.07710883 -0.26569337 -0.13898546 -0.13626802
0002b0 93 d5 5f bf 61 10 81 3d 7e 36 b3 3d b7 df ac be
       -0.87435263 0.06301952 0.08750628 -0.3376443
0002c0 05 f8 06 3d 1a 56 9f bc 63 1f cc bc 56 9f fd be
       0.032951374 -0.019450236 -0.02491731 -0.49535626
0002d0 8c ea 21 be 5d e0 20 bd e9 3f c8 be 6f 80 09 be
       -0.15812129 -0.03927647 -0.3911126 -0.134279
0002e0 19 04 06 3d c3 cb 0f 3d a0 20 2d be 73 18 69 3e
       0.03271875 0.03510643 -0.16906977 0.22763233
0002f0 5c 85 89 bd 06 36 ad be 36 d2 c8 3c 5a d1 12 be
       -0.067148894 -0.3383028 0.024514299 -0.14337674
000300 8c 0a aa bd a5 fd 9a 3d 42 33 bc bb 17 06 88 be
       -0.08302793 0.0756791 -0.005743415 -0.26567146
000310 db ed bc 3d 2e 33 ec bd ce d9 3e bd aa cd b8 3d
       0.09225055 -0.11533199 -0.046594433 0.09023602
000320 d4 4b 19 3e f8 7a b9 be 43 cc 2c 3e 68 ff 1c 3d
       0.14970332 -0.3622663 0.16874795 0.038329512
000330 21 ff 3e 3d 57 45 12 3e ef af 0c bf 14 7e b3 bd
       0.04663003 0.14284264 -0.54955953 -0.08764282
000340 b2 81 7d 3e c3 4b 6e 3e 34 ca a3 be b4 50 16 3e
       0.24756506 0.23271088 -0.31990206 0.14679223
000350 27 8b 20 3d de 1d 84 be 3b 3e 19 bf ef 08 ec be
       0.039195206 -0.25804037 -0.5986058 -0.46100566
000360 74 69 a1 bb 72 92 8e bd 5f 0e 42 3d c4 59 31 3d
       -0.004925901 -0.06961526 0.047376987 0.043298498
000370 03 09 f5 3c 89 72 76 be b7 c9 41 bb 24 9d 19 be
       0.029911524 -0.24067129 -0.0029569694 -0.1500135
000380 27 ef b0 be d2 08 2f 3e 03 b9 09 3e 6e d2 5e 3e
       -0.3455746 0.17093208 0.13449483 0.2175996
000390 0e 0f d9 3e a0 43 4a be 4f fc 31 be 52 5c c6 3e
       0.42394298 -0.1975236 -0.17381404 0.3874231
0003a0 67 f8 80 be e2 db c8 be 04 09 e4 3d ef 3a 82 be
       -0.25189516 -0.39230257 0.11134532 -0.25435588
0003b0 75 ef 10 3d 1b c9 98 bc ab d1 e6 3c b0 80 ea be
       0.035384614 -0.018650582 0.02817615 -0.45801306
0003c0 a7 f3 ae bd 79 2b 2b be 57 ce 2d 3d 44 d1 d0 bd
       -0.08542567 -0.16715802 0.04243311 -0.10196164
0003d0 2d 79 04 be fe 4b 23 3e 5d 17 a5 be 1d 0e 78 be
       -0.1293685 0.15946957 -0.32244387 -0.24224134
0003e0 33 8f 99 3e 13 a2 d4 3c 0d 87 c4 bd 7d 6f 80 3e
       0.29992065 0.02595619 -0.095960714 0.2508506
0003f0 83 7c d0 bd 77 6f cd be d7 f5 ce be 77 84 0b be
       -0.10179999 -0.40124103 -0.40421936 -0.1362475

std.constant14 f4 [8, 32]
000000 24 3e 36 be 3f 9f 24 bf 39 fc 48 be f0 f2 3c be
       -0.17797142 -0.6430549 -0.19627465 -0.18452048
000010 8f a7 5f be a8 e5 a1 3e 3d 5b 32 3e 97 33 a0 3c
       -0.21841262 0.31620526 0.17417617 0.01955585
000020 c6 bd 12 be 55 23 9e be fe 8f 93 3e e4 03 5d be
       -0.14330205 -0.3088633 0.28820795 -0.21583515
000030 8b 58 e1 bc 49 42 0b be b0 5d 1b bf cb 61 53 be
       -0.02750804 -0.13599505 -0.6068983 -0.20642774
000040 c5 6a dc be 8e 50 41 3e 9f e2 84 3e 3a a2 3e bd
       -0.4305021 0.18878385 0.25954148 -0.04654143
000050 1c 31 7d 3e d4 a9 22 bf 78 01 c4 3d 74 bf f5 be
       0.24725765 -0.6354039 0.09570593 -0.4799763
000060 2b a2 05 be 5e 66 1f be 8e 75 7f 3e 19 bc 5b be
       -0.13050143 -0.15566394 0.24947187 -0.21458472
000070 81 86 70 bf 5f ed b3 be c9 90 33 3e 2a 46 5b 3e
       -0.93955237 -0.35142037 0.175357 0.21413484
000080 30 47 86 be 40 38 2e bf ef ce 69 3e dd 8c 99 3e
       -0.26226187 -0.6805458 0.22832845 0.29990283
000090 db 62 28 3e ee ca 29 be 10 ef 57 3e 48 3e 56 3e
       0.1644396 -0.16581318 0.21087289 0.20922196
0000a0 d5 c6 8e 3e be 2e 75 3e bd 59 cc 3e 14 b6 0d be
       0.27886072 0.23943612 0.39912215 -0.13838989
0000b0 49 6f 74 bc 72 dc 0c be 68 27 de 3d 7f af e2 bd
       -0.014919111 -0.13755968 0.1084736 -0.110686295
0000c0 6b ca 1f 3d 44 76 7a bf 4a 2b 4d be b3 80 62 bd
       0.0390114 -0.9783671 -0.20036045 -0.05529852
0000d0 c2 fd 8b 3e 15 c9 17 bf fe 69 b7 be a0 65 7a 3e
       0.2734204 -0.592912 -0.35823053 0.2445283
0000e0 15 2f e4 bd 14 b0 4e be 48 89 70 3e 11 86 96 3e
       -0.11141793 -0.20184356 0.23489869 0.2939916
0000f0 c5 f3 47 bf 93 12 5d 3d 41 e9 c6 be ca 4d 8e 3e
       -0.7810634 0.053972792 -0.38849834 0.27793723
000100 30 99 e5 3d 1e d6 42 bf 53 fb 5e 3e 52 04 a5 3e
       0.11210859 -0.76107967 0.2177556 0.3222986
000110 00 c5 8f be f4 cf b2 3e 0a a6 4a 3e bc 73 7b 3e
       -0.28079987 0.3492428 0.19789901 0.24555868
000120 45 ce 9c 3e 93 58 84 3e 3e 1c 9c 3e ab 84 25 be
       0.3062612 0.25848827 0.30490297 -0.1616389
000130 0e 68 76 ba e0 00 0d be c2 48 22 bf 5c bd 2a be
       -0.00093996606 -0.13769865 -0.6339227 -0.16673797
000140 f6 a4 8e be 29 42 a1 bf 8d ae 2b be 7e a9 38 bc
       -0.2786023 -1.2598315 -0.16765805 -0.011270879
000150 ec c4 83 3e ae 5b 2d bf 8b cd 08 3e bf e7 05 bf
       0.25736177 -0.6771802 0.13359658 -0.5230674
000160 81 38 bf bd 8e b6 07 be 68 fb 93 3e e8 0b 8b 3e
       -0.09336949 -0.13253233 0.28902745 0.2715752
000170 b8 fe 4c bf 13 3d 64 3e 75 ef 9c be b2 3f 9f 3e
       -0.8007617 0.22288923 -0.3065144 0.31103283
000180 85 64 59 3d ce bf 40 3d 77 9d 4d be 2c 82 53 be
       0.05307438 0.04705792 -0.200796 -0.20655125
000190 c9 4b 2d 3e ba db bb 3e 8f a9 54 3e e2 e0 91 3e
       0.16923441 0.36691076 0.20767806 0.28491884
0001a0 7a 33 5e be 83 6a 3e be 30 1d 7d be 4f 61 3a be
       -0.21699324 -0.18595318 -0.24718165 -0.18201183
0001b0 55 8c 4d 3c 8e 9a f9 bd 1c 28 14 bf f5 98 3d be
       0.012545665 -0.12187682 -0.578737 -0.1851538
0001c0 e9 20 bc be d8 1a 5b be 5c fc bf 3e 11 49 15 3c
       -0.36743858 -0.21396959 0.37497222 0.009111659
0001d0 e4 b6 86 3e 51 f0 dd be 64 32 98 be 79 57 1d 3e
       0.2631141 -0.4334741 -0.29725945 0.153654
0001e0 b0 0c 00 be 47 38 13 be 43 9f 8c 3e 0d 42 0a 3e
       -0.1250484 -0.14376937 0.27465257 0.13501759
0001f0 fd a1 1d 3d dc 91 8a be 3b 4c 46 3e ec 19 ab 3e
       0.038484562 -0.27064407 0.19365017 0.33418214
000200 2b 2d e1 3d be e4 c8 3c 32 ad 97 bd f1 3b 5c be
       0.10994943 0.024523135 -0.07406081 -0.21507241
000210 30 65 88 be 35 74 a5 3d 7a b6 66 be a6 83 fc 3c
       -0.266397 0.08078805 -0.22530547 0.030824494
000220 d5 a5 38 be 8f ba 1d bd 09 0c 68 be 03 8f 1e 3e
       -0.1803201 -0.038507994 -0.22660841 0.15484242
000230 7a e2 87 be 0b 21 22 be 39 59 a2 bd 12 73 b2 3d
       -0.26539975 -0.15832917 -0.07927174 0.08713354
000240 1a 4e cc bd 6b 25 45 3e d6 42 67 bd 50 7f b7 3d
       -0.09975834 0.19252555 -0.056460224 0.0895983
000250 70 54 65 be 9e 16 22 3e 96 6f 21 be d9 62 39 3e
       -0.22395492 0.1582894 -0.15765223 0.18104114
000260 54 d0 8d bc 26 85 7b 3e ed 0c 86 ba 4e ae 5c be
       -0.017311253 0.24562511 -0.0010227241 -0.21550867
000270 7e 59 2d 3d 8a 5a cc 3c dd 83 88 3c dc 2e 5b bd
       0.042321675 0.024945516 0.01666444 -0.053511485
000280 9a 1d e9 bd 11 31 c5 bd 25 39 d4 bd b2 4a 05 be
       -0.11382599 -0.09628499 -0.10362462 -0.13016775
000290 2f 5f 5d be 9f cf 8d 3e b9 60 66 be 91 52 49 3e
       -0.21618341 0.27697465 -0.22497834 0.19660403
0002a0 70 46 48 be 3d ae 56 3e 78 b4 54 be 40 f2 19 be
       -0.1955812 0.20964904 -0.20771968 -0.15033817
0002b0 93 f2 0f bd 49 e6 0f be da 13 04 3e e9 77 09 be
       -0.035143446 -0.1405269 0.12898198 -0.13424648
0002c0 c7 54 a1 bc fd 03 d3 3d a4 4b 38 bd b3 d7 f8 bc
       -0.019693745 0.10303495 -0.04499401 -0.03037629
0002d0 7b 8b 5b be 35 c5 2e 3e 26 04 a2 3d d9 cb 2f 3e
       -0.21439926 0.17067416 0.079109475 0.17167605
0002e0 00 7f 07 be 25 56 45 3d 5b 8b 75 3e aa 61 5c be
       -0.1323204 0.048177857 0.23978941 -0.21521631
0002f0 a0 65 f7 3c 5f 95 3e 3e fa ad e6 3d 62 7b 55 bd
       0.030199826 0.18611668 0.11263652 -0.05211962
000300 66 0d b6 3b 71 50 1f 3e 6d 3c 0d be 4b ea 11 3d
       0.0055557964 0.1555803 -0.13792582 0.03562383
000310 09 12 8d bc 2b 22 a6 3c 21 9f 7c be db 78 b8 bd
       -0.017220514 0.020279964 -0.24670078 -0.09007426
000320 56 10 ac bb 4b 38 25 be 1d a9 8b be dd 3d 83 3e
       -0.005250971 -0.16134755 -0.2727746 0.25633135
000330 2e 85 c1 be 4e 76 4c 3e c0 02 10 3e c6 95 6e 3e
       -0.3779692 0.19967005 0.14063549 0.23299322
000340 7b b7 94 bc 41 90 52 3e 7b 8b 1c 3e 22 a9 9b 3e
       -0.018153897 0.20562841 0.15287583 0.30402476
000350 31 98 85 be 86 47 2f 3e e4 db 7f be a7 50 32 3e
       -0.26092675 0.17117128 -0.24986225 0.17413579
000360 c0 99 59 3e 21 3a 40 3e 32 b8 04 be 67 72 6c be
       0.21250057 0.18772174 -0.1296089 -0.23090516
000370 5b c1 47 3e 07 97 f5 bd 7f c1 1c be d4 7f 9f bd
       0.19507353 -0.11991697 -0.15308188 -0.07788053
000380 87 15 26 3e ed 3e 14 3e 50 1f 62 3d 18 22 1d be
       0.1621915 0.1447713 0.055205643 -0.15345037
000390 45 4e 54 be e6 1a 8b 3c 76 f7 7c be 82 19 a1 bd
       -0.20732982 0.0169806 -0.24703774 -0.07866193
0003a0 7f e8 3f be 9f 19 50 3e 5c 92 83 be 0b b3 7f 3e
       -0.18741034 0.20322274 -0.256976 0.24970643
0003b0 2b 75 b6 be a1 54 3e 3e 2f c8 1f 3e c2 ed 72 3e
       -0.35636267 0.18586971 0.15603708 0.2372351
0003c0 94 e6 84 be 9d bc 58 3e c9 8b 6f bd a4 4c c5 bc
       -0.25957167 0.211657 -0.05848292 -0.024084397
0003d0 cf 20 80 be 82 be fd 3d 35 4c 8b 3d 50 d2 3a 3b
       -0.2502503 0.12389852 0.06801645 0.0028506704
0003e0 e1 40 fb bd d4 56 28 ba c5 85 e9 bd 98 10 6f be
       -0.12268234 -0.000642163 -0.11402468 -0.23346174
0003f0 62 ec 39 3e 25 22 48 3e f1 db 02 3e b6 ae ce 3d
       0.18156579 0.19544275 0.12779213 0.10091917

std.constant15 f4 [4, 3, 3, 1]
000000 02 fb a9 3d 7f be a2 be c9 22 3b 3d 5c f2 92 3e
       0.08299829 -0.31785962 0.04568747 0.2870053
000010 82 39 d1 3e 6d 7f c7 bd 8c f7 0d 3e 07 37 23 3d
       0.40864187 -0.097411014 0.13863963 0.0398474
000020 96 16 99 3e b8 88 d4 bc 46 72 98 3d 0e 36 83 be
       0.29900044 -0.025944099 0.07443671 -0.25627178
000030 53 77 4c 3d 35 78 39 3e 30 4d 94 be 2e 34 f0 3d
       0.049918484 0.18112262 -0.2896514 0.117287025
000040 c3 8e a5 3e 4e 96 ac be e1 67 60 be 3f d8 e0 be
       0.3233548 -0.33708423 -0.21914627 -0.43914983
000050 73 38 50 be 86 3c 8a bb 94 cb b7 3e f1 62 6f 3e
       -0.20334034 -0.0042186407 0.35897505 0.23377587
000060 e1 fc ea bb bd 2c 5f 3e b3 4e 28 3d 19 5a bc 3d
       -0.007171259 0.2179441 0.04109068 0.09196872
000070 d5 8a b2 3e fb c9 a7 3d 35 c6 91 be f7 d4 a4 3e
       0.34871545 0.081928216 -0.28471532 0.3219373
000080 27 d3 f6 3c 91 dd 29 be 1d 1b 82 3e 3b 06 0f 3c
       0.030129982 -0.16588427 0.2541131 0.008729513

std.constant16 f4 [4, 3, 3, 4]
000000 25 75 c7 bb 81 46 a8 bd b7 bc 56 3e e4 5e 6f be
       -0.0060869628 -0.082165726 0.20970426 -0.23376042
000010 65 f8 f3 3c 8d 3b c6 bd 24 01 01 3e 15 07 89 be
       0.02978153 -0.09679327 0.12598091 -0.26763216
000020 e5 86 37 3e fc a3 2f bd e1 22 44 bd 0a df c5 be
       0.17922552 -0.042880997 -0.047884826 -0.38646728
000030 54 52 3a be f3 a9 b5 3d 61 db b1 3b 53 ce 78 3c
       -0.18195468 0.08870306 0.0054277633 0.01518591
000040 de e6 21 3e a3 b9 83 bd 85 cd 0d be 28 6a 93 be
       0.15810725 -0.06431892 -0.1384793 -0.28791928
000050 c9 bb ef 3c f0 0a 3d 3d 29 ad bb 3d 3d 05 0b be
       0.029264348 0.04615301 0.09163887 -0.13576217
000060 7c 4f 35 3e a1 1c 2c bb 0b 97 2f be 37 c9 51 bd
       0.17706102 -0.0026262181 -0.17147462 -0.051217284
000070 ef 46 97 3e 67 13 08 3d 80 f1 ac be a5 b2 1e 3e
       0.29546306 0.03322163 -0.33778 0.15497835
000080 e9 7d 1f 3e 2c 96 31 bd 1f 2c 9d 3e 57 be a0 bd
       0.15575375 -0.043356106 0.30697724 -0.078488044
000090 f8 d9 5c be 38 be 34 3e bf 4e cb 3d 48 5b ca 3d
       -0.21567523 0.17650688 0.09927129 0.09880692
0000a0 10 45 1e be 0b 74 96 3d 0b d3 d7 3d 67 f2 8e 3e
       -0.15456033 0.07346352 0.105383 0.27919313
0000b0 72 af e8 bd d3 aa a4 3d b9 19 fe bc 88 01 8d 3d
       -0.113615885 0.08040395 -0.031018125 0.06885058
0000c0 9a bb 96 3e df 27 bd 3d a7 cd f9 3c 73 ae 16 be
       0.29440004 0.092361204 0.03049357 -0.14714985
0000d0 96 ad 98 3d bf 90 c4 3c 41 ae 31 3d bd 1c ec bd
       0.07454984 0.023994802 0.043379072 -0.11528919
0000e0 f1 0a 33 3e 94 a6 1f 3c 4b 31 29 be 5e d1 70 3e
       0.17484643 0.009744305 -0.1652271 0.23517367
0000f0 4b 22 2a be c9 f5 74 be 21 56 97 bd 5a c2 69 3d
       -0.16614644 -0.23921885 -0.07389475 0.057070114
000100 87 ff 66 bd 6d d0 1e be 86 33 be 3e fe 27 6e be
       -0.056396034 -0.15509196 0.37148684 -0.23257443
000110 9d 13 65 3d 75 c1 0d be af 80 38 3e e9 f2 cb be
       0.055926908 -0.13843329 0.18017839 -0.39833763
000120 b3 b9 1b be 02 19 f0 be 03 c0 4f be 4d c0 ab 3e
       -0.15207557 -0.4689408 -0.2028809 0.3354515
000130 6a a1 15 bd fa be 57 be ec fb 28 3b a9 7a 5d 3e
       -0.03653089 -0.21068946 0.0025784923 0.21628822
000140 a7 e6 80 be c8 05 c1 be 71 d1 c1 3d 35 83 02 3e
       -0.25175974 -0.37699723 0.09463776 0.12745364
000150 3b 73 31 be 8f a6 3d 3b fd 2e d7 3d e5 15 08 3e
       -0.17329113 0.0028938388 0.10507009 0.13289602
000160 2d 08 c2 bd c9 25 e8 bc 7a 4b b2 3d af a9 a5 bc
       -0.09474216 -0.02833833 0.08705802 -0.020222513
000170 49 14 db 3d f7 6b f1 bd 04 a7 cd bd d2 21 70 be
       0.106972285 -0.11788171 -0.10041621 -0.23450401
000180 4d 6f 7b be 6e 89 fa 3d 76 c4 de 3d f9 dd 5f 3e
       -0.24554177 0.12233244 0.10877316 0.2186202
000190 1e 35 55 be 75 2e 57 3e a0 06 37 bd 77 84 13 3e
       -0.20821044 0.21013816 -0.044684052 0.14406
0001a0 de 2d aa 3d 18 16 61 3e b3 66 0a 3e ee b8 66 3e
       0.0830953 0.21981084 0.13515739 0.22531483
0001b0 dd 44 94 be 3c f4 b6 3d 11 ba 4c 3d 2b d5 86 3e
       -0.2895879 0.08933303 0.049982134 0.2633451
0001c0 4e c5 d2 bc 49 43 12 3e 2e ab 73 bd c7 d6 59 bd
       -0.025728848 0.1428348 -0.05948942 -0.053183343
0001d0 7f 9d 9e 3d 63 c6 a5 3d 0b 71 03 3e 01 7f 80 bc
       0.07744884 0.0809448 0.12836091 -0.01568556
0001e0 bf ea fd 3d de e8 6f 3d 1f 47 f1 bc c2 f0 a6 bd
       0.1239829 0.05857169 -0.029452858 -0.0815139
0001f0 ad 2a c2 bd 3b 1d ee 3d 12 42 e4 bd 86 af dc 3d
       -0.09480796 0.11626669 -0.111454144 0.10775666
000200 1c 01 8e 3c 0b 3e 05 3d 2d 63 0f be 97 d3 c3 3c
       0.017334513 0.032529872 -0.14002676 0.023904605
000210 41 cd a2 3e f8 d7 99 3e 03 9d 04 bf 4b 77 4c 3e
       0.3179722 0.30047584 -0.5180208 0.19967382
000220 36 8c 50 be ed d2 94 3d 66 8a cb 3c d7 bd 38 be
       -0.20365986 0.072667934 0.024846267 -0.18041168
000230 a4 d3 48 be 5e ee 9c 3d 74 8d 8f be 6c 5e 43 be
       -0.19611984 0.076626524 -0.28037608 -0.19078988
