TFLiteWrapper/test_library/dense_model_partially_quantized.tflite (tflite, 688368 bytes, 14 tensors)

dense_6/bias f4 [8]
0	0xbd9f3c52	-0.07775177
1	0xbdf5c8b0	-0.12001169
2	0xbe0ebcbd	-0.13939185
3	0xbe2b2035	-0.16711505
4	0xbbc4bcea	-0.0060039656
5	0x3cf464a7	0.029833151
6	0x3d17e320	0.037081838
7	0x3d50f178	0.051011533

dense_5/bias f4 [350]
0	0x3e290a15	0.16507752
1	0x3dc4e12c	0.096132606
2	0x3d90cd71	0.07070435
3	0xbc8f48de	-0.0174908
4	0x3b007922	0.001960345
5	0x3d9d1900	0.07670784
6	0xbcb8e204	-0.02256871
7	0x3c3db1bd	0.011578021
8	0xbd162cae	-0.036663704
9	0x3d5454eb	0.051838797
10	0x3d9aeb64	0.075644284
11	0xbd30684e	-0.043068223
12	0x3d9e033d	0.077154614
13	0x3d0897c5	0.033347864
14	0x3c057e85	0.00814784
15	0x3d4d7b6a	0.050166525
16	0xbbfd58f0	-0.0077315494
17	0x3d3cdbb1	0.04610795
18	0x3cbd7e74	0.023131587
19	0xbcbec924	-0.02328927
20	0x3defd79f	0.11711048
21	0xbd3e293a	-0.046426035
22	0xbe2999a4	-0.16562515
23	0xbdf9d2b5	-0.12198392
24	0x3d982950	0.07429755
25	0xbce9db75	-0.028547028
26	0xbd1af7b2	-0.037833877
27	0x3d98cf22	0.074613824
28	0xbb879146	-0.004137191
29	0x3e16cdea	0.14726987
30	0xbe3756c0	-0.17904186
31	0x3aa0c3ae	0.0012265348
32	0xbccf7fa7	-0.025329424
33	0x3ae90aee	0.0017779747
34	0xbc0e4891	-0.008684293
35	0xbc3b3ce0	-0.011428088
36	0x3ca9892f	0.020695297
37	0xbd80949f	-0.06278347
38	0xbe02c3d2	-0.12770012
39	0xbd36eaa0	-0.04465735
40	0xbc8a4ff2	-0.016883824
41	0xbc9a4ff9	-0.018836962
42	0x3df818e8	0.121141255
43	0x3d270b10	0.040782034
44	0xbd11f5d3	-0.035634827
45	0x3d0982a3	0.03357185
46	0xbcb5fff6	-0.022216778
47	0x3c13e264	0.009026144
48	0xbd24b4c6	-0.04021146
49	0xbd8dc172	-0.069216624
50	0xbdec0378	-0.11524099
51	0xbdeadf2c	-0.11468348
52	0xbc767863	-0.015043351
53	0xbc19f04d	-0.009395671
54	0xbca68fdc	-0.02033227
55	0xbdaec1bf	-0.08533048
56	0x3c40c72a	0.011766234
57	0x3e34bfe3	0.17651324
58	0x3d2dbce4	0.04241647
59	0x3d0389e7	0.032113936
60	0x3d24bc22	0.04021848
61	0xbd8db364	-0.06918982
62	0xbe111792	-0.14169148
63	0x3e150cfc	0.14555734
64	0x3d185175	0.03718706
65	0xbb0b4624	-0.0021251524
66	0x3ca5ffe8	0.020263627
67	0xbd17888b	-0.036995452
68	0xbde4ee31	-0.11178244
69	0x3cc0a0f5	0.02351425
70	0xbbd75531	-0.006571435
71	0xbd12bed1	-0.035826508
72	0xbd347173	-0.044053506
73	0xbbda7c05	-0.0066676163
74	0x3d9fb56d	0.07798276
75	0xbb439f7a	-0.0029849694
76	0x3ddb4e32	0.10708274
77	0xbde7077e	-0.11280726
78	0x3d04f058	0.032455772
79	0xbcb0fc6c	-0.02160474
80	0x3d8866b7	0.06660216
81	0x3e089959	0.13339747
82	0xbe0021e5	-0.1251293
83	0x3d046747	0.032325055
84	0xbdb7ede1	-0.08980919
85	0x3d45a051	0.048248593
86	0x3ac522af	0.0015040244
87	0x3ce0ac41	0.027425887
88	0x3d9fe75d	0.07807801
89	0x3ccbf0e3	0.024895137
90	0xbd519ec4	-0.0511768
91	0x3d5442e0	0.05182159
92	0x3c8ba2c7	0.017045392
93	0xbb25649c	-0.002523697
94	0x3d2b9ce9	0.041897688
95	0xbb3e74e7	-0.0029061378
96	0x3e301d48	0.1719867
97	0x3e0c082c	0.13674992
98	0xbcf68741	-0.030093791
99	0x3df55559	0.119791694
100	0xbdb4cccc	-0.088281244
101	0x3dd8204d	0.10553036
102	0x3d2a9317	0.041644182
103	0xbbd6ef96	-0.0065593226
104	0xbd18423e	-0.03717255
105	0xbdbf5b43	-0.09343579
106	0xbc1e1362	-0.009648176
107	0x3dbe8074	0.09301844
108	0xbc8fe12a	-0.017563421
109	0xbd819dfb	-0.063289605
110	0x3dccdd51	0.1000315
111	0x3d7d9253	0.061907124
112	0xbd8909dc	-0.06691334
113	0xbcc11efa	-0.023574341
114	0xbb108ada	-0.0022055418
115	0x3d95e548	0.073191226
116	0x3ccb97ba	0.024852622
117	0xbb8a3acc	-0.004218435
118	0x3d894b21	0.06703783
119	0xbd7b2470	-0.061314046
120	0x3dfd0b47	0.123556666
121	0xbd9c3ba8	-0.07628566
122	0xbe03fccd	-0.12889405
123	0xbd8c8c67	-0.06862717
124	0x3c1eed49	0.009700128
125	0x3cb56cbe	0.022146579
126	0x3d08bfde	0.033386104
127	0xbd4a6f0b	-0.049422305
128	0x3dc8cd40	0.09804773
129	0xbba6bbf4	-0.0050883237
130	0xbbdc973c	-0.0067318957
131	0x3c2d6679	0.010583513
132	0xbd93a06e	-0.07208334
133	0x3e0a94c8	0.13533318
134	0xbc967e1b	-0.018370679
135	0x3d3eb052	0.04655487
136	0xbab22833	-0.0013592303
137	0xbca0aee8	-0.019614652
138	0x3c8af23d	0.016961211
139	0x3d7bcbbc	0.061473593
140	0x3cc916de	0.024547037
141	0x3c82a4e3	0.015947765
142	0x3d6a6824	0.057228222
143	0x3e00000a	0.12500015
144	0x3db11d31	0.08648146
145	0xbce1bc84	-0.027555712
146	0x3e28aee9	0.16472973
147	0xbd643eeb	-0.055724066
148	0x3d439c23	0.047756325
149	0x3cd2aae0	0.025716245
150	0xbdd593da	-0.10428591
151	0x3b9f5f46	0.0048636524
152	0x3d5fb0e1	0.054612044
153	0xbcf03cb6	-0.029325824
154	0xbe2a1ee1	-0.16613342
155	0xbd0342f7	-0.032046285
156	0xbc8839b8	-0.016629085
157	0x3ca3942b	0.019968113
158	0x3dcb1965	0.09916953
159	0xbc01db45	-0.007925813
160	0x3c361d4e	0.011115385
161	0xbd9bd389	-0.076087065
162	0x3d07cd13	0.03315456
163	0x3da7c1f2	0.08191289
164	0x3bd2d523	0.0064340993
165	0x3d2d6df0	0.042341173
166	0x3dbe9158	0.09305066
167	0xbcd83e60	-0.02639693
168	0x3c4eb57f	0.012616514
169	0x3d4cddd2	0.05001623
170	0x3bc7f229	0.006101866
171	0x3dd3b0fa	0.1033649
172	0x3c94ec40	0.018179059
173	0x3d217d2d	0.039426018
174	0xba88395e	-0.0010393073
175	0x3d094b05	0.03351881
176	0xbc5cc7f3	-0.013475406
177	0x3cabd7e2	0.020976964
178	0x3d6488f8	0.055794686
179	0xbbe5028b	-0.0069888285
180	0xbd47115d	-0.048600543
181	0xbda227b0	-0.07917726
182	0x3ca7e0d6	0.020492952
183	0x3d4e1278	0.050310582
184	0x3c4faee7	0.012675977
185	0x3e2e9726	0.17049846
186	0x3ce24092	0.02761868
187	0xbb76b2a4	-0.00376431
188	0xbc86fb51	-0.016477259
189	0xbd594a7a	-0.053049542
190	0x3e0411a7	0.12897359
191	0x3e16f062	0.14740136
192	0x3d0792c8	0.033098966
193	0x3da16340	0.078802586
194	0xbc0c9b3f	-0.008581935
195	0x3d30572c	0.043051884
196	0x3d157974	0.03649278
197	0x3d544fac	0.051833794
198	0xbc9329f0	-0.017964333
199	0x3e30a01c	0.17248577
200	0xbcf681d9	-0.030091213
201	0xbc8177fb	-0.015804281
202	0x3d690249	0.056886945
203	0xbd67837b	-0.056521874
204	0x3c987ea4	0.018615074
205	0x3da2a5f5	0.0794181
206	0x3d8b7b75	0.06810657
207	0xbdc307e0	-0.095229864
208	0xbc0fd572	-0.008778917
209	0xbd22cbaa	-0.03974501
210	0x3d85d845	0.06535391
211	0x3cdb675f	0.02678269
212	0xbc37684e	-0.011194302
213	0x3c1ec70c	0.009691011
214	0x3d81926a	0.063267544
215	0x3d9fa3ea	0.07794936
216	0xbcbc57ec	-0.022991143
217	0xbcd1f904	-0.025631435
218	0x3c20f9b1	0.009825156
219	0x3ba9682a	0.005169888
220	0x3d0c1d9d	0.03420793
221	0x3d2b3e3c	0.0418074
222	0x3c175c08	0.009238251
223	0xbd6dab3a	-0.058024622
224	0x3d520502	0.051274307
225	0x3dd4fdee	0.10399996
226	0x3dac2495	0.08405415
227	0x3df2c5a3	0.118541025
228	0x3ba6ca49	0.0050900322
229	0xbc9bb676	-0.019007903
230	0xbc95566b	-0.018229684
231	0x3d221533	0.039571
232	0x3d1afb04	0.037837043
233	0x3d161e4a	0.03664998
234	0x3da902b8	0.08252472
235	0x3e58ad07	0.21159755
236	0x3d4aa1b6	0.049470626
237	0xbd3f97ce	-0.04677563
238	0x3dfeaa2f	0.12434804
239	0xbd5e6337	-0.054293837
240	0xbdd1a1b1	-0.10235918
241	0xbd1c9a25	-0.03823294
242	0x3e0beb70	0.13664031
243	0xbd5d42f5	-0.054018933
244	0x3ceeb0f6	0.029137116
245	0x3d2bed40	0.041974306
246	0xbd641077	-0.055679765
247	0x3ca40c4b	0.020025393
248	0x3e1a8f51	0.15093733
249	0xba87d70b	-0.001036377
250	0x3de47a17	0.11156099
251	0x3d8958c6	0.06706385
252	0x3c8f7d00	0.01751566
253	0xbe5fa0e0	-0.21838713
254	0xbcee6647	-0.029101504
255	0xbe3ce6df	-0.18447445

dense_4/bias f4 [350]
0	0xbb459a78	-0.0030151885
1	0xbbde9ff1	-0.006793969
2	0xbdbbc8c2	-0.09169151
3	0xbd8cfc5a	-0.0688407
4	0x3e0a4d57	0.13506065
5	0x3cbf6384	0.023362882
6	0x3ddfab3d	0.10921333
7	0x3d9f6122	0.077821985
8	0x3d400591	0.04688031
9	0x3de1724d	0.11008129
10	0xb9d26042	-0.0004012604
11	0xbcc4d152	-0.024025593
12	0xbd0018e0	-0.031273723
13	0xbcc8bff3	-0.024505591
14	0x3ccc13f8	0.024911866
15	0xbbe2b753	-0.0069188266
16	0xbd953851	-0.07286132
17	0xbb333c9c	-0.0027349358
18	0xbd988cdc	-0.07448742
19	0x3cb2edf1	0.021841975
20	0x3d917455	0.07102267
21	0xbd8468cf	-0.06465303
22	0xbdd216f0	-0.10258281
23	0xbd61bf66	-0.055114172
24	0xbda98d4f	-0.082789056
25	0xbcee3e56	-0.029082458
26	0xbd305026	-0.043045186
27	0x3ced8aa8	0.02899678
28	0xbc545b6a	-0.012961248
29	0x3d7f5e9a	0.06234608
30	0xbc37d40b	-0.011219989
31	0xbd92fbdc	-0.071769446
32	0xbc219fcd	-0.00986476
33	0xbd9ede1b	-0.07757207
34	0xbd811225	-0.06302289
35	0x3ce56f39	0.028007137
36	0x3d8137e0	0.063094854
37	0x3dba1a87	0.09087091
38	0x3aebbc26	0.001798515
39	0x3cc5109f	0.024055777
40	0x3c1e6c98	0.009669445
41	0xbd22f840	-0.03978753
42	0x3d7bd3a4	0.061481133
43	0x3a7a9e60	0.0009560343
44	0x3d6f8395	0.058475096
45	0xbcaa0c90	-0.020757943
46	0x3c170ca5	0.009219323
47	0xbdf9fc34	-0.12206307
48	0xbe230d37	-0.1592301
49	0x3cedd2cf	0.029031185
50	0xbda0ed0f	-0.07857715
51	0xbdf858bd	-0.121263005
52	0x3c3aae34	0.011394072
53	0xbd06c899	-0.03290615
54	0x3d99751b	0.07493039
55	0xbd2049fa	-0.03913305
56	0x3c0e6821	0.008691818
57	0xbce30e51	-0.027716788
58	0x3b4b146e	0.003098752
59	0x3ca1232e	0.019670095
60	0x3d11edc4	0.03562714
61	0xbc2471d6	-0.010036906
62	0x3c67d010	0.014148727
63	0xbd51203e	-0.05105614
64	0x3cb30a84	0.0218556
65	0xbdb8b394	-0.09018627
66	0x3bb32820	0.0054674298
67	0xbd288d7b	-0.04115055
68	0x3d0ca2ad	0.034334827
69	0xbb90bf91	-0.0044173677
70	0x3cf5725e	0.029961761
71	0x3b308862	0.002693676
72	0x3bef1292	0.007295915
73	0x3c808898	0.015690133
74	0xbc711b48	-0.014715977
75	0x3dcc8956	0.09987132
76	0x3ddc8643	0.10767796
77	0xbcec4f73	-0.028846478
78	0x3db4f86a	0.08836444
79	0xbe10f78a	-0.14156929
80	0xbd4f3d46	-0.050595544
81	0xbd8ace93	-0.06777682
82	0xbda30eae	-0.07961784
83	0xbd1717df	-0.036888
84	0xbe5f19f3	-0.21787243
85	0x3cf1ca07	0.02951528
86	0xbdce3a00	-0.10069656
87	0xbd3da09a	-0.04629574
88	0x3c22e32f	0.00994186
89	0x3bdcdebf	0.0067404206
90	0x3d1e5890	0.03865868
91	0xbd124c6b	-0.03571741
92	0xbc7d7e20	-0.015471965
93	0x3c2effb6	0.010681083
94	0xbcc62990	-0.02418974
95	0xbd46a4e2	-0.04849709
96	0xbd7f3d8d	-0.06231456
97	0xbd577977	-0.052606072
98	0x3cdb347d	0.026758427
99	0x3d059b40	0.03261876
100	0x3dca1f1f	0.09869217
101	0xbd2b730f	-0.041857775
102	0xbd2045ab	-0.03912894
103	0xbd2c5230	-0.042070568
104	0x3ca99002	0.020698551
105	0x3c879b13	0.016553437
106	0xbc7d1046	-0.015445774
107	0xbe07cc54	-0.13261539
108	0x3d1fea5a	0.039041854
109	0xbbec879e	-0.0072183153
110	0xbcfb7505	-0.030695448
111	0x3dc11b68	0.094290555
112	0xbd0bcdb0	-0.034131706
113	0xbc85ef7c	-0.016349547
114	0x3dafdb28	0.085867226
115	0x3b791a56	0.0038010082
116	0x3976c058	0.00023532042
117	0x3b26a69f	0.0025428904
118	0x3b42f566	0.002974832
119	0x3d080399	0.033206556
120	0xbd482648	-0.048864633
121	0x3dcecd14	0.10097709
122	0x3b5abe3d	0.003337755
123	0xbb02898d	-0.0019918412
124	0x3b868591	0.004105278
125	0xbc00042f	-0.007813497
126	0xbd7a68d4	-0.06113513
127	0xbb97f326	-0.00463714
128	0xbd83f4a6	-0.06443147
129	0xbdabda26	-0.08391218
130	0xbcad3c8e	-0.021147039
131	0x3cfc1ced	0.030775512
132	0x3d1d0346	0.0383332
133	0xbad3cc77	-0.0016158958
134	0xbd724e9b	-0.059156995
135	0xbdd2560d	-0.10270319
136	0xbd785659	-0.060629223
137	0xbd208730	-0.039191425
138	0xbda7e1fa	-0.081973985
139	0x3df70293	0.12061038
140	0x3db86651	0.0900389
141	0xbca67f35	-0.020324329
142	0xbe18708f	-0.14886688
143	0xbdd5b049	-0.10434014
144	0xbd4aad31	-0.049481574
145	0x3cb593fc	0.022165291
146	0x3d3e94ac	0.046528503
147	0xbd4bd4eb	-0.0497636
148	0x3c252003	0.010078433
149	0x3c840e32	0.01612005
150	0x3d3dbe38	0.046323985
151	0xbb7d258c	-0.0038627116
152	0xbd73d443	-0.0595286
153	0x3d311209	0.04323009
154	0xbc8b02e1	-0.016969146
155	0x3d59000e	0.052978568
156	0x3c408c06	0.011752134
157	0x3d8bb302	0.068212524
158	0xbd0b55a1	-0.03401721
159	0xbd167b17	-0.03673848
160	0x3d3064da	0.04306493
161	0x3dcc0bc7	0.09963184
162	0xbb95b1e5	-0.004568326
163	0x3cc3c530	0.023897737
164	0x3d078fe4	0.03309621
165	0xbd2a97fa	-0.041648842
166	0x3cc56348	0.024095193
167	0xbcf361ff	-0.029709814
168	0xbe0c0b32	-0.13676146
169	0xbcc6b7d1	-0.024257572
170	0xbd804362	-0.06262852
171	0xbd7e1c8e	-0.06203895
172	0x3ae0d5ea	0.0017153595
173	0xbc5dac28	-0.013529815
174	0xbd09b05d	-0.03361546
175	0xbc7ffa0b	-0.01562358
176	0x3b942d45	0.004521998
177	0xbcb592a9	-0.02216466
178	0xbdde699d	-0.10859988
179	0x3a6fb0ca	0.000914347
180	0xbcd6782b	-0.026180347
181	0x3b72bba9	0.0037038124
182	0x3627f210	2.5025838e-06
183	0xbd61ee08	-0.055158645
184	0x3d1ed692	0.03877885
185	0x3de482b2	0.11157741
186	0x3e0f4a8e	0.13993284
187	0xbd112cbc	-0.035443053
188	0xbd87ef7b	-0.06637474
189	0xbcf341e0	-0.029694498
190	0xbcda1e76	-0.026625853
191	0xbb5ce457	-0.0033705437
192	0xbda1727a	-0.07883163
193	0xbd5a29f8	-0.05326268
194	0x3d036412	0.032077856
195	0xbc2ebf58	-0.010665737
196	0xbd36ee5f	-0.044660922
197	0xbb643f9d	-0.0034827956
198	0xbb82a6c1	-0.003987164
199	0x3d3efd01	0.046628002
200	0x3b095853	0.0020957186
201	0x3bf69226	0.0075247465
202	0xbcf4dbc6	-0.029889952
203	0x3b85422b	0.0040667257
204	0x3d0de593	0.034642767
205	0xbc40d48d	-0.011769426
206	0xbbdad0ae	-0.0066777086
207	0xbd50e274	-0.050997213
208	0xbd110575	-0.035405595
209	0x3d1ee6e1	0.038794402
210	0xbcf216f8	-0.029551968
211	0x3b096451	0.0020964334
212	0xbd413085	-0.047165412
213	0xbd764e91	-0.06013352
214	0xbd80252e	-0.062570915
215	0xbce74d95	-0.028235236
216	0x3d180322	0.037112363
217	0x3c73f4a1	0.014889867
218	0x3e2118a3	0.15732054
219	0xbc966e63	-0.018363183
220	0xbd40f70e	-0.04711061
221	0x3d06b269	0.03288499
222	0xb87226c6	-5.7733407e-05
223	0x3bc736fa	0.0060795518
224	0x3dda9876	0.10673611
225	0x3b925fe9	0.004467
226	0x3d163afc	0.036677346
227	0x3c7d97bc	0.015478071
228	0xba23b732	-0.0006245255
229	0x3d420677	0.047369447
230	0xbd6147e4	-0.0550002
231	0xbd6ffafc	-0.058588967
232	0xbd639be4	-0.05556859
233	0x3c5b0dd7	0.013369999
234	0xbd8fd9dc	-0.07023975
235	0x3d476ea0	0.048689485
236	0xbd097be8	-0.03356543
237	0xbdeced12	-0.11568655
238	0xbcd17bab	-0.025571665
239	0x3cf8e44b	0.030382296
240	0xbd935d72	-0.07195558
241	0xbc3a2ee0	-0.011363715
242	0xbc55dbe7	-0.013052917
243	0x3c8f6f13	0.017509019
244	0x3d0884b8	0.033329695
245	0xbc28e29a	-0.010307932
246	0x3d47549d	0.048664678
247	0x3d132426	0.035923146
248	0xbc762ab1	-0.015024827
249	0x3dfb23a4	0.12262657
250	0xbcd282ca	-0.02569713
251	0xbd3a4909	-0.045479808
252	0xbc7838ce	-0.015150262
253	0x3d16eab5	0.036844928
254	0x3c895aa3	0.016766852
255	0xbd7ddb13	-0.061976504

dense_3/bias f4 [350]
0	0xbd2a7208	-0.041612655
1	0xbd8f2ebd	-0.069913365
2	0x3cba32ef	0.022729365
3	0xbd8c350c	-0.068460554
4	0xbd1b1929	-0.03786579
5	0xbd35696e	-0.04429
6	0xbd09ad0e	-0.033612303
7	0xbcf9dccf	-0.030500798
8	0x3cf511fe	0.029915806
9	0xbd419c3c	-0.047268137
10	0xbd3431ef	-0.043992933
11	0xbad2913e	-0.0016065014
12	0xbb56b278	-0.0032760184
13	0xbd56af15	-0.052413065
14	0x3bf6468d	0.0075157345
15	0xbc805976	-0.015667658
16	0xbd2fe556	-0.04294332
17	0xbc57e9cf	-0.013178303
18	0x3c8f5814	0.017498054
19	0xbce5922b	-0.0280238
20	0xbb5819b5	-0.0032974307
21	0xbd84f14e	-0.06491338
22	0xbd026382	-0.03183318
23	0xbdb2c579	-0.08729071
24	0xbc523812	-0.012830751
25	0xbd68ca58	-0.056833595
26	0xbd7b15ce	-0.06130009
27	0xbdc76f11	-0.09737981
28	0xbdd0cc9f	-0.101952784
29	0xbd813f2d	-0.06310878
30	0xbd8f8c9e	-0.070092425
31	0xbdb643d1	-0.08899654
32	0xbd92708f	-0.07150375
33	0xbcd7235d	-0.02626198
34	0x3ae621f0	0.0017557722
35	0xbc8e9ef3	-0.017409777
36	0xbcf60143	-0.030029899
37	0xbcf763b1	-0.030198904
38	0xbc200034	-0.009765673
39	0xbd5c616a	-0.05380384
40	0xbdc3d26d	-0.0956162
41	0xbc323d1e	-0.010878829
42	0xbd232ec1	-0.03983951
43	0xbb28e7f0	-0.002577301
44	0xbbe9b7ac	-0.007132491
45	0xbd87125e	-0.065953
46	0xbcfd2f65	-0.030906389
47	0xbcca7170	-0.024712294
48	0xbdd8bc5f	-0.10582804
49	0xbd245977	-0.040124383
50	0xbc38e9a0	-0.011286169
51	0xbd5f2c7e	-0.05448579
52	0xbd43868a	-0.04773573
53	0xbd328b93	-0.04359014
54	0xbd962d97	-0.07332914
55	0xbc88e966	-0.016712856
56	0xbda1a903	-0.078935646
57	0xbe052318	-0.13001668
58	0xbc9d9bf5	-0.019239405
59	0xbccdfdc7	-0.025145425
60	0x3cbbbb0d	0.022916341
61	0xbd9faf38	-0.07797092
62	0xbd4d20cb	-0.050080102
63	0xbceccf31	-0.02890739
64	0xbd872143	-0.06598141
65	0xbd008cbf	-0.031384226
66	0xbd744138	-0.05963251
67	0xbd9d4e0f	-0.07680904
68	0xbcffeaae	-0.031239834
69	0xbc82017c	-0.015869848
70	0xbd22b2fa	-0.039721467
71	0xbd2189b4	-0.039437965
72	0xbd40bbd0	-0.047054112
73	0xbcd5bbd8	-0.026090547
74	0xbd20ba65	-0.03924026
75	0xbd052425	-0.032505173
76	0xbd237c11	-0.03991324
77	0xbd4eea1b	-0.05051623
78	0xbbf542eb	-0.007484784
79	0xbe0ffd6b	-0.14061515
80	0x3c1b40f2	0.009475933
81	0xbc6dc194	-0.014511485
82	0xbdda1ec4	-0.10650399
83	0xbd7570e3	-0.05992211
84	0xbb090f84	-0.002091379
85	0xbc2dd37d	-0.010609505
86	0xbdcd6cdc	-0.10030529
87	0xbd9c6a71	-0.076374896
88	0xbd792577	-0.060826745
89	0xbd551393	-0.05202062
90	0xbd66a2c3	-0.056307565
91	0xbce80be1	-0.028325977
92	0xbcaad152	-0.020851765
93	0xbb453040	-0.0030088574
94	0xbd803fe1	-0.06262184
95	0xbc6fc690	-0.014634743
96	0xbd278165	-0.040894885
97	0x3c55b066	0.013042545
98	0xbdc0f5b2	-0.09421863
99	0x3c243280	0.010021806
100	0xbcebf065	-0.028801152
101	0xbd1f74dc	-0.038929805
102	0xbd470242	-0.048586138
103	0xbde70030	-0.11279333
104	0xbd8b4266	-0.06799774
105	0xbd80a155	-0.06280772
106	0xbcbb87b8	-0.022891864
107	0xbd0bdf83	-0.034148704
108	0xbd43b963	-0.04778422
109	0xbd42f7f7	-0.04759976
110	0xbd3d0bcc	-0.04615383
111	0xbc99b32c	-0.018762194
112	0x3be88fe4	0.007097231
113	0x3cf00e6e	0.029303756
114	0x3bd52961	0.006505177
115	0xbd044159	-0.032288883
116	0x3adb9e80	0.0016755611
117	0xbd86fd68	-0.06591302
118	0x3c3c44e1	0.011491031
119	0xbd12a2ee	-0.035799913
120	0x3bd387b1	0.0064553847
121	0xbd72bad6	-0.059260212
122	0xbbb52cfb	-0.0055290437
123	0xbd2cb584	-0.042165294
124	0xbcfc2e31	-0.030783745
125	0xbcf31e23	-0.029677456
126	0xbc52e6c4	-0.012872402
127	0xbcf21460	-0.029550731
128	0xbd2ee33d	-0.04269718
129	0xbd2571a8	-0.040391594
130	0xbc356716	-0.011071941
131	0xbd551998	-0.05202636
132	0xbba72e9b	-0.0051019914
133	0xbce253e0	-0.027627885
134	0x3c28ecb2	0.010310339
135	0xbd3624e5	-0.04446878
136	0xbd0e8e0f	-0.034803446
137	0xbd02b349	-0.03190926
138	0x3bde8172	0.0067903334
139	0xbcdbb570	-0.026819915
140	0xbc94a9af	-0.018147318
141	0xbcb35fdf	-0.0218963
142	0x3c38f1ae	0.01128809
143	0x3c6b36b4	0.014356304
144	0xbcc63196	-0.024193566
145	0xba856f42	-0.0010180252
146	0xbc97eacf	-0.018544583
147	0xbd26bce3	-0.04070748
148	0x3c973e66	0.018462371
149	0xbe0bde0a	-0.1365892
150	0xbbdd1cc0	-0.006747812
151	0xbd8a7e5d	-0.06762383
152	0xbc529299	-0.012852334
153	0xbd98ae71	-0.07455147
154	0xbd0f0f4d	-0.0349267
155	0xbd1f8264	-0.03894271
156	0xbcbf455c	-0.023348503
157	0xbdd6aaba	-0.10481782
158	0xbcdb4244	-0.026764996
159	0x3d682700	0.05667782
160	0xbd204f0b	-0.03913788
161	0xbd7916f6	-0.060812913
162	0xbd165af3	-0.03670783
163	0xbd44ed50	-0.04807788
164	0xbc861e65	-0.016371915
165	0xbc66f2bb	-0.014095957
166	0x3bef107a	0.0072956653
167	0xbd8bbe27	-0.06823378
168	0xbc4019ca	-0.011724899
169	0x3b20a810	0.0024514236
170	0xbd048312	-0.03235156
171	0xbd1b586e	-0.03792613
172	0xbcedd7a0	-0.029033482
173	0x3d33c7c5	0.043891687
174	0xbe01b472	-0.1266649
175	0xbd08bd61	-0.03338373
176	0x3c4feace	0.012690259
177	0xbd229aa1	-0.039698247
178	0xbd8b408f	-0.06799423
179	0xbdb256cb	-0.08707961
180	0xbd642208	-0.055696517
181	0xbcb01d50	-0.021498352
182	0xbba868db	-0.005139453
183	0xbc97b9f3	-0.018521285
184	0x3c69622e	0.014244599
185	0xbd8eaf0a	-0.0696698
186	0x3bdd7e15	0.006759415
187	0xbcadc030	-0.021209806
188	0xbc8fb10d	-0.01754048
189	0xbd34d811	-0.04415137
190	0xbe04bea2	-0.12963346
191	0xbd80007a	-0.06250091
192	0xbd7e86b8	-0.062140197
193	0xbd6d92a9	-0.058001194
194	0xbcb3c7b7	-0.021945817
195	0xbca36160	-0.019943893
196	0xbd50d091	-0.050980154
197	0xbd84a888	-0.06477457
198	0xbd1d0b0b	-0.03834061
199	0xbcc28700	-0.023746014
200	0xbc93db78	-0.018048987
201	0xbe351be9	-0.17686428
202	0xbd478074	-0.048706487
203	0xbca7c88f	-0.020481376
204	0xbc6008af	-0.013673945
205	0xbd6e9aa2	-0.058252938
206	0xbc1750d0	-0.009235576
207	0xba75a19e	-0.0009370091
208	0xbd59fc97	-0.053219404
209	0x3c5a3e28	0.013320483
210	0xbe04e3ea	-0.12977567
211	0xbd53a578	-0.051671475
212	0xbd6b8436	-0.057499133
213	0xbd385e0d	-0.04501157
214	0xbbb2a426	-0.005451697
215	0xbd34f24a	-0.044176377
216	0xbcf7e31c	-0.030259661
217	0xbd6d7de4	-0.057981387
218	0xbd52f764	-0.05150546
219	0xbcb2531e	-0.021768149
220	0xbc4cc422	-0.012497934
221	0xbd25c30f	-0.040469225
222	0xbcf6461e	-0.030062731
223	0xbd03d83d	-0.032188643
224	0xbd96686e	-0.07344137
225	0xbd8dc2cf	-0.069219224
226	0xbd11665a	-0.035498
227	0xbca31652	-0.019908104
228	0xbd4923dd	-0.049106468
229	0xbd187edd	-0.03723036
230	0xbcf82240	-0.03028977
231	0xbe1c4662	-0.15261224
232	0x3c38c56a	0.011277536
233	0xbcedbd78	-0.02902101
234	0xbca6b57f	-0.020350216
235	0xbc812dd7	-0.015768928
236	0xbd04b06a	-0.032394804
237	0xbdc2fc2d	-0.09520755
238	0xbd221370	-0.03956932
239	0xbd7838a2	-0.060600884
240	0xbd25b1e6	-0.04045286
241	0xbc1e9717	-0.009679577
242	0xbcbc65dd	-0.022997791
243	0xbcfbbf28	-0.030730799
244	0xbd3e43e4	-0.046451464
245	0xbd987b18	-0.07445353
246	0xbc52694b	-0.012842487
247	0xbdef0f83	-0.116728805
248	0xbd0176ae	-0.031607322
249	0x3ad991ed	0.0016599275
250	0xbd3a3aee	-0.045466356
251	0xbd185840	-0.037193537
252	0x3c35cff5	0.011096944
253	0xbd0348d3	-0.032051872
254	0xbd93a271	-0.072087176
255	0xbd83d25e	-0.06436609

dense_2/bias f4 [350]
0	0xbcbabdb2	-0.022795532
1	0xbd4c4332	-0.04986877
2	0xbd1c539b	-0.03816567
3	0xbd86c90c	-0.065813154
4	0xbd691b44	-0.05691077
5	0xbd6d6261	-0.05795515
6	0xbd4dd41c	-0.05025111
7	0xbd767086	-0.060165904
8	0xbd638b45	-0.05555274
9	0xbd682af0	-0.056681573
10	0xbd79d586	-0.060994647
11	0xbd55ddb7	-0.052213397
12	0xbcb91bce	-0.022596266
13	0xbd8ea715	-0.06965462
14	0xbc57e99b	-0.0131782545
15	0xbcc69abc	-0.024243705
16	0xbc7c0c0f	-0.015383734
17	0xbcd450ec	-0.025917493
18	0xbd8f8439	-0.07007641
19	0xbd59c5e4	-0.05316724
20	0xbd1f7970	-0.03893417
21	0xbb53c7cc	-0.0032315133
22	0xbcaf53b2	-0.021402214
23	0xbc7b049a	-0.015320921
24	0xbd733fa8	-0.05938688
25	0xbd198021	-0.03747571
26	0xbd374f59	-0.044753406
27	0xbd782d10	-0.06058985
28	0xbdc54abe	-0.096333966
29	0xbd86b9df	-0.06578421
30	0xbd0f9abb	-0.03505967
31	0xbd255c49	-0.040371213
32	0xbd49d6c2	-0.049277075
33	0xbd3b4718	-0.045722097
34	0xbd965ba9	-0.073417015
35	0xbca58a98	-0.020207688
36	0x3c2e078a	0.010621915
37	0xbd0616e6	-0.03273668
38	0xbd34ec87	-0.044170883
39	0xbd07404f	-0.033020314
40	0xbd3c4bdb	-0.04597078
41	0xbd3d900b	-0.04627995
42	0xbcb2c4fa	-0.021822441
43	0xbd207716	-0.03917607
44	0xbd73787b	-0.05944107
45	0xbd4c411b	-0.049866777
46	0xbd27ee7c	-0.04099892
47	0xbcb46b82	-0.02202392
48	0xbd8c2129	-0.06842262
49	0xbd549892	-0.051903315
50	0xbc9c31f0	-0.01906678
51	0xbc8cb3d7	-0.017175598
52	0xbd8277d8	-0.06370515
53	0xbd16cb16	-0.03681477
54	0xbd08fab5	-0.033442218
55	0xbd6adf04	-0.05734159
56	0xbd3fed28	-0.04685703
57	0xbcb960e4	-0.022629209
58	0xbd795a5c	-0.06087719
59	0xbd012fc4	-0.031539693
60	0xbd20889c	-0.03919278
61	0xbd4fd059	-0.050735805
62	0xbd2f9ba3	-0.042873036
63	0xbd842bf8	-0.06453699
64	0xbd4a1048	-0.049331933
65	0xbd9e5e66	-0.07732849
66	0xbd63bb46	-0.05559852
67	0xbd5c32b3	-0.053759288
68	0xbd2e8e05	-0.04261591
69	0xbd0b2d49	-0.033978734
70	0xbcbf1258	-0.023324177
71	0xbc44ed4a	-0.012019465
72	0xbc7651e4	-0.015034173
73	0xbc6119a6	-0.013739025
74	0xbc771aa5	-0.015082036
75	0xbd0cb109	-0.03434852
76	0xbd183dc7	-0.03716829
77	0xbd805885	-0.06266884
78	0xbd1504dc	-0.036381587
79	0xbd6a99cb	-0.057275575
80	0xbd05d5e9	-0.032674704
81	0xbd7c6f0e	-0.061629348
82	0xbd8cd595	-0.06876675
83	0xbd4283a7	-0.047488835
84	0xbd57784c	-0.05260496
85	0xbcfe5c60	-0.031049907
86	0xbd4b0933	-0.04956932
87	0xbd12fc58	-0.035885185
88	0xbd6a35bc	-0.05718015
89	0xbd2c7d09	-0.04211143
90	0xbd8d2584	-0.06891921
91	0xbc164cae	-0.009173555
92	0xbd23e95d	-0.040017474
93	0xbca07a37	-0.019589527
94	0xbd2f3e4d	-0.042784024
95	0xbce63e63	-0.02810592
96	0xbd892ca1	-0.066979654
97	0xbd9e35cf	-0.07725107
98	0xbbf796d5	-0.0075558224
99	0xbd537bdd	-0.051631797
100	0xbd8ce1d9	-0.068790145
101	0xbd49d30d	-0.04927354
102	0xbd653ba1	-0.05596507
103	0xbc7bc663	-0.015367123
104	0xbd66df53	-0.056365322
105	0xbd810fe3	-0.06301858
106	0xbd636dae	-0.05552452
107	0xbbadc756	-0.0053033037
108	0xbcedabe9	-0.029012637
109	0xbd4aee47	-0.049543645
110	0xbcef7e29	-0.029234963
111	0xbd5375d0	-0.051626027
112	0xbd2eaeca	-0.04264716
113	0xbd237507	-0.039906528
114	0xbd021974	-0.031762555
115	0xbd15c4c9	-0.036564622
116	0xbcdb5d56	-0.026777904
117	0xbd4dc9f8	-0.05024144
118	0x3cbfb402	0.023401264
119	0xbd36e85d	-0.044655193
120	0xbd52a563	-0.051427256
121	0xbd94db88	-0.07268435
122	0xbd1fb8b8	-0.03899452
123	0xbd2a08b3	-0.041512202
124	0xbd63ebfe	-0.05564498
125	0xbd730bd5	-0.059337456
126	0xbd462973	-0.048379373
127	0xbd3d78d6	-0.046257816
128	0xbcd95479	-0.026529538
129	0xbd79b2fc	-0.06096171
130	0xbd25b6af	-0.040457424
131	0xbd8910df	-0.06692671
132	0xbc98bc5b	-0.018644502
133	0xbd66f1ab	-0.056382816
134	0xbcfc9bbe	-0.030835982
135	0xbcfa2d41	-0.030539157
136	0xbd46466a	-0.048406996
137	0xbca1041c	-0.01965528
138	0xbd7784d4	-0.06042941
139	0xbd425b89	-0.047450576
140	0xbd5fd97b	-0.054650765
141	0xbd4ba1b4	-0.04971476
142	0xbd1bb021	-0.038009766
143	0xbd67f0e7	-0.056626227
144	0xbce9b75f	-0.028529821
145	0xbd2bfdec	-0.041990206
146	0xbb222a99	-0.0024744628
147	0xbd530ca2	-0.05152572
148	0xbd40f867	-0.047111895
149	0xbdaf1c18	-0.0855028
150	0xbce9a987	-0.02852322
151	0xbd477367	-0.04869404
152	0xbd8a2a9e	-0.0674641
153	0xbd469ffe	-0.048492424
154	0xbd69a4b4	-0.05704184
155	0xbd6b7d6e	-0.057492666
156	0xbda07f7f	-0.07836818
157	0xbc20075b	-0.009767379
158	0xbd34a31b	-0.044100862
159	0xbc8aacf1	-0.016928168
160	0xbd74812a	-0.059693493
161	0xbc1d608f	-0.009605541
162	0xbce10749	-0.027469294
163	0xbd750f43	-0.059829008
164	0xbd0f3834	-0.03496571
165	0xbd83bfa3	-0.06433036
166	0xbd4343c7	-0.04767206
167	0xbca93e00	-0.020659447
168	0xbcfb1ef6	-0.030654412
169	0xbcbd2fcf	-0.023094086
170	0xbd3cd64d	-0.04610281
171	0xbd458914	-0.04822643
172	0xbd914463	-0.07093122
173	0xbd7313e9	-0.05934516
174	0xbdb6a19c	-0.08917543
175	0xbc867dde	-0.01641744
176	0xbcc936f0	-0.024562329
177	0xbd551e17	-0.05203065
178	0xbcd99a57	-0.026562853
179	0xbd0bffd7	-0.034179535
180	0xbcf4f769	-0.02990313
181	0xbd84a34a	-0.064764574
182	0xbd68a7bd	-0.056800593
183	0xbd071be0	-0.032985568
184	0xbd436670	-0.047705114
185	0xbd88fe94	-0.06689182
186	0xbd5b30bb	-0.05351327
187	0xbc963594	-0.018336095
188	0xbd0d8506	-0.03455069
189	0xbd997e11	-0.074947484
190	0xbd20f777	-0.0392985
191	0xbd6ddd08	-0.05807212
192	0xbd6c9fec	-0.0577697
193	0xbd37093e	-0.04468655
194	0xbcc77bf8	-0.024351105
195	0xbdaebb5c	-0.0853183
196	0xbd0af35e	-0.0339235
197	0xbdba7e01	-0.091060646
198	0xbd2e313b	-0.04252742
199	0xbd939b8e	-0.07207404
200	0xbc8559b2	-0.016278122
201	0xbc9307fa	-0.01794814
202	0xbc962ab3	-0.018330907
203	0xbd990ee1	-0.07473541
204	0xbdc82d6f	-0.09774291
205	0xbd73e7ad	-0.059547115
206	0xbd500467	-0.05078545
207	0xbd632ad4	-0.055460766
208	0xbd9e1fad	-0.077208854
209	0xbccd1956	-0.025036495
210	0xbd76181a	-0.06008158
211	0xbd3bb3b8	-0.04582569
212	0xbd89a1b3	-0.06720295
213	0xbd468380	-0.048465252
214	0xbd8305ae	-0.06397568
215	0xbd9a0f3e	-0.075224385
216	0xbd0f47da	-0.034980632
217	0xbd014113	-0.0315562
218	0x3c1bf656	0.00951918
219	0xbc17a440	-0.009255469
220	0xbca74c03	-0.020421987
221	0xbcd63c98	-0.02615194
222	0xbc8ef07a	-0.017448653
223	0xbd9cd252	-0.07657303
224	0xbd21c8f3	-0.03949828
225	0xbd35acb8	-0.04435417
226	0xbd5929c4	-0.053018346
227	0xbcbe3ab9	-0.02322136
228	0xbd4b5de3	-0.049650084
229	0xbdbd78ac	-0.09251532
230	0xbcb1edb3	-0.02171979
231	0xbd89ef72	-0.06735124
232	0xbd925569	-0.07145197
233	0xbcecfaec	-0.028928243
234	0xbd7b0061	-0.06127966
235	0xbd119747	-0.03554466
236	0xbd994a60	-0.07484889
237	0xbd6f6320	-0.058444142
238	0xbd15055e	-0.03638207
239	0xbd0ad1d8	-0.03389153
240	0xbd3ed8b5	-0.046593387
241	0xbd27d3d2	-0.040973492
242	0xbcb25b51	-0.021772059
243	0xbdb23a6c	-0.08702549
244	0xbd29c890	-0.041451037
245	0xbcbabde7	-0.02279563
246	0xbd9d6656	-0.07685535
247	0xbd188d2b	-0.037244003
248	0xbd17673a	-0.03696368
249	0xbd2bd2dd	-0.04194914
250	0xbd01a7da	-0.031654216
251	0xbccda4c7	-0.025102986
252	0xbd172da0	-0.036908746
253	0xbd0c35ea	-0.034231104
254	0xbd950bd6	-0.07277648
255	0xbda0de4f	-0.07854902

dense_1/bias f4 [350]
0	0xbd210b37	-0.039317336
1	0xbd8f646e	-0.07001577
2	0xbd0eea18	-0.034891218
3	0xbd0b49f4	-0.034006074
4	0xbc763609	-0.015027531
5	0xbd206c0b	-0.039165538
6	0xbd7702d4	-0.06030543
7	0xbcf67998	-0.030087277
8	0xba1a91a7	-0.00058963377
9	0xbd0b7a0c	-0.03405194
10	0xbc5ea325	-0.013588701
11	0xbd10dc3f	-0.035366293
12	0xbd7263d8	-0.05917725
13	0xbd4cb9c5	-0.04998185
14	0xbcef2538	-0.029192552
15	0xbd2831d8	-0.04106316
16	0xbce0dbcc	-0.027448557
17	0xbc496907	-0.012293107
18	0xbd1626f8	-0.036658257
19	0xbd06342a	-0.03276459
20	0xbd1e58d3	-0.038658928
21	0xbd85fb86	-0.06542115
22	0xbcdd5393	-0.02701739
23	0xbc0a4322	-0.008438857
24	0x3a955105	0.0011391944
25	0xbd7e6808	-0.06211093
26	0xbcf612b1	-0.03003821
27	0xbd07c9b1	-0.033151332
28	0xbd1f2022	-0.038849004
29	0xbd4833e6	-0.04887762
30	0xbd37dde1	-0.044889335
31	0xbd04baa9	-0.032404575
32	0xbc820243	-0.01587022
33	0xbd24f8b9	-0.040276263
34	0xbd330100	-0.043702126
35	0xbc60fdec	-0.013732415
36	0xbc5d056a	-0.01349006
37	0xbd1bc36d	-0.03802817
38	0xbc85789b	-0.01629286
39	0x3b25aa3a	0.0025278465
40	0xbd1b9583	-0.037984382
41	0xbcba6e74	-0.022757746
42	0xbd0a2cdc	-0.033734187
43	0xbd796ee8	-0.060896784
44	0xbd93c68b	-0.072156034
45	0xbd089a40	-0.03335023
46	0xbcfaf20e	-0.030632999
47	0xbd579c39	-0.05263922
48	0xbcb87bd9	-0.022519993
49	0xbd4eaa32	-0.05045528
50	0xbd7253b3	-0.059161853
51	0xbd96cd99	-0.073634334
52	0xbd2bdd5c	-0.04195915
53	0xbd53d7be	-0.05171942
54	0xbd331994	-0.043725565
55	0xbd129a9f	-0.03579199
56	0xbc889573	-0.016672825
57	0xbd46a86e	-0.04850047
58	0xbb8f1723	-0.004366772
59	0xbd878753	-0.06617608
60	0xbcd12dc2	-0.025534514
61	0xbd4b4283	-0.049623977
62	0xbd442a7e	-0.047892086
63	0xbd47dd09	-0.04879478
64	0xbd6318ff	-0.05544376
65	0xbd1f9c4a	-0.03896741
66	0xbd48b22a	-0.048998035
67	0xbd546dd3	-0.05186255
68	0xbd85dbc5	-0.06536058
69	0xbb840580	-0.004028976
70	0xbd5cebff	-0.053936
71	0xbd492f8c	-0.04911761
72	0xbd03f020	-0.032211423
73	0xbd0353ff	-0.032062527
74	0xbd42d1e6	-0.047563456
75	0xbd094b32	-0.033518977
76	0xbc95d0d6	-0.018288057
77	0xbc80b7cd	-0.015712643
78	0xbd405159	-0.04695258
79	0xbd2fafcd	-0.042892266
80	0xbcb23569	-0.021753984
81	0xbd32001d	-0.04345714
82	0xbd4b5986	-0.049645923
83	0xbce55351	-0.02799383
84	0xbcc09550	-0.023508698
85	0xbd3b48b3	-0.04572363
86	0xbd3d1b36	-0.04616853
87	0xbcaac2a6	-0.020844769
88	0xbd235138	-0.039872378
89	0xbce19a2e	-0.027539339
90	0xbcb92673	-0.022601342
91	0xbd13c675	-0.036077935
92	0xbad55da3	-0.0016278516
93	0xbd32d6a5	-0.043661732
94	0xbd1c9ba5	-0.03823437
95	0xbd2715dd	-0.040792335
96	0xbd2755a8	-0.040853173
97	0xbcf4d108	-0.02988483
98	0xbc1787d4	-0.009248693
99	0xbcfb8c3a	-0.030706514
100	0xbd62094c	-0.055184647
101	0xbc992c34	-0.018697836
102	0xbd264a12	-0.040597983
103	0xbcd67780	-0.026180029
104	0xbc870034	-0.016479589
105	0xbccc2e02	-0.024924282
106	0xbd1c8c6b	-0.03821985
107	0xbd27e30e	-0.04098802
108	0xbd08fa4b	-0.033441823
109	0xbd099a6d	-0.033594538
110	0xbcc507d2	-0.02405158
111	0xbd6e3e00	-0.058164597
112	0xbd0bca11	-0.034128252
113	0xbd122043	-0.0356753
114	0xbc8f9473	-0.01752684
115	0xbcd06893	-0.02544049
116	0xbc3c92e8	-0.011509635
117	0xbd4d3920	-0.050103307
118	0xbd17f101	-0.037095074
119	0xbd17f053	-0.037094425
120	0xbd03b41e	-0.032154195
121	0xbd1d04ba	-0.038334586
122	0xbd1be802	-0.038063057
123	0xbd533a84	-0.051569477
124	0xbd141068	-0.03614846
125	0xbd3bc7c6	-0.045844816
126	0xbd261e3d	-0.04055618
127	0xbd2118d7	-0.03933033
128	0xbd0cbcfa	-0.03435991
129	0xbd5caa76	-0.0538735
130	0xbcb78ac6	-0.02240504
131	0xbd25b052	-0.040451355
132	0xbbaf637d	-0.005352436
133	0xbcffbb5f	-0.031217275
134	0xbd5acf6f	-0.05342048
135	0xbcc44d70	-0.023962706
136	0xbc9b7057	-0.018974466
137	0xbd57f99f	-0.05272829
138	0xbd2ac505	-0.0416918
139	0xbd17821b	-0.036989313
140	0xbd53afe8	-0.05168143
141	0xbcf60cb4	-0.030035354
142	0xbd536190	-0.051606715
143	0xbd76b132	-0.06022758
144	0xbd18b2f0	-0.037280023
145	0xbd3cecf0	-0.0461244
146	0xbcfad645	-0.03061975
147	0xbcc637cb	-0.024196526
148	0xbcd027ed	-0.025409663
149	0xbd5a3221	-0.053270463
150	0xbd0ffa31	-0.03515071
151	0xbc296034	-0.010337878
152	0xbd4bc717	-0.049750414
153	0xbd5807ba	-0.052741744
154	0xbd733795	-0.05937918
155	0xbcbaae85	-0.022788296
156	0xbd1cd178	-0.038285702
157	0xbcc9889a	-0.02460127
158	0xbd20134e	-0.03908091
159	0xbcafd634	-0.021464445
160	0xbd2e4e33	-0.042555045
161	0xbd4aa8d9	-0.049477432
162	0xbd6f7c98	-0.05846843
163	0xbd1c37ad	-0.038139034
164	0xbcc7f7e8	-0.024410203
165	0xbd17ce4f	-0.037061986
166	0xbd3daa94	-0.046305254
167	0x3bb11a50	0.005404748
168	0xbc8a692d	-0.016895855
169	0xbd15e39b	-0.036594015
170	0xbd2a3d43	-0.04156233
171	0xbd63f4c5	-0.055653352
172	0xbd56f0f7	-0.052475896
173	0xbd2fe0aa	-0.042938866
174	0xbd4a3169	-0.049363527
175	0xbd31a450	-0.04336959
176	0xbd32a877	-0.04361769
177	0xbcc1ba63	-0.023648446
178	0xbc8a63f4	-0.016893364
179	0xbccc61e6	-0.024949025
180	0xbd834599	-0.06409759
181	0xbd0e717c	-0.034776196
182	0xbcf01d93	-0.029310977
183	0xbccb78ea	-0.02483793
184	0xbcd470f0	-0.025932759
185	0xbcf1e5f7	-0.029528601
186	0xbccbfd0d	-0.024900937
187	0xbcdaa72e	-0.026691046
188	0xbd3d0dc4	-0.046155706
189	0xbcf7b485	-0.030237446
190	0xbd1c7483	-0.03819705
191	0xbcb314fe	-0.021860596
192	0xbc99eff7	-0.018791182
193	0xbd9d7c95	-0.07689778
194	0xbce1e40d	-0.027574563
195	0xbd29f0b9	-0.041489337
196	0xbcec281b	-0.028827718
197	0xbd432597	-0.04764327
198	0xbd90021e	-0.07031654
199	0xbd2b17f8	-0.041770905
200	0xbd395851	-0.04525024
201	0xbd1df592	-0.038564272
202	0xbcfa230f	-0.030534295
203	0xbd60f0e4	-0.05491723
204	0xbcb8017c	-0.022461645
205	0xbcee92d9	-0.029122757
206	0xbd643d24	-0.05572237
207	0xbd29dd27	-0.041470673
208	0xbd45083a	-0.04810355
209	0xbd7aea85	-0.06125881
210	0xbc6fa40f	-0.014626517
211	0xbd0e8884	-0.03479816
212	0xbd86dbe5	-0.0658491
213	0xbd27101c	-0.040786847
214	0xbd3a89ef	-0.0455417
215	0xbd51e084	-0.051239505
216	0x3bd77ac8	0.006575916
217	0xbc23358e	-0.009961499
218	0xbd3e23ba	-0.04642079
219	0xbd79707a	-0.06089828
220	0xbce251cd	-0.027626896
221	0xbd744d3d	-0.059643973
222	0xbd666deb	-0.05625717
223	0xbcf5123c	-0.029915921
224	0xbcec1058	-0.028816387
225	0xbd128cb2	-0.03577871
226	0xbd079811	-0.033104006
227	0xbd902a5a	-0.07039328
228	0xbca692dc	-0.0203337
229	0xbbdf63be	-0.00681731
230	0xbc9c22fc	-0.01905965
231	0xbcbb8398	-0.022889897
232	0xbd194ad2	-0.03742487
233	0xbbb8e72d	-0.0056427927
234	0xbd3a6c6d	-0.04551356
235	0xbce88ae5	-0.028386543
236	0xbcf23803	-0.029567724
237	0xbcf1a52c	-0.029497705
238	0xbb4024db	-0.0029318843
239	0xbda3e4c8	-0.08002621
240	0xbd59cbb5	-0.053172786
241	0xbcc6f911	-0.024288686
242	0xbd2e0c4e	-0.042492203
243	0xbce9f501	-0.02855921
244	0xbd4c2b1e	-0.049845807
245	0xbd2b9e59	-0.04189906
246	0xbd2f9a6c	-0.042871878
247	0xbce82974	-0.028340079
248	0xbb353066	-0.0027647256
249	0xbcb92db3	-0.022604799
250	0xbccafbc5	-0.024778256
251	0xbd538bba	-0.051646926
252	0xbd1c47d8	-0.038154453
253	0xbd29de09	-0.041471515
254	0xbd05b111	-0.032639567
255	0xbd08a662	-0.0333618

dense/bias f4 [350]
0	0xbb81bbb2	-0.0039591426
1	0xbbefdba6	-0.0073198853
2	0x3b08fe89	0.0020903668
3	0x3bd1e8d1	0.0064059277
4	0xbc086ea7	-0.008327163
5	0xbb5da649	-0.0033821038
6	0xbbea3a24	-0.007148044
7	0x3c2860d3	0.010276991
8	0xbc3b400a	-0.011428842
9	0xbb2ece1b	-0.0026673141
10	0xbc7f3cff	-0.015578507
11	0xbc908c66	-0.017645072
12	0x3c433f1d	0.011916903
13	0xbb7c6680	-0.0038513243
14	0xbc8d15a8	-0.01722224
15	0x3c5c27e7	0.013437248
16	0xbbd5359a	-0.006506634
17	0x3c41dd6f	0.011832579
18	0xbce82499	-0.028337764
19	0xbd38fb3a	-0.045161463
20	0x3cff2cae	0.031149235
21	0xbd2cf9da	-0.042230465
22	0xbd05b602	-0.03264428
23	0xbc144f05	-0.009052043
24	0xbca6fe02	-0.020384792
25	0xbc570ddc	-0.013125863
26	0x3c1a9bb9	0.009436541
27	0xbb4feb12	-0.0031725806
28	0xbc4ed09e	-0.01262298
29	0x3a3bec50	0.0007168697
30	0xbbed4d7c	-0.007241903
31	0xbb7b2f2a	-0.0038327673
32	0xbc407f80	-0.011749148
33	0xbd1d501f	-0.038406488
34	0x3be4dfe7	0.006984699
35	0x3bcc9102	0.006242872
36	0x3c97a4f9	0.018511282
37	0x3bd3c0d2	0.006462195
38	0xbca5bb99	-0.020231055
39	0xbcc32991	-0.023823531
40	0xbc940a89	-0.01807143
41	0xbd48d35c	-0.049029693
42	0xbb7b33a7	-0.0038330348
43	0x3bcda794	0.0062760804
44	0x3b05c262	0.002041005
45	0xbafd33f7	-0.0019317855
46	0x3c0131d4	0.007885415
47	0xbce00685	-0.027346859
48	0x3baef281	0.0053389673
49	0x3c4edc0f	0.012625708
50	0xbba6e9bf	-0.0050937827
51	0x3b123b38	0.002231313
52	0x3b3921fe	0.002824902
53	0xbd26937b	-0.040667992
54	0xbd6abd73	-0.05730958
55	0x3c9e7681	0.019343616
56	0x3bbec2eb	0.005821576
57	0xbd03c6b7	-0.03217193
58	0xbcc19367	-0.023629857
59	0xbc6d48bd	-0.014482674
60	0xbb371bf9	-0.0027940257
61	0xbcdc26f0	-0.026874036
62	0x3c8967ea	0.016773183
63	0x3c0de1b0	0.008659765
64	0xbc78caa0	-0.015185028
65	0xbc79e3b3	-0.015252042
66	0x39ec0ba9	0.00045022115
67	0x3b935fe6	0.004497516
68	0xbc715716	-0.014730236
69	0x3c8029a4	0.015644856
70	0xbcd53063	-0.02602405
71	0x3b7452d4	0.0037280815
72	0xbc28ea97	-0.010309837
73	0x3c937845	0.018001685
74	0xbd01b084	-0.03166248
75	0x3caff9c2	0.021481398
76	0xbce98152	-0.028504048
77	0xbcee39fd	-0.029080385
78	0x3b8e6301	0.0043452983
79	0x3d0c5f74	0.03427072
80	0x3ccc39ef	0.024929969
81	0x3b7d31c4	0.00386344
82	0x3c2acb7c	0.010424491
83	0xbc2a4b4b	-0.010393928
84	0x3c69a7cc	0.014261197
85	0xbd3ab5b3	-0.045583438
86	0x3a810ac2	0.0009845125
87	0xbd06e43b	-0.0329325
88	0x3b44467d	0.002994924
89	0x3a5a7b70	0.00083344337
90	0xba9ad31d	-0.0011812184
91	0xbb130d7e	-0.0022438462
92	0xbd525a34	-0.051355556
93	0xbc384e6e	-0.011249168
94	0xba989d53	-0.0011643566
95	0xbcd3f693	-0.025874412
96	0xbd1dc309	-0.03851608
97	0x3cf43df6	0.029814702
98	0xbc4ae6da	-0.012384141
99	0xbbf50bac	-0.007478198
100	0x3d0d95dc	0.034566745
101	0xbd1e9522	-0.038716443
102	0x3c0abd7c	0.008468028
103	0xbc88b1c1	-0.016686322
104	0x3d042fff	0.032272335
105	0xbd02192b	-0.031762283
106	0xbbc2205a	-0.0059242668
107	0xbb65f18b	-0.0035086598
108	0xbc8bd062	-0.017067138
109	0xbd0533d4	-0.03252013
110	0x3cdf83f4	0.0272846
111	0x3c1bd336	0.009510806
112	0xbc552bac	-0.0130109005
113	0x3c9e1a7c	0.019299738
114	0xbc59b420	-0.013287574
115	0xbc9f6bdf	-0.019460617
116	0xbd200caf	-0.039074596
117	0xbca6bf65	-0.020354936
118	0xbc88316b	-0.016625127
119	0xbb34fb8d	-0.0027615756
120	0xba98c483	-0.0011655245
121	0xbd2aefc8	-0.04173258
122	0xbd29c8cf	-0.04145127
123	0x3c9e57d4	0.01932899
124	0xbd1e14d2	-0.038594075
125	0x3c5d3e58	0.013503633
126	0xbd46e10e	-0.048554473
127	0x3c90584c	0.017620228
128	0xbc9248ad	-0.01785692
129	0xbc8de989	-0.017323272
130	0xbd0ebb0e	-0.034846358
131	0x3bd7677b	0.006573615
132	0xbcba7af2	-0.022763703
133	0x3b55a34a	0.0032598549
134	0xbcbd1cfb	-0.023085108
135	0x3c28b594	0.010297198
136	0xbc012794	-0.007882971
137	0x3bd1773a	0.0063923867
138	0xbc1d76f6	-0.009610882
139	0x3b02f2de	0.0019981186
140	0xbccb5a40	-0.024823308
141	0xba6ad897	-0.0008958666
142	0xbc85246c	-0.016252719
143	0xbc9c1696	-0.019053739
144	0xbc6c622f	-0.014427706
145	0xbcbb87dd	-0.022891933
146	0x3c13847a	0.009003753
147	0x3aa3981d	0.0012481246
148	0x3c98f497	0.018671317
149	0x3c11e690	0.008905068
150	0xbbc0d5f1	-0.005884879
151	0xbd3397d6	-0.043845974
152	0x3c97d070	0.018532008
153	0xbcef8aec	-0.029241048
154	0xbb758c34	-0.00374676
155	0x3c8fa054	0.017532505
156	0xbd041f6b	-0.032256525
157	0xbc955d78	-0.018233046
158	0xbc8dc951	-0.01730791
159	0xbc9620c9	-0.01832618
160	0xbc7d8d3f	-0.01547557
161	0x3d0e67f1	0.034767095
162	0x3ce1d196	0.027565759
163	0xbcb4031e	-0.021974143
164	0x3b98edf4	0.004667038
165	0xb96e18cd	-0.00022706688
166	0xbd2080e4	-0.03918542
167	0xbcb7091b	-0.022343209
168	0xbbbd4fe1	-0.0057773446
169	0x3bc916a5	0.0061367326
170	0xbc766ae8	-0.015040137
171	0xbb64cc04	-0.0034911642
172	0xbc0f6e58	-0.008754335
173	0x3b8af10f	0.004240162
174	0x3ba9b1ed	0.005178681
175	0x3b864a30	0.0040981993
176	0xbc1bda96	-0.009512564
177	0xbc25815f	-0.010101645
178	0xbbab99b7	-0.00523683
179	0xbc4d04df	-0.012513368
180	0x3cc56860	0.024097621
181	0xbc69978a	-0.014257321
182	0xbd1e6bf4	-0.03867717
183	0xbc4d7b97	-0.012541673
184	0xbcdfe76b	-0.027332028
185	0xbcb7295c	-0.022358589
186	0x3bba5ecd	0.0056875707
187	0xbc387183	-0.011257532
188	0xbc6acd38	-0.0143311545
189	0xbb0ed237	-0.0021792778
190	0xbb0bd056	-0.0021333895
191	0xbba6e849	-0.0050936085
192	0x3cf0ed0a	0.029409904
193	0xbc8fbbc9	-0.017545598
194	0x3b17827c	0.0023118546
195	0xbca70d9e	-0.020392235
196	0xbd1759bb	-0.036950808
197	0xbc72d7bf	-0.014821946
198	0x3bdd744e	0.0067582494
199	0xbc29f564	-0.010373447
200	0xbce4918f	-0.027901439
201	0xbd197e70	-0.037474096
202	0xbcace282	-0.021104101
203	0x3c49b0cd	0.012310219
204	0xb808113c	-3.2440978e-05
205	0x3a9bc438	0.0011884039
206	0xba701034	-0.0009157688
207	0xbc4e84a7	-0.012604869
208	0x3b09d83c	0.0021033427
209	0xbd0b3a5d	-0.033991206
210	0xbbde181d	-0.006777777
211	0xbc6dc376	-0.014511934
212	0xbb22568a	-0.002477082
213	0x3cf4847d	0.029848332
214	0xbc403d67	-0.011733389
215	0xbd471af3	-0.048609685
216	0x3be81a2d	0.0070831985
217	0x3b832a1f	0.004002824
218	0xbd38a8ec	-0.04508297
219	0xbc61ecea	-0.013789395
220	0xbc52ea83	-0.012873295
221	0xbc30924a	-0.0107770655
222	0x3c0fbfc5	0.008773749
223	0x3c2ea29d	0.010658887
224	0x3ca930d7	0.020653171
225	0xbcf40ecf	-0.029792218
226	0xbd15ca70	-0.036570013
227	0x3b61923b	0.0034419436
228	0x3c3f829b	0.011688854
229	0x3c81fdca	0.015868086
230	0x3adfc1ed	0.0017071344
231	0x3bdfcefb	0.006830094
232	0xbc885f9b	-0.01664715
233	0x3befbb4d	0.007316029
234	0xbccdb4e5	-0.025110671
235	0xbd3b85eb	-0.04578201
236	0x3c519f56	0.012794336
237	0x3c10aea8	0.008830704
238	0xbb4675a9	-0.0030282533
239	0x3baea1c0	0.0053293407
240	0xbd0667c8	-0.032813817
241	0x3c777480	0.015103459
242	0x3ac46c32	0.0014985858
243	0xbd39d72d	-0.045371223
244	0xbb4c2096	-0.0031147352
245	0xbc4143ae	-0.011795921
246	0xbc88d88c	-0.01670482
247	0xbcb3641c	-0.021898322
248	0x3b33f512	0.0027459306
249	0x3c128b45	0.008944337
250	0x3c3f8c37	0.011691145
251	0xbc0ce1e0	-0.008598775
252	0xbcf7a930	-0.030232042
253	0xbccca5e0	-0.02498144
254	0xbc285537	-0.010274223
255	0xbcae8f4c	-0.021308564

std.constant i1 [350, 173] scale=0.004863652 zero_point=0
0	0xff	-0.004863652
1	0xf4	-0.058363825
2	0x06	0.029181913
3	0x13	0.09240939
4	0x0b	0.05350017
5	0x08	0.038909215
6	0xea	-0.10700034
7	0xfb	-0.02431826
8	0xef	-0.08268208
9	0xf6	-0.04863652
10	0xef	-0.08268208
11	0x05	0.02431826
12	0xe4	-0.13618225
13	0xff	-0.004863652
14	0xed	-0.09240939
15	0x12	0.08754574
16	0xfe	-0.009727304
17	0xec	-0.09727304
18	0x03	0.014590956
19	0x12	0.08754574
20	0xfa	-0.029181913
21	0xea	-0.10700034
22	0xf3	-0.063227475
23	0x26	0.18481877
24	0xe6	-0.12645495
25	0xea	-0.10700034
26	0xee	-0.08754574
27	0xf5	-0.05350017
28	0xfc	-0.019454608
29	0x1a	0.12645495
30	0x20	0.15563686
31	0x0a	0.04863652
32	0xf4	-0.058363825
33	0x0d	0.063227475
34	0x04	0.019454608
35	0xe0	-0.15563686
36	0xde	-0.16536416
37	0xed	-0.09240939
38	0x1e	0.14590956
39	0xfd	-0.014590956
40	0x03	0.014590956
41	0xff	-0.004863652
42	0x07	0.034045562
43	0x0a	0.04863652
44	0xf2	-0.068091124
45	0xf0	-0.07781843
46	0x0b	0.05350017
47	0x01	0.004863652
48	0xfc	-0.019454608
49	0x04	0.019454608
50	0xf9	-0.034045562
51	0xe0	-0.15563686
52	0xf8	-0.038909215
53	0x00	0.0
54	0x0d	0.063227475
55	0x11	0.08268208
56	0xf9	-0.034045562
57	0x0b	0.05350017
58	0x07	0.034045562
59	0x00	0.0
60	0x15	0.102136694
61	0x09	0.04377287
62	0xed	-0.09240939
63	0xfd	-0.014590956
64	0x21	0.16050051
65	0xf6	-0.04863652
66	0x0f	0.07295478
67	0x0b	0.05350017
68	0x07	0.034045562
69	0x09	0.04377287
70	0x2b	0.20913704
71	0x35	0.25777355
72	0xf2	-0.068091124
73	0xd2	-0.22372799
74	0x0d	0.063227475
75	0x53	0.4036831
76	0x0b	0.05350017
77	0xf6	-0.04863652
78	0x03	0.014590956
79	0xfe	-0.009727304
80	0xf0	-0.07781843
81	0xce	-0.2431826
82	0xf6	-0.04863652
83	0xed	-0.09240939
84	0x0b	0.05350017
85	0xef	-0.08268208
86	0x0d	0.063227475
87	0xf5	-0.05350017
88	0xfb	-0.02431826
89	0xfe	-0.009727304
90	0x05	0.02431826
91	0xe8	-0.11672765
92	0x15	0.102136694
93	0xf8	-0.038909215
94	0xfa	-0.029181913
95	0xf9	-0.034045562
96	0x0c	0.058363825
97	0xea	-0.10700034
98	0xf8	-0.038909215
99	0xfb	-0.02431826
100	0xf0	-0.07781843
101	0xda	-0.18481877
102	0xf8	-0.038909215
103	0x35	0.25777355
104	0xe5	-0.1313186
105	0x0c	0.058363825
106	0xf8	-0.038909215
107	0x0f	0.07295478
108	0x1a	0.12645495
109	0x07	0.034045562
110	0x48	0.35018295
111	0xc9	-0.26750085
112	0xf4	-0.058363825
113	0xe3	-0.14104591
114	0x14	0.09727304
115	0x01	0.004863652
116	0x3c	0.29181913
117	0xbe	-0.32100102
118	0x00	0.0
119	0x07	0.034045562
120	0xe1	-0.15077321
121	0xc3	-0.29668278
122	0xe3	-0.14104591
123	0x0c	0.058363825
124	0x2a	0.20427339
125	0xea	-0.10700034
126	0xf1	-0.07295478
127	0x08	0.038909215
128	0x32	0.2431826
129	0xe2	-0.14590956
130	0xe9	-0.11186399
131	0xe2	-0.14590956
132	0xdf	-0.16050051
133	0xe4	-0.13618225
134	0xfe	-0.009727304
135	0xf4	-0.058363825
136	0x0a	0.04863652
137	0xe9	-0.11186399
138	0xd1	-0.22859164
139	0x08	0.038909215
140	0x04	0.019454608
141	0x08	0.038909215
142	0xf8	-0.038909215
143	0xef	-0.08268208
144	0xf5	-0.05350017
145	0x01	0.004863652
146	0xf5	-0.05350017
147	0x14	0.09727304
148	0xf8	-0.038909215
149	0xf8	-0.038909215
150	0x28	0.19454607
151	0x00	0.0
152	0xed	-0.09240939
153	0x17	0.11186399
154	0xf4	-0.058363825
155	0x0b	0.05350017
156	0xf7	-0.04377287
157	0x09	0.04377287
158	0x08	0.038909215
159	0x0c	0.058363825
160	0xed	-0.09240939
161	0xe7	-0.1215913
162	0x02	0.009727304
163	0x08	0.038909215
164	0xf6	-0.04863652
165	0x0f	0.07295478
166	0x00	0.0
167	0x07	0.034045562
168	0x02	0.009727304
169	0xf2	-0.068091124
170	0x03	0.014590956
171	0x04	0.019454608
172	0xf8	-0.038909215
173	0x05	0.02431826
174	0xf4	-0.058363825
175	0x01	0.004863652
176	0xec	-0.09727304
177	0xfa	-0.029181913
178	0xec	-0.09727304
179	0xfe	-0.009727304
180	0xfa	-0.029181913
181	0xfd	-0.014590956
182	0x0a	0.04863652
183	0x0a	0.04863652
184	0xeb	-0.102136694
185	0xfc	-0.019454608
186	0xf3	-0.063227475
187	0xff	-0.004863652
188	0x1a	0.12645495
189	0x13	0.09240939
190	0x00	0.0
191	0x06	0.029181913
192	0xf5	-0.05350017
193	0xfc	-0.019454608
194	0x12	0.08754574
195	0x04	0.019454608
196	0xf1	-0.07295478
197	0x12	0.08754574
198	0xff	-0.004863652
199	0x10	0.07781843
200	0x0a	0.04863652
201	0xfc	-0.019454608
202	0x14	0.09727304
203	0x01	0.004863652
204	0x12	0.08754574
205	0x00	0.0
206	0xf9	-0.034045562
207	0xeb	-0.102136694
208	0x13	0.09240939
209	0x02	0.009727304
210	0xec	-0.09727304
211	0xd7	-0.19940972
212	0xfe	-0.009727304
213	0x00	0.0
214	0xee	-0.08754574
215	0xf1	-0.07295478
216	0x12	0.08754574
217	0xe4	-0.13618225
218	0x01	0.004863652
219	0xf0	-0.07781843
220	0xe0	-0.15563686
221	0xfa	-0.029181913
222	0x02	0.009727304
223	0xf4	-0.058363825
224	0x06	0.029181913
225	0xf8	-0.038909215
226	0xf2	-0.068091124
227	0xea	-0.10700034
228	0x05	0.02431826
229	0xf3	-0.063227475
230	0xfd	-0.014590956
231	0xf6	-0.04863652
232	0xe9	-0.11186399
233	0xfb	-0.02431826
234	0xf2	-0.068091124
235	0xf4	-0.058363825
236	0xdf	-0.16050051
237	0xfa	-0.029181913
238	0xfb	-0.02431826
239	0xe1	-0.15077321
240	0xff	-0.004863652
241	0x1f	0.15077321
242	0xdd	-0.17022781
243	0xf5	-0.05350017
244	0x0e	0.068091124
245	0xf1	-0.07295478
246	0x00	0.0
247	0xfe	-0.009727304
248	0x29	0.19940972
249	0x3a	0.28209183
250	0x57	0.42313772
251	0x35	0.25777355
252	0x2d	0.21886434
253	0x26	0.18481877
254	0x07	0.034045562
255	0x03	0.014590956
