TFLiteWrapper/test_library/model.tflite (tflite, 4148 bytes, 4 tensors)

StatefulPartitionedCall/sequential_1/dense_3/BiasAdd/ReadVariableOp f4 [24]
0.04539898 0.18149704 0.18658407 -0.029382335 -0.10587524 0.111801356 -0.10549871 0.20620145
0.09694522 0.060422827 0.043331586 0.08611113 0.09489132 -0.047052223 0.011951845 0.089261696
-0.017336037 0.008030962 0.13979109 0.04648012 -0.07348901 0.14143625 0.19701926 0.05114011
00000000: 48f4 393d 5cda 393e e50f 3f3e 39b3 f0bc
00000010: 1ed5 d8bd 1cf8 e43d b50f d8bd 7926 533e
00000020: 378b c63d ed7d 773d 767c 313d 085b b03d
00000030: 6156 c23d d5b9 40bd acd1 433c d6ce b63d
00000040: 4e04 8ebc 4c94 033c 6525 0f3e f061 3e3d
00000050: 6881 96bd aad4 103e 6bbf 493e 4b78 513d

StatefulPartitionedCall/sequential_1/dense_4/BiasAdd/ReadVariableOp f4 [4]
0.013991052 0.024582207 -0.14330962 0.089350216
00000000: ba3a 653c a060 c93c c2bf 12be 3ffd b63d

sequential_1/dense_3/MatMul@__inference__wrapped_model_6870 f4 [24, 25]
0.07999879 0.3575372 0.4843709 0.10233705 0.38945362 0.07212174 0.28883633 0.40071464
-0.024788724 0.17764276 -0.09365592 0.07624316 0.457061 0.03923527 0.16797756 0.45473248
0.014274264 -0.34018794 -0.29870766 -0.28315803 -0.005882291 -0.19916967 -0.3665 -0.36971822
-0.08871707 -0.05379566 0.48680902 0.6091922 0.35627946 0.37134773 0.3327615 0.1987117
0.49641064 0.566467 0.1206587 0.0134276375 -0.1552775 0.6858115 0.4683414 0.5073592
0.6376606 -0.5073017 -0.46660835 -0.7340061 -0.37789664 -0.2297682 -0.3208295 -0.34137163
-0.32575142 -0.3653154 0.21752915 -0.53380746 -0.4299526 0.20195277 0.5482413 -0.33405793
-0.029461289 0.06591712 0.28865108 0.19492559 0.045152847 -0.08526043 0.5182895 -0.69814193
0.29961362 0.06684951 -0.4150763 -0.21016328 -0.13440523 -0.3131961 -0.21726532 0.23261869
0.043815803 0.2255609 0.07986932 0.21733342 0.22519366 0.24310629 -0.1320009 -0.45464712
-0.008823336 0.19385974 -0.398798 -0.09468052 -0.39049014 -0.13338566 -0.24691379 -0.22845285
-0.17840865 -0.21608756 -0.43901652 0.3505594 0.38334918 0.60735846 0.5655072 0.4473037
0.108539894 0.028938588 0.031162674 0.085382596 0.17034575 0.35420448 0.20742571 -0.09426328
0.42542392 0.4152503 -0.041741688 0.09738955 0.19134918 -0.08760546 0.015660578 0.10429199
0.5427362 0.30609795 0.12819014 -0.17468798 -0.39168432 -0.1355051 -0.31898773 -0.31085178
-0.12018223 -0.056435533 -0.39675298 -0.38759172 0.22427526 0.0030150814 0.5847579 0.11015111
0.15578116 -0.5547209 -0.16263786 -0.19928975 -0.50586647 -0.61271924 -0.6549627 -0.18303353
-0.22759448 -0.053074084 -0.20886742 -0.11087263 -0.010607025 0.6218998 0.19876601 0.0068105063
0.44334576 0.32486314 -0.2568788 0.18896589 0.21266598 0.1266445 -0.34789085 0.20589773
0.10990844 -0.1322946 -0.07326529 0.475487 0.18099502 0.63152146 0.38002586 0.24013412
-0.07762728 -0.14761406 0.3943684 0.324057 0.22917667 0.34355927 0.2486283 -0.39791304
-0.1481703 -0.3539851 -0.104822576 -0.45487785 -0.40665346 -0.4659823 -0.3402682 0.033370942
0.42458475 0.7302265 0.1167343 -0.5297411 0.031674605 0.34811974 -0.29048058 -0.19919297
-0.47213408 -0.010681009 -0.18389457 -0.4097371 0.079374924 -0.16944066 -0.42099524 0.3261309
0.32188594 0.45491165 0.6041986 0.40258622 -0.04492508 0.22683959 -0.27977017 -0.16497463
0.29729494 -0.5099008 -0.54678744 0.2379962 0.18212378 -0.6363886 -0.08172273 -0.07454613
-0.11177318 0.02921817 0.08320554 -0.009574976 0.15221792 -0.4127811 -0.060462 0.6578477
-0.39797258 -0.34007603 -0.08627629 -0.45658022 -0.18049957 0.33380264 -0.015134934 0.49888656
0.03635416 0.221797 -0.005103165 0.1710736 0.30327597 0.34176263 0.15480165 0.19298534
-0.117826216 -0.35239965 -0.053432856 0.12741353 -0.18790996 0.3058491 -0.23868917 -0.010465335
0.6685676 -0.17303248 -0.20533389 -0.6834834 0.061045356 0.4592151 0.13534422 0.3999591
0.1475303 -0.4517895 0.17153344 0.00961183 0.08242723 -0.34503517 -0.14831214 0.24588344
00000000: 68d6 a33d 1e0f b73e 76ff f73e 1696 d13d
00000010: 7766 c73e 90b4 933d 5be2 933e 782a cd3e
00000020: b911 cbbc fce7 353e adce bfbd 6025 9c3d
00000030: e603 ea3e 2ab5 203d 4f02 2c3e b2d2 e83e
00000040: 9ade 693c 1d2d aebe 36f0 98be 17fa 90be
00000050: 3cc0 c0bb 22f3 4bbe e3a5 bbbe b54b bdbe
00000060: 4cb1 b5bd d758 5cbd 083f f93e 05f4 1b3f
00000070: 436a b63e 4a21 be3e b75f aa3e 147b 4b3e
00000080: 8929 fe3e fb03 113f e91b f73d 98ff 5b3c
00000090: 1101 1fbe 5891 2f3f 72ca ef3e 4be2 013f
000000a0: ba3d 233f 86de 01bf 4ae7 eebe d3e7 3bbf
000000b0: ab7b c1be 5b48 6bbe c443 a4be 43c8 aebe
000000c0: e4c8 a6be 9f0a bbbe f6bf 5e3e 9ba7 08bf
000000d0: bf22 dcbe b5cc 4e3e 8b59 0c3f a409 abbe
000000e0: cd58 f1bc 8eff 863d 13ca 933e 939a 473e
000000f0: 31f2 383d 059d aebd 9fae 043f 6eb9 32bf
00000100: f566 993e 65e8 883d e184 d4be 0b35 57be
00000110: 86a1 09be 3d5b a0be cd7a 5ebe 9833 6e3e
00000120: 3378 333d 70f9 663e 8792 a33d a78c 5e3e
00000130: 2b99 663e dbf0 783e 3e2b 07be 82c7 e8be
00000140: c18f 10bc 2b83 463e 402f ccbe dce7 c1bd
00000150: 53ee c7be 4096 08be f8d6 7cbe 8bef 69be
00000160: c2b0 36be 0f46 5dbe c6c6 e0be 867c b33e
00000170: 5846 c43e d87b 1b3f 14c5 103f fe04 e53e
00000180: 2a4a de3d 9e10 ed3c dd48 ff3c 12dd ae3d
00000190: 1e6f 2e3e 4a5a b53e 6867 543e 1b0d c1bd
000001a0: 2ad1 d93e b09b d43e 55f9 2abd 2c74 c73d
000001b0: 0af1 433e 7e6a b3bd 9d4a 803c 0a97 d53d
000001c0: c2f0 0a3f dfb8 9c3e 4744 033e 68e1 32be
000001d0: d98a c8be d9c1 0abe 5c52 a3be f727 9fbe
000001e0: 1a22 f6bd f228 67bd 3523 cbbe 6c72 c6be
000001f0: 6aa8 653e ac98 453b b2b2 153f e896 e13d
00000200: 1985 1f3e 3002 0ebf 8a8a 26be 9d12 4cbe
00000210: 7780 01bf 2bdb 1cbf a3ab 27bf 246d 3bbe
00000220: 870e 69be 3664 59bd 57e1 55be 3011 e3bd
00000230: 16c9 2dbc d334 1f3f 5189 4b3e ab2a df3b
00000240: 37fe e23e 7654 a63e 9e85 83be 4680 413e
00000250: 1cc5 593e 19af 013e c01e b2be dbd6 523e
00000260: ad17 e13d 3c78 07be 1d0c 96bd 0873 f33e
00000270: c256 393e 64ab 213f c092 c23e b8e5 753e
00000280: 0dfb 9ebd 2428 17be a8ea c93e cdea a53e
00000290: 4aad 6a3e 00e7 af3e 6b98 7e3e 42bb cbbe
000002a0: f5b9 17be 893d b5be 38ad d6bd c0e5 e8be
000002b0: e234 d0be 3b95 eebe a237 aebe f8af 083d
000002c0: 2c63 d93e 20f0 3a3f 6512 ef3d 1d9d 07bf
000002d0: 3bbd 013d c03c b23e dfb9 94be 3ef9 4bbe
000002e0: 8fbb f1be 66ff 2ebc dc4e 3cbe 10c9 d1be
000002f0: 528f a23d da81 2dbe b08c d7be a1fa a63e
00000300: 3cce a43e 2eea e83e c2ac 1a3f c81f ce3e
00000310: 5c03 38bd a348 683e 093e 8fbe 1cef 28be
00000320: 0b37 983e dc88 02bf 43fa 0bbf 47b5 733e
00000330: a87e 3a3e 5dea 22bf 3f5e a7bd a4ab 98bd
00000340: 56e9 e4bd f25a ef3c ab67 aa3d 5ce0 1cbc
00000350: 04df 1b3e 0b58 d3be 01a7 77bd b568 283f
00000360: 10c3 cbbe 721e aebe a0b1 b0bd e2c4 e9be
00000370: e1d4 38be 2ee8 aa3e 84f8 77bc 0f6e ff3e
00000380: 1ae8 143d c11e 633e 7338 a7bb eb2d 2f3e
00000390: fd46 9b3e 83fb ae3e 5384 1e3e f39d 453e
000003a0: df4e f1bd ba6d b4be 69dc 5abd b178 023e
000003b0: 786b 40be 4198 9c3e ef6a 74be cc76 2bbc
000003c0: 3f27 2b3f 6d2f 31be 0c43 52be c5f8 2ebf
000003d0: b20a 7a3d 3e1e eb3e ad97 0a3e 70c7 cc3e
000003e0: 2f12 173e f450 e7be 76a6 2f3e f07a 1d3c
000003f0: 9ccf a83d 73a8 b0be 23df 17be dec8 7b3e

sequential_1/dense_4/MatMul@__inference__wrapped_model_6870 f4 [4, 24]
-0.76071876 -0.68582505 -0.21154405 -0.1660372 0.16605137 -0.11349533 -0.20618191 -0.2215852
-0.06878208 -0.6833366 0.70077604 0.5327011 -0.41240576 -0.29859576 -0.08064451 -0.46674705
-0.1428763 0.066582404 0.57824343 -0.47027817 -0.6121566 -0.31571564 0.27922088 -0.26947263
-0.27105904 -0.2896327 -0.8139704 0.3982702 -0.25104195 0.7235154 0.018565152 0.85741967
-0.52730507 -0.23946898 -0.14714783 -0.5166158 -0.5371934 -0.13677827 0.21462548 -0.8588276
0.23821501 0.5885372 -0.50411224 0.3969092 -0.3800626 -0.30895466 -0.48279852 -0.7465278
0.63522047 0.58322823 -0.77505374 -0.21885857 0.56763846 -0.2171434 0.7440123 0.2894281
-0.49804658 -0.28873935 0.2545811 -0.6419365 -0.06834002 0.6090021 -0.50644124 0.17229506
-0.06946501 0.36667332 -0.060311936 0.42695358 0.5274881 -0.15186836 -0.7812783 0.11598447
-0.3480833 -0.053721044 0.034926116 -0.44640306 -0.15320957 -0.36818454 -0.1809991 -0.64043605
0.10714434 0.2602966 -0.6265169 -0.12777497 0.25669998 -0.3233977 -0.45309427 0.3305639
-0.45827544 0.260925 -0.10744028 -0.40707105 0.017511936 0.25630566 -0.06950031 -0.04272577
00000000: 77be 42bf 3b92 2fbf 019f 58be a805 2abe
00000010: 5f09 2a3e 3d70 e8bd 5a21 53be 3be7 62be
00000020: 9fdd 8cbd 26ef 2ebf 0f66 333f 195f 083f
00000030: d926 d3be 8be1 98be f328 a5bd 78f9 eebe
00000040: 2a4e 12be 5b5c 883d c307 143f 4dc8 f0be
00000050: 4cb6 1cbf 7ba5 a1be 0af6 8e3e 51f8 89be
00000060: 40c8 8abe bd4a 94be 5d60 50bf 12ea cb3e
00000070: 9288 80be 4e38 393f f215 983c db7f 5b3f
00000080: 77fd 06bf 5b37 75be ecad 16be ef40 04bf
00000090: 8285 09bf 9a0f 0cbe c8c6 5b3e 20dc 5bbf
000000a0: a3ee 733e 60aa 163f 800d 01bf af37 cb3e
000000b0: 9197 c2be 4e2f 9ebe 5e31 f7be 721c 3fbf
000000c0: cf9d 223f 724e 153f ec69 46bf 761c 60be
000000d0: c150 113f d75a 5ebe 9777 3e3f ec2f 943e
000000e0: f6ff febe a5d5 93be 7458 823e f355 24bf
000000f0: daf5 8bbd 90e7 1b3f 22a6 01bf 1e6e 303e
00000100: ac43 8ebd 9bbc bb3e a609 77bd a999 da3e
00000110: 7609 073f 6183 1bbe db01 48bf 4489 ed3d
00000120: f937 b2be 990a 5cbd b00e 0f3d f18e e4be
00000130: f8e2 1cbe af82 bcbe d457 39be 9ef3 23bf
00000140: 7e6e db3d 9945 853e 6963 20bf 71d7 02be
00000150: 2e6e 833e 6294 a5be f9fb e7be ac3f a93e
00000160: 14a3 eabe f697 853e a609 dcbd 9e6b d0be
00000170: 3175 8f3c 7f3a 833e 2e56 8ebd 3801 2fbd
